fitted_models/lstm_model.pth (torch, 71526 bytes, 5 tensors)

lstm.weight_ih_l0 f4 [256, 1]
0.07608318 0.05692047 -0.14638263 0.090143934 0.02063768 0.23088668 0.18935263 -0.26012087
-0.14480639 -0.27354282 -0.11409321 0.27630907 0.23972003 0.17886361 0.058667134 0.062879466
-0.24857539 -0.052546892 0.13544233 0.18409829 -0.15972592 0.04279953 0.057942044 0.018173588
-0.06167837 -0.13559258 0.14586912 0.1234256 0.1748837 -0.1409497 -0.12048272 0.18364663
0.15280919 0.12106576 0.03906566 0.10034838 0.073225796 0.10841149 -0.017075485 0.09728297
0.1423081 -0.08111588 0.0059023625 0.031825967 0.03621727 0.24799503 0.04955111 -0.18906623
-0.014437006 0.031134918 0.13954952 0.09525895 -0.05355661 0.19708335 0.2362553 0.119514935
0.1402097 0.17476559 -0.05582939 0.09846757 -0.06534682 -0.42183244 -0.23591442 0.1371332
0.15581365 -0.025011417 -0.16187817 0.06406917 0.098361924 -0.015329201 0.0703564 -0.14580765
-0.19244346 -0.25242716 0.09427981 0.12617871 0.07483037 -0.083685994 0.10758191 0.25765136
-0.0014335264 0.06932734 0.2188146 0.11841377 -0.10477418 0.32204896 -0.009419123 -0.03952337
0.10533285 -0.0899717 -0.05858129 0.2939898 -0.09211885 -0.19348042 -0.19188564 0.071518525
0.19786221 0.06391321 0.12103536 0.19261375 0.104991786 0.08738119 0.07102991 0.002772924
0.20682915 -0.1239758 -0.0983432 0.14496009 0.1204053 -0.047600485 0.076999076 -0.014464195
0.14579837 0.04059579 0.1970527 -0.065211974 -0.019214362 0.11680311 0.34551725 0.07130797
0.12022129 0.15639147 0.1013915 0.15497504 -0.06052923 -0.28649542 -0.18655111 -0.07531865
-0.22248483 -0.16978654 0.17215188 0.028618464 0.15145226 0.42625663 0.27231959 -0.11069296
-0.15506805 -0.020816524 -0.22338834 -0.39147726 -0.23119694 -0.13292572 -0.059298016 -0.049428146
-0.16384669 -0.13654982 0.023052443 -0.17281865 -0.14467168 -0.21353261 -0.0140446415 0.29969716
0.07103777 0.1538476 -0.4873043 -0.24936396 -0.39593714 -0.19260861 0.16699858 0.19720891
0.18558243 0.092799045 -0.023893705 -0.24958539 0.1234807 0.026204035 -0.12947296 -0.09776835
-0.010498207 0.20029001 -0.20493704 -0.1832242 -0.10238274 0.31074533 -0.09960058 0.11895506
0.021615265 -0.17638499 -0.14138706 0.042647153 0.06190457 0.24926576 -0.118076794 0.05979666
0.20547861 0.14347494 -0.13287072 -0.08736975 0.13963716 -0.06920292 0.14399764 -0.3512335
0.17083871 0.04400134 -0.21904701 0.14775302 0.10880395 0.38335863 0.24549349 -0.37477207
-0.26392755 -0.12203321 -0.30633992 0.31305766 0.19527143 -0.11627476 0.043084588 0.38282564
-0.1762051 0.11238947 0.3506811 0.09750912 -0.2357241 0.41097334 -0.027812563 0.07911796
0.0867822 -0.19020085 0.21413453 0.2535965 0.22959816 -0.2931774 -0.3597675 0.13296711
0.20466098 0.08646284 0.096774906 0.16086107 0.16272807 0.18112981 0.21773894 0.08960339
0.22827691 -0.2240631 -0.1010669 0.24597973 0.24604759 0.11195173 0.23964022 -0.3206225
0.5336086 0.012327371 0.23976657 0.2205873 0.26298335 0.17900261 0.5321034 0.07723481
0.004277022 0.33586815 0.15586759 0.5963959 -0.117267475 -0.637594 -0.3046837 0.1321548
00000000: 80d1 9b3d 7025 693d 54e5 15be 629d b83d
00000010: 5a10 a93c 8f6d 6c3e a8e5 413e 902e 85be
00000020: 2048 14be ce0d 8cbe b3a9 e9bd 6278 8d3e
00000030: 2b79 753e 0628 373e f34c 703d f3c6 803d
00000040: 8c8a 7ebe 693b 57bd 65b1 0a3e 4384 3c3e
00000050: 318f 23be 8f4e 2f3d a354 6d3d c7e0 943c
00000060: 75a2 7cbd c8d8 0abe b75e 153e 90c6 fc3d
00000070: b614 333e 1e55 10be a5bf f6bd dd0d 3c3e
00000080: 037a 1c3e 53f1 f73d 5003 203d 7483 cd3d
00000090: 68f7 953d d806 de3d e3e1 8bbc 4b3c c73d
000000a0: 37b9 113e 1520 a6bd 9b68 c13b f25b 023d
000000b0: 8f58 143d 69f2 7d3e 1bf6 4a3d 949a 41be
000000c0: 3189 6cbc a80e ff3c 12e6 0e3e 2017 c33d
000000d0: 2d5e 5bbd 38d0 493e e9ec 713e 3fc4 f43d
000000e0: 2293 0f3e c0f5 323e 5cad 64bd 5ea9 c93d
000000f0: 8ed4 85bd 6cfa d7be 8d93 71be a56c 0c3e
00000100: 9d8d 1f3e bee4 ccbc 64c3 25be b236 833d
00000110: fa71 c93d 5427 7bbc 0417 903d 9a4e 15be
00000120: e60f 45be 223e 81be c615 c13d fe34 013e
00000130: aa40 993d 9063 abbd e853 dc3d e1ea 833e
00000140: 2ae5 bbba 7efb 8d3d ef10 603e eb82 f23d
00000150: d893 d6bd 9ae3 a43e aa52 1abc 42e3 21bd
00000160: c0b8 d73d 1543 b8bd eff2 6fbd d585 963e
00000170: cfa8 bcbd bb1f 46be ab7d 44be 4e78 923d
00000180: 649c 4a3e eee4 823d 63e1 f73d 8a3c 453e
00000190: ef05 d73d e9f4 b23d 2178 913d f2b9 353b
000001a0: 05cb 533e 06e7 fdbd 2968 c9bd 6b70 143e
000001b0: 0e97 f63d baf8 42bd b1b1 9d3d 3bfb 6cbc
000001c0: 2b4c 153e c547 263d 2fc8 493e db8d 85bd
000001d0: 7067 9dbc 7836 ef3d a3e7 b03e ea09 923d
000001e0: 9436 f63d 1625 203e 59a6 cf3d c7b1 1e3e
000001f0: 7fed 77bd 87af 92be 4107 3fbe aa40 9abd
00000200: 10d3 63be 86dc 2dbe 9548 303e 4571 ea3c
00000210: 4d16 1b3e 4f3e da3e 796d 8b3e feb2 e2bd
00000220: 29ca 1ebe 6a87 aabc eabf 64be b56f c8be
00000230: e4be 6cbe ae1d 08be 7ae2 72bd 2b75 4abd
00000240: 6dc7 27be b7d3 0bbe 7ad8 bc3c 5ff7 30be
00000250: d024 14be 4ba8 5abe 7f1b 66bc e871 993e
00000260: 407c 913d 3a8a 1d3e f37f f9be 4459 7fbe
00000270: 46b8 cabe 313b 45be ad01 2b3e 22f1 493e
00000280: 5209 3e3e 6d0d be3d bbbc c3bc 5093 7fbe
00000290: 73e3 fc3d d8a9 d63c 8f94 04be c63a c8bd
000002a0: ac00 2cbc d318 4d3e 04db 51be 209f 3bbe
000002b0: 0bae d1bd 031a 9f3e 64fb cbbd b69e f33d
000002c0: 7f12 b13c 449e 34be c5c7 10be c8ae 2e3d
000002d0: a58f 7d3d 863f 7f3e 3fd2 f1bd 58ed 743d
000002e0: fc68 523e 18eb 123e 430f 08be e9ee b2bd
000002f0: 0bfd 0e3e 43ba 8dbd 1e74 133e e1d4 b3be
00000300: 58f0 2e3e c03a 343d dc4d 60be 914c 173e
00000310: 9bd4 de3d 9547 c43e a562 7b3e 20e2 bfbe
00000320: 8321 87be 8cec f9bd 96d8 9cbe 1849 a03e
00000330: 3cf5 473e 7621 eebd 7779 303d b901 c43e
00000340: 1c6f 34be 732c e63d 798c b33e ddb2 c73d
00000350: a961 71be 196b d23e 2cd7 e3bc 9908 a23d
00000360: deba b13d 03c4 42be 1546 5b3e 67d7 813e
00000370: c81b 6b3e 591b 96be 7233 b8be 8828 083e
00000380: a692 513e 6e13 b13d ec31 c63d c4b8 243e
00000390: 30a2 263e 187a 393e f5f6 5e3e fb81 b73d
000003a0: 6cc1 693e cc70 65be 2afc cebd 1ce2 7b3e
000003b0: e6f3 7b3e f346 e53d 3f64 753e a228 a4be
000003c0: 939a 083f bef8 493c 5e85 753e a3e1 613e
000003d0: c1a5 863e 764c 373e ee37 083f 492d 9e3d
000003e0: 4326 8c3b e9f6 ab3e c19b 1f3e 67ad 183f
000003f0: ee29 f0bd 5c39 23bf 80ff 9bbe 9753 073e

lstm.weight_hh_l0 f4 [256, 64]
-0.115541406 0.10653444 -0.16114034 0.13284259 -0.054848913 0.02019818 -0.07307605 0.15810308
-0.05857048 -0.06252745 -0.037526026 0.1296233 0.118122 0.049893256 -0.17079958 0.11300494
0.16265385 0.11995002 0.01984538 -0.00924019 0.004930245 -0.025375603 0.121521674 -0.002305993
-0.15116718 0.07353684 0.1250183 0.046254706 -0.032005586 0.057416204 -0.16593736 -0.16299376
-0.0802589 0.112300634 0.1454019 0.10574818 -0.11521271 -0.046959296 0.025633892 -0.041935597
0.088703565 0.0075334175 0.14616014 0.0028567635 0.0559629 0.06972649 0.089605875 0.14311005
-0.006811733 -0.11164136 0.10834865 -0.084554985 -0.04892284 0.0037813333 0.085110344 -0.20725402
0.068904035 -0.00211691 -0.09469362 0.060443986 0.092743576 0.11642389 0.06193325 0.16171278
0.025170077 0.14002666 -0.10003954 0.19410704 0.058561064 0.057838343 -0.22163726 0.38328868
-0.09755142 -0.23095928 -0.17438269 -0.0027574352 0.09165529 0.07019411 -0.08812104 -0.023158731
-0.06734492 0.12328712 -0.07100893 -0.01954617 0.05672648 -0.028265018 0.0046671834 -0.024808438
0.0854349 0.3476259 -0.2112566 -0.03582364 -0.17426045 -0.23258387 -0.14379384 0.07432248
0.16442393 -0.16087009 -0.09979529 0.062042065 -0.015282317 0.15831235 -0.118921235 -0.19704574
0.059432555 0.0389279 -0.0064863553 -0.083726086 -0.07734104 0.08841094 0.11514345 0.07161144
-0.03372223 -0.040747594 0.01255548 0.042953853 0.037627365 0.14780429 -0.16336022 0.04475545
0.062755495 -0.05214858 -0.18662734 -0.044882283 0.2576499 -0.083735034 0.1700298 -0.108328596
-0.029082065 0.115841575 -0.028164364 -0.23762439 -0.057504535 -0.03567139 -0.13495573 -0.01741923
-0.08418941 0.011505045 -0.081172995 -0.10671058 -0.039113086 0.13683933 -0.016449181 -0.1696492
0.023722589 0.11907424 -0.049151555 -0.04161891 0.06991286 -0.17866811 -0.11341429 0.057136532
-0.044182304 0.005830041 0.002308364 0.045352854 -0.1427053 -0.049866706 -0.117192075 -0.0013809263
0.15116757 0.04867946 0.045835774 -0.04725897 0.09348496 0.058519255 -0.095785886 0.08681747
-0.15154554 -0.0932074 0.07276846 0.07291579 -0.05827463 0.012720621 0.095410235 -0.0342909
-0.14973615 -0.05669485 -0.06026901 -0.10279264 -0.09122509 -0.05067957 -0.061507117 -0.017337093
-0.112632856 0.043970034 -0.14663987 -0.020360472 -0.025580864 -0.035229806 -0.14378808 -0.113274276
0.118218735 0.12205815 0.08678674 0.064803265 -0.056601748 0.17082594 0.041241203 0.3145183
-0.24250406 -0.17594677 -0.112791225 -0.07513484 -0.11861707 -0.025691003 0.03064438 -0.006743913
-0.3451804 0.11768705 -0.07285211 0.039157145 -0.1954957 0.11287784 -0.058177 -0.0047908206
-0.0245953 0.28784287 -0.11239587 0.009761112 0.0963659 -0.42178854 0.15592347 0.07967961
-0.05270578 0.009303961 -0.070336424 0.13084035 0.046997186 0.079551496 -0.07587758 -0.022463016
-0.07208313 0.27265167 -0.15601236 0.069672175 0.037639014 0.10095035 0.03903055 0.27263376
0.06883615 -0.11161862 0.002675953 0.038996965 0.2394189 -0.14063072 -0.094065346 -0.20697036
0.18237904 0.12031684 -0.047390405 0.026484333 0.29012942 -0.32841802 0.18480274 -0.029203096
00000000: f9a0 ecbd ba2e da3d f901 25be e307 083e
00000010: 41a9 60bd a776 a53c e5a8 95bd c6e5 213e
00000020: 9ae7 6fbd 640e 80bd e4b4 19bd f8bb 043e
00000030: f2e9 f13d df5c 4c3d 16e6 2ebe 226f e73d
00000040: bb8e 263e 5ba8 f53d c792 a23c 2a64 17bc
00000050: e58d a13b 7fe0 cfbc 5be0 f83d 2520 17bb
00000060: 92cb 1abe 7c9a 963d cc04 003e 9375 3d3d
00000070: 4a18 03bd 412d 6b3d 7ceb 29be d6e7 26be
00000080: c75e a4bd e0fd e53d 3ce4 143e 8092 d83d
00000090: a4f4 ebbd 6458 40bd 2bfe d13c a9c4 2bbd
000000a0: 37aa b53d e3da f63b 01ab 153e 8a38 3b3b
000000b0: 5b39 653d c3cc 8e3d 4983 b73d 718b 123e
000000c0: f534 dfbb 3aa4 e4bd e6e5 dd3d 2a2b adbd
000000d0: 5163 48bd 3fd0 773b 554e ae3d 663a 54be
000000e0: 8f1d 8d3d dbbb 0abb bbee c1bd 1d94 773d
000000f0: 58f0 bd3d a66f ee3d b8ad 7d3d 0998 253e
00000100: 7a31 ce3c 2663 0f3e 88e1 ccbd ffc3 463e
00000110: badd 6f3d e6e7 6c3d e1f4 62be 6a3e c43e
00000120: 0ac9 c7bd 9780 6cbe 6091 32be 16b6 34bb
00000130: c5b5 bb3d eec1 8f3d ce78 b4bd 61b7 bdbc
00000140: 22ec 89bd f57d fc3d 216d 91bd 4a1f a0bc
00000150: 075a 683d 0a8c e7bc 2cef 983b 113b cbbc
00000160: 7ef8 ae3d 06fc b13e a653 58be cfbb 12bd
00000170: 5571 32be 772a 6ebe b13e 13be 6236 983d
00000180: bf5e 283e 21bb 24be 7961 ccbd d21f 7e3d
00000190: af62 7abc a21c 223e fa8c f3bd 5cc6 49be
000001a0: 8d6f 733d dd72 1f3d 7e8b d4bb 9578 abbd
000001b0: fb64 9ebd cb10 b53d 54d0 eb3d 05a9 923d
000001c0: 5220 0abd f3e6 26bd 80b5 4d3c 61f0 2f3d
000001d0: 271f 1a3d 025a 173e e747 27be 7e51 373d
000001e0: f485 803d c099 55bd 3d1b 3fbe 7cd6 37bd
000001f0: b0ea 833e 467d abbd 4b1c 2e3e 62db ddbd
00000200: 833d eebc 593e ed3d f4b8 e6bc cf53 73be
00000210: e089 6bbd 2a1c 12bd d631 0abe c6b2 8ebc
00000220: 7f6b acbd a87f 3c3c 073e a6bd 148b dabd
00000230: 0b35 20bd 9c1f 0c3e 6fc0 86bc 85b8 2dbe
00000240: e055 c23c 32dd f33d 2453 49bd 9778 2abd
00000250: 792e 8f3d c6f4 36be c045 e8bd ff07 6a3d
00000260: 81f8 34bd ee09 bf3b ec47 173b eac3 393d
00000270: 5721 12be 0841 4cbd 6602 f0bd 3300 b5ba
00000280: accb 1a3e 1d64 473d 4bbe 3b3d 9f92 41bd
00000290: 0b75 bf3d e3b1 6f3d 642b c4bd 5ccd b13d
000002a0: c12e 1bbe 85e3 bebd a107 953d e054 953d
000002b0: 61b1 6ebd 276a 503c 7166 c33d 9d74 0cbd
000002c0: 6f54 19be dc38 68bd a3dc 76bd f384 d2bd
000002d0: 38d4 babd 6195 4fbd e3ee 7bbd 8506 8ebc
000002e0: 0eac e6bd ec19 343d c328 16be 01cb a6bc
000002f0: f68e d1bc 214d 10bd 2f3d 13be 58fc e7bd
00000300: aa1c f23d a0f9 f93d 3fbd b13d 93b7 843d
00000310: 3cd7 67bd ffec 2e3e 89ec 283d 8b08 a13e
00000320: fc52 78be 642b 34be 16ff e6bd 4ce0 99bd
00000330: 82ed f2bd f075 d2bc ec09 fb3c 0bfc dcbb
00000340: 7cbb b0be e805 f13d 7d33 95bd 3e63 203d
00000350: 0630 48be 7f2c e73d 024b 6ebd 51fc 9cbb
00000360: 157c c9bc 2460 933e ce2f e6bd 12ed 1f3c
00000370: 7c5b c53d abf4 d7be 67aa 1f3e 102f a33d
00000380: 04e2 57bd a46f 183c 8b0c 90bd 03fb 053e
00000390: 1f80 403d e5eb a23d b465 9bbd 5c04 b8bc
000003a0: 52a0 93bd 0099 8b3e b4c1 1fbe 49b0 8e3d
000003b0: 5e2b 1a3d 0fbf ce3d 7fde 1f3d a796 8b3e
000003c0: f8f9 8c3d 4e98 e4bd 0b5f 2f3b 48bb 1f3d
000003d0: 3a2a 753e 8001 10be 55a5 c0bd 0af0 53be
000003e0: 92c1 3a3e ad68 f63d 711c 42bd acf5 d83c
000003f0: d88b 943e 6826 a8be ee3c 3d3e 553b efbc

lstm.bias_ih_l0 f4 [256]
0.05825592 0.17503424 0.02842525 -0.10447383 -0.020475777 0.36040774 0.26170948 0.19944327
0.056581523 0.15756936 0.070528634 0.13745956 0.020246062 0.19357286 -0.014652196 -0.044278424
0.08315508 0.028747436 0.22130089 -0.009197369 0.05621941 0.15211752 0.10210367 0.052451305
0.12860864 0.039275248 0.32201436 0.24510248 0.27170926 0.0052637355 0.1007013 0.08404707
0.061472077 -0.06055511 -0.026759487 0.034968108 -0.07900973 0.10217486 0.00050638115 0.20125477
-0.13233447 0.19863893 0.07046596 0.3435927 0.14064011 0.098990984 0.055160236 -0.009335737
0.19807754 -0.048529204 -0.027067345 0.17291765 0.17335667 0.12417428 0.14015013 -0.13013309
0.00584105 0.1771292 -0.041139204 0.16018555 -0.03124089 0.19986083 0.21645495 0.2798619
-0.09003375 -0.0058289184 -0.105477944 0.14451689 0.03544157 -0.13858095 0.1457773 0.16160138
0.0071296114 -0.020270035 0.1263549 -0.1252245 0.08723845 -0.015354189 0.18369816 0.056455474
0.022392318 0.098208554 0.011034871 -0.044590667 0.102539524 -0.009860436 -0.062980704 -0.07172081
-0.008850594 0.069965936 -0.052261915 -0.0060546356 -0.08529164 -0.05330169 -0.045287456 0.0013705151
0.09005526 0.0044498686 0.16854885 -0.020137418 0.017240338 -0.07789699 0.1502531 0.12764065
-0.062116053 0.025753886 -0.0845106 -0.059244417 0.029709456 -0.030714259 0.11767266 0.11010927
0.17356154 -0.004313977 0.09744056 0.0831569 0.12142303 0.05845707 -0.089365974 -0.06989138
0.1669696 -0.009498989 0.11553791 0.2030401 -0.04124759 0.29203832 -0.023035787 0.09413809
-0.10342296 -0.015302539 -0.16226523 -0.024864065 0.12664205 0.046558816 -0.10577166 -0.079800956
0.004100153 0.08338699 0.13066418 -0.1278751 -0.107997805 0.10599028 -0.22779872 -0.069669984
0.1461118 0.08650663 0.21010308 -0.02430974 0.048946433 -0.06919465 0.034547243 -0.092624605
0.18362294 0.108306944 -0.1541625 0.03350268 0.022530114 0.0019125136 -0.23464425 0.13928963
0.15302669 0.09270351 -0.10621711 0.0855172 -0.034539517 0.08496083 -0.08655327 -0.17567386
-0.018494498 -0.09109669 0.07278704 -0.25583166 -0.11203497 -0.020995433 0.019611053 0.11520113
-0.20943199 -0.026009912 0.079752125 -0.27698165 -0.24775673 0.15931816 -0.13972959 0.002882751
-0.08300787 0.053820956 -0.020272546 -0.13528931 -0.13265012 0.09774445 0.045569066 -0.18279716
0.1235675 0.21668589 0.14085133 0.04333483 0.0065846476 0.25175688 0.08108055 0.04896641
-0.023378046 0.06659453 0.020105794 0.13386886 0.24640648 0.05078246 0.16023967 0.107568145
0.012363171 0.110441595 0.121291995 0.24320503 -0.023843877 0.21671647 0.041700378 0.13015494
0.19005139 0.21132289 0.30954516 0.1571197 0.25816748 0.113185994 0.114273466 0.09833174
0.015027514 -0.069315374 0.17318028 0.32840544 0.044876717 0.10835006 -0.02012111 -0.019306839
-0.009503174 0.06935151 0.07544607 0.17752846 0.18655257 0.21030983 0.008370323 -0.07184915
0.16834544 0.21402216 -0.07192841 0.11101589 0.010348098 0.21830687 0.103351936 0.049832903
0.06519861 0.067155406 0.11543965 -0.08489495 -0.056807894 -0.0037114448 0.024528254 0.21974711
00000000: c29d 6e3d 2d3c 333e 12dc e83c 60f6 d5bd
00000010: d1bc a7bc 5d87 b83e c9fe 853e db3a 4c3e
00000020: 07c2 673d dd59 213e 5171 903d 33c2 0c3e
00000030: 12db a53c f737 463e c40f 70bc 4b5d 35bd
00000040: 364d aa3d be7f eb3c b39c 623e 90b0 16bc
00000050: 5346 663d b2c4 1b3e bb1b d13d 2ed7 563d
00000060: fcb1 033e 15df 203d 11df a43e 25fc 7a3e
00000070: 7a1d 8b3e 6a7b ac3b 7c3c ce3d df20 ac3d
00000080: 25ca 7b3d a308 78bd b636 dbbc b83a 0f3d
00000090: dacf a1bd 0e41 d13d aabe 043a bb15 4e3e
000000a0: b082 07be 0168 4b3e 7550 903d 62eb af3e
000000b0: f603 103e c9bb ca3d b3ef 613d ebf4 18bc
000000c0: d7d4 4a3e 8fc6 46bd 56bc ddbc 5311 313e
000000d0: 6984 313e 164f fe3d 8483 0f3e 9c41 05be
000000e0: 4766 bf3b 5b61 353e 9581 28bd ae07 243e
000000f0: e5ec ffbc 51a8 4c3e 5ea6 5d3e 0f4a 8f3e
00000100: 9d63 b8bd 8300 bfbb d204 d8bd 3cfc 133e
00000110: 2e2b 113d 2ae8 0dbe a546 153e d57a 253e
00000120: 849f e93b 580d a6bc 2e63 013e da3a 00be
00000130: 13aa b23d 2390 7bbc 5f1b 3c3e db3d 673d
00000140: 1870 b73c 9121 c93d 9bcb 343c b4a4 36bd
00000150: 3e00 d23d ab8d 21bc 07fc 80bd 5ce2 92bd
00000160: 1502 11bc 4d4a 8f3d 9710 56bd f765 c6bb
00000170: 62ad aebd df52 5abd 577f 39bd dba2 b33a
00000180: e46e b83d 34d0 913b 1298 2c3e 3af7 a4bc
00000190: 9c3b 8d3c 7588 9fbd f3db 193e 3bb4 023e
000001a0: 676d 7ebd d0f9 d23c e513 adbd 46aa 72bd
000001b0: 3f61 f33c 789c fbbc 5dfe f03d f880 e13d
000001c0: 1eba 313e 435c 8dbb eb8e c73d 2a4e aa3d
000001d0: a3ac f83d ae70 6f3d 8205 b7bd 3623 8fbd
000001e0: 14fa 2a3e a6a1 1bbc 249f ec3d bee9 4f3e
000001f0: 3cf3 28bd 0c86 953e 8cb5 bcbc 79cb c03d
00000200: 6bcf d3bd 80b7 7abc db28 26be b9af cbbc
00000210: 74ae 013e 75b4 3e3d d09e d8bd af6e a3bd
00000220: 945a 863b ccc6 aa3d d5cc 053e b1f1 02be
00000230: f42d ddbd 6f11 d93d 1144 69be 23af 8ebd
00000240: 559e 153e 632a b13d 4325 573e 3825 c7bc
00000250: 0e7c 483d edb5 8dbd 6981 0d3d f8b1 bdbd
00000260: a707 3c3e 08d0 dd3d c6dc 1dbe 1b3a 093d
00000270: 1391 b83c 4fad fa3a 9546 70be f1a1 0e3e
00000280: 07b3 1c3e 56db bd3d 5b88 d9bd a423 af3d
00000290: 4f79 0dbd f2ff ad3d d742 b1bd d9e3 33be
000002a0: c681 97bc e790 babd 5f11 953d 5efc 82be
000002b0: 9772 e5bd 9dfe abbc 5ca7 a03c 92ee eb3d
000002c0: 5775 56be bd12 d5bc 1555 a33d 8ad0 8dbe
000002d0: f1b3 7dbe 4d24 233e 4615 0fbe 89ec 3c3b
000002e0: 0800 aabd 5d73 5c3d 9c12 a6bc 4889 0abe
000002f0: 6fd5 07be 3e2e c83d a1a6 3a3d 2e2f 3bbe
00000300: f510 fd3d e8e2 5d3e 553b 103e dd7f 313d
00000310: 07c4 d73b 47e6 803e 8f0d a63d 0191 483d
00000320: 5183 bfbc b762 883d e8b4 a43c eb14 093e
00000330: fb51 7c3e 4501 503d de15 243e b04c dc3d
00000340: e68e 4a3c 342f e23d f067 f83d bd0a 793e
00000350: 3c54 c3bc ecea 5d3e 04ce 2a3d 5647 053e
00000360: d59c 423e 0765 583e b47c 9e3e fde3 203e
00000370: 872e 843e 0fce e73d 3508 ea3d 2762 c93d
00000380: f635 763c 38f5 8dbd 2c56 313e c224 a83e
00000390: a6d0 373d a3e6 dd3d 07d5 a4bc 6029 9ebc
000003a0: 33b3 1bbc 2a08 8e3d 7883 9a3d 05ca 353e
000003b0: a307 3f3e 765b 573e ae23 093c a625 93bd
000003c0: bf62 2c3e a028 5b3e 344f 93bd 4d5c e33d
000003d0: 128b 293c d68b 5f3e 2eaa d33d 961d 4c3d
000003e0: d986 853d c688 893d a06b ec3d 67dd adbd
000003f0: 65af 68bd b63b 73bb 7aef c83c 6305 613e

lstm.bias_hh_l0 f4 [256]
0.13175188 -0.04877414 0.13805126 -0.005532048 -0.09662342 0.44315895 0.10717138 0.12429449
0.13870937 0.19934501 0.13877204 0.2768992 0.18578343 0.14453124 0.12822576 -0.03307628
0.09557305 0.05360237 0.1731462 0.17701672 0.0071454127 0.15861803 0.09526206 0.100133374
0.20267832 0.19858178 0.31428167 0.106521234 0.26048 0.0879039 0.2169377 0.048786934
0.1073733 -0.06720782 0.17265303 0.26534733 -0.08361693 0.09121458 -0.006487997 0.19698416
-0.15535522 0.14530511 0.12455479 0.18090928 -0.0015430419 0.07161725 0.16552497 -0.012819101
0.07491624 -0.021282881 0.0943026 0.20506422 0.25131816 0.2232552 0.009680544 -0.06545543
0.07260366 0.08444366 -0.08576359 0.1009991 -0.08053267 0.118723415 0.1954205 0.29238626
0.06026628 -0.028005136 -0.08087607 -0.016215166 -0.16046584 -0.10326183 -0.048033044 0.0963846
-0.05248978 0.035551965 0.22085558 -0.0625741 0.042255495 -0.026919376 0.0038576575 0.055785667
-0.0046572285 -0.012270111 -0.006550748 0.05692927 -0.06309612 -0.0072034784 -0.115972646 0.11613631
0.067055985 0.010316895 0.05714747 0.07344467 0.012542135 -0.0151521815 0.17544079 -0.09827551
0.09480761 -0.11193333 -0.01710473 -0.015700812 0.03652395 0.04559345 0.100726634 0.08070747
-0.07907203 0.18773021 -0.04134733 -0.04514093 0.14659919 0.122623496 -0.046432313 0.06525089
0.176191 0.0334192 0.13471203 0.08399473 0.23228422 -0.05961736 0.037189335 -0.13735196
0.16447341 0.026282646 0.012054703 0.10477445 -0.07489295 0.115090966 0.034330223 0.027405612
-0.037766352 -0.048481785 -0.05127024 -0.123968855 0.03276725 0.01670923 -0.046417028 -0.081791975
0.03286308 -0.10281515 0.061053827 0.09170113 0.047403507 0.120667465 -0.16587983 -0.11367639
-0.034643166 0.103181995 0.27617425 -0.123321325 -0.006390259 -0.093825005 0.13505705 -0.08054377
0.119306535 0.060129102 0.01840856 -0.018930838 0.051186938 -0.03607069 -0.19794816 0.10896355
-0.018129984 -0.09426555 -0.21349446 0.06194472 0.026713159 0.21725978 -0.09929789 -0.23903464
-0.12855442 -0.16302773 -0.024913598 -0.094353355 -0.16997246 -0.026405597 -0.1817849 -0.062539116
-0.21475868 0.058638413 -0.056532912 -0.2537048 -0.15185724 0.08844395 -0.22057599 -0.01611454
0.08508575 0.057958785 -0.13347396 -0.12537347 0.04524626 0.11053988 -0.0984582 0.004651239
0.12677443 0.30332273 0.09219129 0.08359681 -0.12168538 0.22360167 0.24490814 0.20905818
0.038807932 0.018109683 -0.004355056 0.16796131 0.10911122 -0.035237003 0.06786906 0.02030449
-0.07879259 0.15643403 0.1221831 0.018562444 0.00624878 0.10853805 -0.04215911 0.27206787
0.2194805 0.03274037 0.41553444 0.18596227 0.082483314 0.18239212 0.08758787 0.17282848
0.009606118 0.01744067 0.040625848 0.30837888 -0.0683841 0.0604133 0.036088936 0.043681733
-0.12580873 0.16635539 0.15190142 0.16725145 0.026308198 -0.01356368 0.0149686625 0.13400601
0.02043761 0.26908275 0.03983416 -0.003978772 0.18993805 0.24069467 0.13250925 -0.05364401
0.16519044 0.03162443 0.14415361 0.05813219 -0.049264606 0.00740374 0.09666047 0.11776445
00000000: f7e9 063e 65c7 47bd 4f5d 0d3e 2f46 b5bb
00000010: 80e2 c5bd bbe5 e23e ab7c db3d 1c8e fe3d
00000020: d409 0e3e 1921 4c3e 421a 0e3e bbc5 8d3e
00000030: 033e 3e3e ffff 133e 9d4d 033e fe7a 07bd
00000040: cebb c33d 298e 5b3d 3d4d 313e df43 353e
00000050: 1124 ea3b c46c 223e c118 c33d ba12 cd3d
00000060: e88a 4f3e 0659 4b3e 87e9 a03e ce27 da3d
00000070: a25d 853e f606 b43d eb24 5e3e cfd4 473d
00000080: 88e6 db3d 41a4 89bd f5cb 303e 9bdb 873e
00000090: 5a3f abbd b6ce ba3d 4399 d4bb 37b6 493e
000000a0: 7015 1fbe ddca 143e 9516 ff3d 4840 393e
000000b0: e53f caba 11ac 923d 617f 293e 3507 52bc
000000c0: b06d 993d 7059 aebc b921 c13d 5bfc 513e
000000d0: c6ac 803e 039d 643e 259b 1e3c 7f0d 86bd
000000e0: 3ab1 943d ccf0 ac3d d2a4 afbd 9ed8 ce3d
000000f0: 50ee a4bd 4325 f33d 501c 483e a7b3 953e
00000100: c6d9 763d 076b e5bc 5aa2 a5bd abd5 84bc
00000110: 2851 24be f07a d3bd 4cbe 44bd 4a65 c53d
00000120: 86ff 56bd f09e 113d f727 623e da26 80bd
00000130: 1914 2d3d 0686 dcbc c1d0 7c3b 837f 643d
00000140: aa9b 98bb 9308 49bc a8a7 d6bb ab2e 693d
00000150: 8a38 81bd 280b ecbb 1183 edbd e0d8 ed3d
00000160: a654 893d 3208 293c 7713 6a3d 296a 963d
00000170: 877d 4d3c db40 78bc c0a6 333e ac44 c9bd
00000180: 7e2a c23d 4d3d e5bd 381f 8cbc fd9e 80bc
00000190: 239a 153d 33c0 3a3d c449 ce3d f549 a53d
000001a0: 84f0 a1bd 593c 403e d15b 29bd b2e5 38bd
000001b0: 191e 163e 0722 fb3d cf2f 3ebd 42a2 853d
000001c0: 6a6b 343e 92e2 083d f3f1 093e 6e05 ac3d
000001d0: eadb 6d3e 5531 74bd d853 183d fea5 0cbe
000001e0: b86b 283e b44e d73c 1781 453c fd93 d63d
000001f0: 7a61 99bd d0b4 eb3d d99d 0c3d bc81 e03c
00000200: e4b0 1abd d694 46bd be00 52bd 62e3 fdbd
00000210: f436 063d cce1 883c c81f 3ebd 8d82 a7bd
00000220: 709b 063d c090 d2bd 9413 7a3d cdcd bb3d
00000230: 2e2a 423d 8120 f73d 67dc 29be 2bcf e8bd
00000240: fee5 0dbd 1551 d33d b666 8d3e e48f fcbd
00000250: 6165 d1bb 5327 c0bd 654c 0a3e 22f4 a4bd
00000260: fc56 f43d ef49 763d 8ccd 963c d814 9bbc
00000270: 65a9 513d dcbe 13bd ecb2 4abe 4828 df3d
00000280: 5585 94bc 4c0e c1bd 4b9e 5abe bfb9 7d3d
00000290: 8ed5 da3c 5979 5e3e b15c cbbd 7fc5 74be
000002a0: c5a3 03be bef0 26be 9a17 ccbc 553c c1bd
000002b0: 430d 2ebe 8d50 d8bc d225 3abe 8214 80bd
000002c0: b3e9 5bbe d52e 703d 0e8f 67bd 98e5 81be
000002d0: 7780 1bbe 1a22 b53d acde 61be a402 84bc
000002e0: 7041 ae3d 3166 6d3d 66ad 08be e761 00be
000002f0: 2454 393d bc62 e23d 74a4 c9bd 6c69 983b
00000300: 28d1 013e 1e4d 9b3e c9ce bc3d ce34 ab3d
00000310: 2f36 f9bd d6f7 643e 33c9 7a3e 5913 563e
00000320: 11f5 1e3d c25a 943c dcb4 8ebb 0dfe 2b3e
00000330: b475 df3d ad54 10bd effe 8a3d 9a55 a63c
00000340: 025e a1bd 3e30 203e 223b fa3d 4410 983c
00000350: 91c2 cc3b 3249 de3d 08af 2cbd 7b4c 8b3e
00000360: 7fbf 603e c41a 063d eec0 d43e e56c 3e3e
00000370: 03ed a83d 00c5 3a3e 4561 b33d f3f9 303e
00000380: fb62 1d3c bcdf 8e3c 4a67 263d d6e3 9d3e
00000390: f70c 8cbd f073 773d fed1 133d 9eeb 323d
000003a0: 01d4 00be 1159 2a3e 0c8c 1b3e f743 2b3e
000003b0: 4a84 d73c 333a 5ebc 1f3f 753c df38 093e
000003c0: c66c a73c 37c5 893e 2529 233d 5c60 82bb
000003d0: 1f7f 423e aa78 763e 81b0 073e d2b9 5bbd
000003e0: af27 293e 9e88 013d 019d 133e 051c 6e3d
000003f0: afc9 49bd 139b f23b edf5 c53d 7d2e f13d

fc.weight f4 [1, 64]
-0.17888221 -0.094177976 0.19330423 0.007302809 0.09893802 0.3162234 0.1767166 0.099107385
-0.17506252 -0.036780927 -0.24983287 -0.35431564 -0.19152454 -0.16998291 0.00825224 -0.16915385
-0.08410409 -0.032958895 0.18662995 -0.2002714 -0.10362914 -0.20482236 -0.122050606 0.2981159
0.07199906 0.10171728 -0.31519422 -0.14339264 -0.2739166 -0.2348394 0.13355112 0.08179103
0.22712755 0.115240626 -0.09887099 -0.26062694 0.07851785 0.11139222 -0.16155043 -0.06829698
-0.06780718 0.09788181 -0.19168182 -0.10489027 -0.08037399 0.29225206 -0.08031298 0.17348407
-0.09596227 -0.25737092 -0.05683327 -0.11019652 -0.06477183 0.16561449 -0.17861483 0.056290407
0.280018 0.14586188 -0.10708135 -0.0880727 -0.05410767 -0.18931815 0.08283142 -0.2599662
00000000: e62c 37be 62e0 c0bd 8bf1 453e 674c ef3b
00000010: 04a0 ca3d 09e8 a13e 32f5 343e d0f8 ca3d
00000020: 9743 33be 99a7 16bd 30d4 7fbe dc68 b5be
00000030: 021f 44be 0010 2ebe 6734 073c ab36 2dbe
00000040: c43e acbd e8ff 06bd ec1b 3f3e f213 4dbe
00000050: 843b d4bd f4bc 51be abf5 f9bd a6a2 983e
00000060: 3e74 933d 2651 d03d 2361 a1be 85d5 12be
00000070: cc3e 8cbe bd79 70be a0c1 083e 0e82 a73d
00000080: 2094 683e 4703 ec3d e07c cabd e570 85be
00000090: f7cd a03d 9b21 e43d 7a6d 25be 49df 8bbd
000000a0: 7ede 8abd 4276 c83d 3d48 44be b6d0 d6bd
000000b0: 1e9b a4bd 10a2 953e 227b a4bd cfa5 313e
000000c0: de87 c4bd 1fc6 83be 01ca 68bd b7ae e1bd
000000d0: 18a7 84bd d896 293e cee6 36be c590 663d
000000e0: 855e 8f3e d15c 153e 784d dbbd 765f b4bd
000000f0: 01a0 5dbd 9edc 41be 85a3 a93d 4a1a 85be
