fitted_models/mlp_model.pth (torch, 17824 bytes, 4 tensors)

net.0.weight f4 [64, 30]
000000 7f c5 1b 3e 33 05 28 3e 61 07 f7 bc e4 b6 38 3e
       0.15212058 0.16408233 -0.030154886 0.18038517
000010 88 e0 de bc d2 ec 4b 3d 0b 20 9b bd 54 e2 f6 3d
       -0.027206674 0.049786396 -0.07574471 0.120548874
000020 b1 ac 32 3e 0f 12 f6 bd 32 dc 30 3e d0 7a 46 3d
       0.17448689 -0.12015163 0.17271498 0.048456967
000030 ad 0d 19 3e 3a 23 22 3d 72 5a d3 3d 61 05 28 bc
       0.14946623 0.039584376 0.103199854 -0.010255189
000040 de 61 20 3e 03 26 31 3d 0a 6e 8c bd 2c 51 82 3d
       0.15662333 0.04324914 -0.06856926 0.063631386
000050 f2 48 88 bd 3b bc 5c bb 2b e0 63 bd ad 76 0f 3e
       -0.06654538 -0.003368153 -0.055633705 0.14010115
000060 28 3a ff bd 82 80 83 bd a9 f4 fe bc fe f4 b5 bd
       -0.12462264 -0.06420995 -0.031122522 -0.08884619
000070 75 17 1e 3d 02 45 22 be c5 4c 42 3e 83 5b 05 be
       0.03859659 -0.15846637 0.18974598 -0.1302319
000080 f4 c7 29 3e 7e 62 62 3d c4 b7 0c bd 6b 21 0d 3e
       0.16580182 0.05526971 -0.03435494 0.13782279
000090 d0 86 5b 3d 5d f5 30 3e b1 2b 3a 3d 4c 92 02 bd
       0.053595364 0.17281099 0.045451824 -0.0318778
0000a0 b5 8f 99 3d 99 5b bf bc 3c 6f d3 3d 1c 3a 42 3e
       0.07498113 -0.023359107 0.10323951 0.1896748
0000b0 cc b8 07 3e 12 da 56 bd 96 4e 08 3e b8 ea 78 3d
       0.13254088 -0.05245406 0.13311228 0.06077072
0000c0 4e 47 f8 3d 09 8e a8 bd 2e dd 1a be 98 f8 25 bd
       0.12122975 -0.08230216 -0.15123436 -0.04052028
0000d0 9f 30 e0 bd 13 4f 39 3e 3e ca ac 3d 6f 41 dd 3d
       -0.10946774 0.1809657 0.08437012 0.10803496
0000e0 42 f6 b9 3d 32 5e fa 3c 3a 8d 35 3e 69 7c c2 bd
       0.09080173 0.030562494 0.17729655 -0.094963856
0000f0 de ac d9 3c f4 57 e0 bd 6c f5 91 3d 75 37 44 bd
       0.026571687 -0.10954276 0.07126889 -0.04790445
000100 aa f4 90 3d 7b 99 be bc 0a 21 2a 3e 35 ac bf bd
       0.07077916 -0.023266545 0.16614166 -0.09359018
000110 76 43 c1 bd d4 c3 c1 bd 59 fa 35 3e a3 ef 97 3d
       -0.09436695 -0.094611794 0.17771281 0.07418754
000120 2f 60 41 3e 1e f9 0c be 74 61 2c be 8a 58 05 be
       0.18884347 -0.13766906 -0.1683405 -0.13022056
000130 bf be e3 bd 2a a0 ac 3d 75 89 98 3d 8f a4 23 3e
       -0.11120366 0.08428986 0.07448093 0.15980743
000140 6c 69 b1 bd 87 83 ef bd fc ab d3 3d be f1 89 bd
       -0.08662686 -0.11695009 0.10335538 -0.06735562
000150 60 98 ee 3d aa a3 1a bd 92 5e e1 3d 4f b3 0b be
       0.11650157 -0.03775374 0.11004366 -0.1364262
000160 f6 8c b1 bd da 32 77 3d 42 6f b0 3d 4a ee 6b 3a
       -0.08669464 0.06035123 0.08614971 0.00090000464
000170 ea db 1f 3e 34 46 2f 3e 7b 62 af bd 1b f1 50 bd
       0.15611234 0.17116624 -0.085637055 -0.051011186
000180 0c 64 5a 3e 49 30 82 bc 4c d0 9e bc 4f e2 06 be
       0.21327227 -0.015892165 -0.019386433 -0.13172267
000190 d0 ea 75 bd f9 ab b7 3d 3b 04 a0 3c 58 14 b7 bd
       -0.060038388 0.08968348 0.019533267 -0.08939427
0001a0 2a fb 3f 3d cf 6b a9 bd 6e 75 e8 bd 7d 99 74 bd
       0.046870388 -0.08272516 -0.11350523 -0.05971669
0001b0 55 d4 f4 bd 3d 76 9c bd 68 73 63 3e 3b 47 96 3d
       -0.119545616 -0.0763974 0.22211993 0.07337805
0001c0 30 44 c1 3d 7d 36 08 be 31 ec aa bd 00 c3 cd bc
       0.09436834 -0.13302036 -0.08345831 -0.025117397
0001d0 11 be 81 3d f3 e1 01 be f9 14 3b bd ea 4f 9d bd
       0.063350804 -0.12683849 -0.045674298 -0.07681258
0001e0 fe a6 fb 3c 3f c8 1b bd 89 55 89 3c 83 4f c2 bd
       0.030719277 -0.038032766 0.01676442 -0.09487822
0001f0 8a 15 c7 bd 0d f9 a1 bd b9 e2 13 bd 4e a6 f3 bd
       -0.09720905 -0.07908831 -0.03610489 -0.118969545
000200 44 d4 34 3e a3 8e 68 bc 62 d3 35 3e 39 a9 9b 3d
       0.17659098 -0.0141941635 0.17756417 0.07600636
000210 b8 30 0c be 17 b8 11 3e 5b d9 13 bd 91 39 6d bd
       -0.1369046 0.14230381 -0.03609596 -0.057916228
000220 d1 39 11 be 08 05 33 be a4 ab 5d 3d a9 26 2f bd
       -0.14182211 -0.17482388 0.054118767 -0.04276148
000230 ff d5 80 3d 2a 9e 26 be dd db ef 3d 8f 50 21 be
       0.062908165 -0.16271272 0.117118575 -0.15753387
000240 3d 99 77 bd 26 c7 84 3b 8f b1 61 3d 82 8a d3 3d
       -0.060448874 0.0040520607 0.055100974 0.10329153
000250 4c b2 f1 3d 5e 11 48 be 55 6f 98 3d d8 2f 4d bd
       0.118015856 -0.19537875 0.0744311 -0.050094455
000260 fe 06 0a 3c 2a a5 dd bd 77 53 47 3e 5d 1b d8 bd
       0.008424519 -0.10822518 0.19465433 -0.10552094
000270 0c 30 01 3e 65 60 be 3d f8 08 b5 3d 01 14 8e bd
       0.12615985 0.092957295 0.08839601 -0.06937409
000280 f7 34 48 3e f6 48 8f 3d 63 d1 5b 3d cd 76 05 be
       0.19551454 0.06996338 0.053666484 -0.130336
000290 fc 56 dc 3d b4 3c 82 3b b4 72 54 bd 6d 84 41 3e
       0.107587785 0.0039745215 -0.051867202 0.18898173
0002a0 cb 36 96 3d 8f 28 8b bd d1 e1 70 bd d6 11 d0 3c
       0.0733467 -0.06794845 -0.058809105 0.02539913
0002b0 9c f6 0b 3e c3 a8 39 bc c4 d9 8b bd 5f 0a d5 bc
       0.13668293 -0.01133174 -0.06828645 -0.026005922
0002c0 76 1d cb bd 29 00 d3 3d 1a 44 38 3e 5a d6 07 be
       -0.099177286 0.10302765 0.17994729 -0.13265362
0002d0 68 fc 81 3d 93 4a ec 3d ce e6 5d 3d f4 cd 33 bd
       0.06346971 0.115376614 0.05417519 -0.043897584
0002e0 a1 84 ee 3d 2c 0d f0 3d 0f a9 b7 3d 5d 42 2c bc
       0.11646391 0.11721262 0.08967792 -0.010513869
0002f0 9d e6 d9 bc 8f dc 29 3d db 93 25 bc 07 44 03 bd
       -0.026599223 0.041470107 -0.010106052 -0.032047298
000300 c2 a4 0e 3e c1 1a 38 3e e7 00 ab 3b 73 94 8c bc
       0.13930038 0.17978956 0.0052186134 -0.01716063
000310 80 ac db 3c 50 7a 60 3c e0 46 8d 3d 92 f9 9c 3d
       0.026815653 0.013701037 0.06898284 0.07664789
000320 45 4a 0f be 95 7c 27 bd 44 35 39 3e 5c 1b ca 3d
       -0.13993175 -0.040890295 0.18086725 0.098685
000330 3e 3d 9b 3c 61 0f a7 bd 8b 60 a9 bd 51 3e 09 be
       0.018950101 -0.0815723 -0.08270367 -0.13402678
000340 9f df ee bc e8 25 be 3d df b8 c3 3d c6 a7 81 3d
       -0.029159365 0.09284574 0.09556746 0.06330828
000350 51 f4 3a be 3b 67 06 be 0f 1e 4f bd 2c 43 1e 3e
       -0.18257262 -0.13125317 -0.050565775 0.15455312
000360 65 35 83 3b 10 7d 8f bd 21 66 56 3d d7 ec be bd
       0.004004168 -0.07006276 0.05234349 -0.09322517
000370 b6 c7 11 be 49 4c de 3d f7 ae dd bd f6 a0 7f bd
       -0.1423634 0.10854394 -0.108243875 -0.062409364
000380 fa 13 55 be 18 96 c2 3d 4e 12 e2 3d b8 e4 1a 3d
       -0.20808402 0.09501284 0.110386476 0.03781578
000390 3d a1 20 be a7 c4 57 be 3d 29 38 be 37 eb d3 3d
       -0.15686508 -0.2107111 -0.17984481 0.10347598
0003a0 11 70 5c 3d 17 fe f2 3d 11 c9 73 3d 33 08 12 3c
       0.053817812 0.1186487 0.059517924 0.008913088
0003b0 df 25 25 bd df ec 36 be 13 44 4a be c5 59 5a be
       -0.04031932 -0.17863797 -0.19752531 -0.21323307
0003c0 40 f2 b6 3d c0 a3 99 bd 32 4c b5 bc 42 59 b9 bd
       0.08932924 -0.07501936 -0.02213106 -0.09050228
0003d0 a1 d5 99 bc 97 ad e9 bd 35 11 d7 bd b8 f0 98 3d
       -0.018778624 -0.11410063 -0.10501329 0.074677885
0003e0 30 f3 24 bd 37 8d 01 3e 58 f9 37 bd ad b9 f6 bd
       -0.040270984 0.12651525 -0.044915527 -0.120471336
0003f0 b0 ef 9b bc 54 db 9a bd 2a 9b 31 bd e4 9a 25 be
       -0.01903519 -0.07561365 -0.043360867 -0.16172367

net.0.bias f4 [64]
000000 83 2b cc bd e4 46 db bd 54 f9 4e bd 6f fb 93 bd
       -0.09969237 -0.10706881 -0.050530747 -0.072256915
000010 bd 36 2f 3e 9b b8 99 bc fb de ad 3d 00 8c 07 bd
       0.17110725 -0.018764785 0.08489796 -0.0330925
000020 a6 dc f4 3d b2 03 f5 3d 18 f3 01 be 84 c5 56 bc
       0.11956148 0.119635954 -0.12690389 -0.013108615
000030 0e a9 08 be fc 5f f9 3d 0d 26 22 be 8d b7 61 bd
       -0.13345739 0.12176511 -0.15834828 -0.05510669
000040 29 6f 58 3e e0 cc 33 be 3b da fd 3d 74 28 0c 3a
       0.21136154 -0.17558622 0.1239514 0.0005346604
000050 ac 52 49 3e 76 b6 6b bd 88 45 d0 3d 30 79 74 3d
       0.19660443 -0.057547055 0.10169512 0.059685886
000060 0c 86 5a 3d d6 46 1a 3e 45 0e 1f be 90 06 07 be
       0.053350493 0.15066084 -0.15532787 -0.13186097
000070 99 44 59 3e c9 88 a1 bd d7 fa fe bd a5 40 52 3d
       0.21217574 -0.07887418 -0.12450188 0.05133118
000080 08 81 fd bc 04 18 61 bd 67 c3 c3 bd 21 e4 94 3d
       -0.030945316 -0.054954544 -0.095587544 0.07270075
000090 fc fc 09 be c6 b8 81 3d a1 66 02 3e 7d 62 a1 3d
       -0.13475412 0.06334071 0.12734462 0.07880113
0000a0 1c e8 8c 3d b4 87 0e 3d 0b ed 96 bd 76 82 12 bc
       0.06880209 0.034797385 -0.07369431 -0.008942237
0000b0 89 1c 2b bd 55 ee 06 be 47 d3 7b bd ad 55 4b 3e
       -0.04177526 -0.13176854 -0.061480787 0.19856901
0000c0 79 c4 a4 bd c6 f1 9d 3d c6 be 20 3e 82 4a f9 3c
       -0.08045287 0.0771213 0.15697774 0.030431036
0000d0 af 30 88 bd 6d 1a b3 bd b3 79 e6 bc d0 aa d3 3d
       -0.06649911 -0.08745275 -0.028134203 0.10335314
0000e0 92 53 fd bd 2d 6a 59 bd b0 d7 c0 3d ae 32 f0 3d
       -0.123694554 -0.053079773 0.09416139 0.117284164
0000f0 87 97 9a 3d ba 41 63 3d 0d f5 b6 3d 30 4b 10 3e
       0.07548433 0.055482604 0.089334585 0.14091182

net.2.weight f4 [30, 64]
000000 85 aa 94 3d 7e 56 69 bb 20 2b ec bd 9a f3 44 bd
       0.072590865 -0.0035604532 -0.11531663 -0.04808388
000010 99 c3 96 bc 33 f2 c8 3c 8d e2 bc 3c 07 ef ed 3c
       -0.018403815 0.024529552 0.023057247 0.029044641
000020 be f0 ae 3d 7f e6 89 bd c9 0a 13 be 94 9e 94 bd
       0.08542012 -0.06733417 -0.14359583 -0.07256809
000030 a1 5f 83 bd e2 74 62 3d 0c 21 82 bd 4b ea d5 3c
       -0.06414724 0.05528725 -0.063539594 0.026112696
000040 d5 c9 b5 bb d4 eb e9 bc 41 22 bb 3d 06 65 8c bd
       -0.005547742 -0.028554834 0.09137393 -0.06855206
000050 f2 31 9b bc 21 1e c3 bd 52 df e4 ba c9 20 56 3d
       -0.018944714 -0.09527231 -0.0017461574 0.05227736
000060 f2 ac 05 3d d5 03 78 bd fd da e8 3c 4d 23 43 bd
       0.032635637 -0.06055053 0.028424734 -0.047641087
000070 d9 32 02 bd b2 57 6c bd 1f 37 0e 3c af 6d 08 be
       -0.031786773 -0.05770082 0.008680134 -0.13323091
000080 15 c7 0f 3e de c9 90 bd 2c 3e 7e bd a3 06 42 3d
       0.14040788 -0.07069753 -0.06207101 0.04736961
000090 ce 26 8f 3d bd c7 d3 bc 84 79 fc 3d fc b7 c6 bd
       0.06989823 -0.025852079 0.12327865 -0.09703061
0000a0 2a 9b a4 3d 53 0a 89 3b 58 cf b1 bd 95 d7 5a bc
       0.08037408 0.004182139 -0.08682126 -0.013357063
0000b0 7a dd 8b 3c ee c5 38 3d 85 a2 91 3d 9c b6 f9 3d
       0.017073382 0.045110635 0.07111076 0.12193033
0000c0 f1 80 51 bd 6f a8 6b bd 44 5a fd 3b 4e 16 e8 bd
       -0.05114836 -0.057533678 0.0077317078 -0.11332379
0000d0 3c 29 8b 3b 5f ff e3 bd ab a5 dd 3c 20 04 03 3e
       0.004246859 -0.111326925 0.027056536 0.12794542
0000e0 06 fd 41 3d 1a 90 97 bd 33 4f 86 bd c5 4f 81 bd
       0.047360443 -0.07400532 -0.06558075 -0.06314043
0000f0 0d 9a 38 3d fc f3 e4 3c 7d e4 48 3d 83 c1 d3 3d
       0.04506879 0.027948372 0.04904603 0.10339644
000100 df 02 c8 3d 44 b2 8c 3d 86 bf 2b bd 67 95 e1 3c
       0.097661726 0.06869939 -0.041930698 0.02753706
000110 43 45 01 3c ff c1 b5 bd 92 1e fd bc 87 ff 14 bd
       0.007890048 -0.088748924 -0.030898366 -0.036376502
000120 6c 7f 97 3c 0d f0 b2 3c 35 13 f1 bd 6d f3 23 be
       0.018493377 0.02184298 -0.117712416 -0.16010828
000130 45 b3 3a bd 97 c4 5c bd 70 11 6c 3d d7 5f 4b 3c
       -0.04558112 -0.05389842 0.057633817 0.012412987
000140 30 03 d7 3d 85 49 7d 3d f6 85 06 3e 90 57 00 be
       0.10498655 0.06183769 0.1313704 -0.12533402
000150 82 8a 1e 3c c1 e5 aa bc 13 d9 9f bd 20 de d2 3d
       0.0096765775 -0.020861508 -0.078050755 0.10296273
000160 ab 76 a0 bd a9 a0 72 3d 14 64 02 bd f1 c6 c9 bc
       -0.07835134 0.05923525 -0.031833723 -0.024630995
000170 ee 63 d0 3d b9 79 53 3d c9 b6 c4 3d d4 7d 30 3d
       0.1017531 0.051629756 0.09605176 0.04308875
000180 4c 18 5c bd 5a 69 77 3d be dd 65 bd 33 b9 61 3c
       -0.05373411 0.060403205 -0.056119673 0.013777065
000190 c1 c1 93 3d a8 ca 5c 3d 0d 3b bf bc 52 8c 04 be
       0.0721469 0.053904206 -0.023343587 -0.12944153
0001a0 7c b1 f5 3d a4 c3 b4 bd 18 c6 5d 3d c3 16 c0 3c
       0.11996743 -0.08826378 0.054143995 0.023448354
0001b0 28 44 d3 bb 8e 80 f3 3d b3 cf cf bd 74 f0 81 bc
       -0.006447334 0.11889754 -0.10147037 -0.015861727
0001c0 17 a3 5b 3d 88 b8 f7 bc 1a 5b da 3c b3 c3 1c be
       0.05362233 -0.030239359 0.026654769 -0.15309028
0001d0 38 35 1a 3e 42 b7 2d bd a9 67 80 bd b6 78 2b bc
       0.15059364 -0.042411096 -0.062697716 -0.010465791
0001e0 90 dc a0 3c cd 9d 99 3d 40 c4 f5 3c 0c e8 8c 3d
       0.019636422 0.07500801 0.030000806 0.06880197
0001f0 b4 2f 49 bd 7f 80 60 3c 5b b1 cb 3d cf 9b 38 bd
       -0.04911776 0.013702511 0.09945937 -0.045070466
000200 80 c9 da bc 38 39 57 3d 21 98 a7 3d 99 dc 3a 3b
       -0.02670741 0.052544802 0.08183313 0.0028512834
000210 e6 84 96 3d 38 17 5e 3d 67 67 33 3d 85 1b db 3a
       0.07349567 0.054221362 0.043799784 0.0016716575
000220 b4 0b f1 3c 57 85 77 bc 67 d5 79 3d a5 c2 a1 3d
       0.029424526 -0.015107474 0.060994532 0.078984536
000230 64 0f ac 3b a5 ae 11 bd 5a 1e 0a 3e b2 37 ba bd
       0.005250858 -0.035566945 0.1348814 -0.09092654
000240 d7 b3 f3 3d f9 32 79 3d 61 24 b3 3d f3 f1 41 bd
       0.11899536 0.060839627 0.08747173 -0.04734988
000250 db 46 f3 bd cd 5e 55 3d 38 54 8e bd 8c 18 34 3d
       -0.11878749 0.052092362 -0.06949657 0.043968722
000260 f6 00 ab 3d 13 1a 12 be 87 93 fe bc 9d db ae bd
       0.08349793 -0.14267759 -0.031076206 -0.08537982
000270 84 7f de 3d 12 66 8e bd 06 ab a1 3d bb 38 3d 3d
       0.108641654 -0.06953062 0.07893948 0.04619668
000280 51 37 a4 3d f1 5b d9 3d 5e e7 88 bc ed 4f cd bd
       0.08018363 0.106132396 -0.016711887 -0.1002501
000290 a5 b5 c9 3d 74 42 b2 bc 41 00 96 3c 1a 08 1d be
       0.09849099 -0.021760203 0.018310668 -0.15335122
0002a0 fd 38 7a bc af 91 9f bd 00 73 0a 3e 3b b9 cb 3d
       -0.015272376 -0.07791459 0.13520432 0.09947439
0002b0 76 6e 43 3d 47 e2 e0 3d d0 e8 e8 bd 7f f2 09 bd
       0.047712766 0.10980659 -0.113725305 -0.033678528
0002c0 08 59 3d bd 1e ea 8d bd e4 20 e6 3d a0 ca a8 3a
       -0.046227485 -0.0692942 0.11236742 0.001287777
0002d0 bc cf e2 3d 4a 0b 3c bd 31 f5 1a be 41 6b e9 bc
       0.110747784 -0.045909204 -0.15132596 -0.028493525
0002e0 a5 0d cf 3d ba c6 b8 3d 38 e1 66 3d 6a 5c 86 bd
       0.10110024 0.09022279 0.05636713 -0.06560595
0002f0 4d 74 13 be 07 0e 8f bd 2a 64 ae 3d 5d aa 9f bd
       -0.14399834 -0.069850974 0.085151985 -0.07796166
000300 7c 98 96 3d cc 31 7a 3d ca ea 81 bd 1b 99 4e 3d
       0.07353303 0.061082646 -0.063436106 0.05043898
000310 d3 3c 6a bc dd 45 25 bc 6f a3 91 bc fd 62 2a be
       -0.014296728 -0.0100874575 -0.017778127 -0.16639324
000320 c4 f9 40 3d 0d df 96 3c eb 85 e4 bd 0d 88 19 3d
       0.047113195 0.018416906 -0.11158355 0.037483264
000330 c4 49 18 be e4 f6 0f be f4 2a 66 bd 09 0b 8f bc
       -0.1487189 -0.14059025 -0.056193307 -0.017461317
000340 3b 85 93 3c 2c 14 2b 3c bc 85 b2 3d 77 b9 18 be
       0.018007865 0.010441821 0.08716914 -0.14914499
000350 c0 12 4f 3c 50 f1 16 bd e9 78 80 3d c4 1c 1b 3e
       0.012638748 -0.036851227 0.06273062 0.15147692
000360 c1 70 dd 3d e9 08 96 bd d3 db 0b be fd ec 6c bd
       0.10812522 -0.07325918 -0.13658075 -0.057843197
000370 7e fb cd bc 69 89 8e 3d c2 39 cf 3c 3e a1 91 3d
       -0.025144335 0.06959803 0.025296096 0.07110833
000380 24 bd 9f 3d 28 46 18 bd 28 50 f2 bc ef 74 76 3d
       0.077997476 -0.03717628 -0.029579237 0.06017011
000390 b2 5c 4a 3c a8 56 99 3d 0f 18 81 bd bf 96 00 3d
       0.012351202 0.074872315 -0.06303417 0.031393763
0003a0 1c 83 4d bd f4 75 e0 bd 99 34 3f bc 79 6b b3 3d
       -0.050173864 -0.10959998 -0.011670255 0.08760733
0003b0 62 00 02 3d 17 66 5e 3d 82 bb 46 bd fd 23 ff 3c
       0.031738646 0.05429658 -0.048518665 0.03114509
0003c0 c1 c8 22 bd 8b 7f 57 bc 74 47 af 3c 1e ac 76 3d
       -0.039742235 -0.013152967 0.021396376 0.060222737
0003d0 75 83 d0 3d 0b 1f 13 be 48 08 38 bd 0e 0d 27 bd
       0.101813234 -0.1436731 -0.044929773 -0.040783934
0003e0 07 a9 23 3c 0a dd ac bd 4a 2a 74 3d 2d ae df bd
       0.00998903 -0.08440597 0.059610642 -0.10921893
0003f0 29 5e 01 3e 45 ae ef 3d 5e f9 70 bd d2 df 03 be
       0.12633575 0.11703161 -0.058831565 -0.1287835

net.2.bias f4 [30]
000000 ff bb 5d bd 42 87 77 bd 19 60 17 3c e4 c4 26 bc
       -0.054134365 -0.060431726 0.00923922 -0.010178778
000010 e1 f8 e5 3c 45 5e 26 3c 9e a6 b9 3c 1d e6 cf b9
       0.028072776 0.010154312 0.022662457 -0.00039653564
000020 f3 11 92 3c 00 2b 1c bc 3d 50 bf 3c c3 b9 5e bd
       0.017830824 -0.009531736 0.02335369 -0.054376375
000030 13 4f 1c 3d ac 63 5e bd 3b ab 6b bd b6 45 3e bc
       0.03816135 -0.054294273 -0.057536345 -0.0116133
000040 d0 fc 01 bd be 9a 8c bb 02 f4 46 3d 94 06 9a 3d
       -0.03173524 -0.0042909076 0.048572548 0.07520786
000050 25 1b c2 3d 2f a3 c2 bc c9 fe 3a bc 19 4e 44 3c
       0.09477834 -0.023759453 -0.011413285 0.011981511
000060 0d 18 25 bd b1 83 65 bd 73 5a 1e 3c 2c bb 5f 3d
       -0.04030614 -0.056033794 0.009665119 0.05462186
000070 87 62 25 bd 4d ad 45 3d
       -0.040377166 0.048260976
