fitted_models/model_seq2sew_gat_RN_GRU.pth (torch, 56962 bytes, 115 tensors)

encoder.lstm_cells.0.conv_z.convs.<inj___-___prod>.att_src f4 [1, 1, 8]
00000000: 56da fe3e 6c03 2e3f dac4 b3be 4023 543f
00000010: 8250 afbe 6bf8 aa3e 9c6b c2be 08f9 a43e
0.49775952 0.6797397 -0.35111123 0.8286629 -0.3424111 0.33392653 -0.37972724 0.32221246

encoder.lstm_cells.0.conv_z.convs.<inj___-___prod>.att_dst f4 [1, 1, 8]
00000000: c7fb 643f 9c59 27bf 6de9 0f3f 5090 683e
00000010: 9d90 ce3e 08a7 38be 6e97 0c3f 3979 27bd
0.8944668 -0.6537111 0.56215554 0.22711301 0.40344706 -0.18032467 0.54918563 -0.04088709

encoder.lstm_cells.0.conv_z.convs.<inj___-___prod>.bias f4 [8]
00000000: 34fd e9bd 48ce a93e 66d0 2e3e 21fd d8bd
00000010: c583 22be e3ef 7bbe 5c9b eebd 89a8 31be
-0.11425248 0.33165193 0.17071685 -0.105951555 -0.15870579 -0.24603228 -0.11650726 -0.17349447

encoder.lstm_cells.0.conv_z.convs.<inj___-___prod>.lin_src.weight f4 [8, 8]
00000000: 4038 f03e 07c8 9f3d 421d 353e e24d 493d
00000010: 6ec9 2b3e f7cb 113e 2eef 363e 768f c83d
00000020: 761d 903e e1f7 b63d fb47 243d f13d ddbe
00000030: 1b4b 103d aa1f 383a 795a 483f cd93 373f
00000040: 2563 9f3e d05c 05bf 243e c6be 9f2a da3d
00000050: d1c1 97be 2ec9 893d 31cb 34bf 85c7 053e
00000060: f222 28bf 0ca3 0fbf 0f33 0ebf 6373 d43e
00000070: 5eb5 edbe eb94 203f 0c15 c73d a106 51be
00000080: 69c4 0b3f 0f08 63be 5145 583e 1828 033f
00000090: 3034 04bf a21d b33e 8dbe 183e 8d54 25bc
000000a0: d3d5 aebd ed24 dd3d fa3f 96be 8d39 84be
000000b0: 0fb9 453f 0aee 293f c198 223e d6e9 37bf
000000c0: 8064 da3d 51c0 9abe 0213 0a3f 8ac7 8cbe
000000d0: 0e3a 3dbe 5663 6ebe d2a6 52bd ae15 1c3f
000000e0: 335a 1d3e fcab 8c3d 689c 483e 3d0a 2c3f
000000f0: 77a7 85be 78f4 9e3c 9025 8b3e d925 adbe
0.46917915 0.07801824 0.17686942 0.04914654 0.16776058 0.14237963 0.17864677 0.09792988
0.28147477 0.08933998 0.04010771 -0.4321132 0.035227876 0.0007023761 0.7826305 0.717099
0.3113033 -0.52094746 -0.38719285 0.106526606 -0.29640058 0.06727825 -0.70622545 0.13064392
-0.6567832 -0.56108165 -0.5554666 0.41494283 -0.46427435 0.6272723 0.09720811 -0.20412685
0.54596573 -0.22171043 0.21120192 0.51233053 -0.5164213 0.34983546 0.1491644 -0.010090959
-0.085368775 0.10798059 -0.29345685 -0.25825158 0.772355 0.66378844 0.15878583 -0.7184118
0.106637 -0.3022485 0.53935254 -0.27495986 -0.18479177 -0.23280081 -0.051428623 0.6097058
0.1536644 0.06868741 0.19590914 0.6720312 -0.26104328 0.019403681 0.27177095 -0.33817938

encoder.lstm_cells.0.conv_z.convs.<inj___-___prod>.lin_dst.weight f4 [8, 8]
00000000: 6528 c73e 7a28 a63d 3ad6 ddbe 0c89 db3e
00000010: 81c9 953e abc2 fb3d b4d9 123f efdb 333f
00000020: cd94 f83e c3d6 35be 0e1e 04bf 5bbe 19bf
00000030: 9871 12bf 8f00 cbbe e933 8bbe f908 57bf
00000040: 50ce efbe 1fd5 26be 4916 1fbf 9602 52be
00000050: aec6 d73e 4904 bd3e bd8d 5dbe 0a20 b93d
00000060: 0cf1 d13e eb01 ebbd e9d2 96be 308e 083f
00000070: d1e3 bcbe d512 83bd 1f80 053f e817 b83e
00000080: c86f 863e 8575 24be b7dc e9bc 136e 4e3e
00000090: 2235 aa3e 69b0 c63d 5451 003f 7cd3 51be
000000a0: 48fa 9c3d a472 cebe 8d9a 1abf be2a 5bbd
000000b0: 077e 1fbf 5527 cd3e 9fcd bf3d 37a9 e8be
000000c0: eb5a d53e 8f29 bebe 2c3c 80be d305 5c3d
000000d0: 37af a9be 1773 09bf a242 05be 8cc2 3d3f
000000e0: 29bb 0a3f 8368 8c3e 4f65 b9be fb3a ffbe
000000f0: 2c16 e43e 7498 9e3e 03d5 d43c b64b 9cbd
0.38898006 0.08113189 -0.43327504 0.42877996 0.29255298 0.12292989 0.5736344 0.7025747
0.48551026 -0.17757706 -0.5160836 -0.60056084 -0.5720458 -0.39648864 -0.27188042 -0.83998066
-0.4683709 -0.16292237 -0.6214338 -0.20508799 0.42143768 0.36917332 -0.216361 0.09039314
0.41004217 -0.11474975 -0.29457787 0.5334196 -0.3689256 -0.06400076 0.5214862 0.3595574
0.26257157 -0.16060455 -0.028547628 0.20159177 0.33243662 0.09701616 0.50124097 -0.20490831
0.07664925 -0.4032184 -0.60392076 -0.05350756 -0.6230168 0.4006907 0.09365391 -0.454416
0.41670927 -0.37141082 -0.25045907 0.053716492 -0.3314149 -0.5369124 -0.130137 0.7412498
0.54191834 0.27423486 -0.36210105 -0.49849686 0.44548166 0.30975688 0.025980478 -0.07631628

encoder.lstm_cells.0.conv_z.convs.<prod___-___prod>.att_src f4 [1, 1, 8]
00000000: 9927 f53e 044c 4fbe 14a8 a5be f31b 9e3d
00000010: 271a 8ebe 3214 94be 5df0 50be c584 393f
0.47881773 -0.20243841 -0.32354796 0.07720175 -0.27754328 -0.28921658 -0.20404191 0.72468215

encoder.lstm_cells.0.conv_z.convs.<prod___-___prod>.att_dst f4 [1, 1, 8]
00000000: 3095 34bf fb60 a1be b2a8 acbe dc73 ddbe
00000010: 7c29 503e 78c1 45bf 8d65 593f a9eb 14bf
-0.7054014 -0.31519303 -0.33722454 -0.43252456 0.20328325 -0.77248335 0.8492058 -0.5817209

encoder.lstm_cells.0.conv_z.convs.<prod___-___prod>.bias f4 [8]
00000000: 34fd e9bd 48ce a93e 66d0 2e3e 21fd d8bd
00000010: c583 22be e3ef 7bbe 5c9b eebd 89a8 31be
-0.11425248 0.33165193 0.17071685 -0.105951555 -0.15870579 -0.24603228 -0.11650726 -0.17349447

encoder.lstm_cells.0.conv_z.convs.<prod___-___prod>.lin_src.weight f4 [8, 8]
00000000: 7163 d7be 6cc1 8fbe ef54 023f d9cc cbbd
00000010: e80f d1bd e0b1 e4be 7006 88be 0814 c73d
00000020: 3304 c7be e458 bd3d de5d df3e 90d1 68bf
00000030: 82e9 d53e c2d3 2fbf 8a0b 07bf 0f74 783e
00000040: 9c39 1d3f 31ea b73a 8374 61bd 6c6f eebe
00000050: 1194 debe 022f 2cbf 467a 9abe 4db6 25bd
00000060: ec14 f4be 4ff0 de3e 3fbd 963e dfa2 e4be
00000070: c0e7 bcbe 12ae 9f3e 8a32 4fbd 98e2 db3c
00000080: 3171 c5be c816 c53e 7002 d0be cff8 cf3e
00000090: 18f8 223d c1bc 7a3e 71ba 073f 8799 dabc
000000a0: 0ce8 05bf 6d8d 8ebe c2c7 d63e 0ee1 0ebf
000000b0: 173d a33e 797e ebbe 56e0 ed3e 2fcc b93e
000000c0: ab51 19be 3ce0 3a3e 3b8b 75bd 49da 983e
000000d0: 19c3 5fbe 4fcf bfbc 2355 a43e f287 403f
000000e0: 1243 903e b92e 10bf b101 023f 9753 4ebd
000000f0: abef 86be 21d9 93be 1c89 5ebe 6335 f03e
-0.42068055 -0.28077257 0.5091085 -0.09951181 -0.10208112 -0.44666958 -0.2656741 0.097206175
-0.3887039 0.0924547 0.43626302 -0.90944767 0.41779715 -0.6868249 -0.5275198 0.24263023
0.6141603 0.0014031586 -0.055042755 -0.46569383 -0.4347234 -0.6725923 -0.30171412 -0.04045706
-0.47672212 0.43542716 0.29441258 -0.4465551 -0.3689556 0.31187493 -0.050585307 0.026841447
-0.3856292 0.38493943 -0.4062686 0.40619513 0.039787382 0.24486066 0.5301886 -0.026684536
-0.523072 -0.27842274 0.41949278 -0.55812156 0.31882545 -0.45994928 0.46460217 0.36288592
-0.1497256 0.18249601 -0.059947234 0.29854038 -0.21851768 -0.023414282 0.32096204 0.75207436
0.2817617 -0.56321293 0.5078383 -0.050372686 -0.26354727 -0.28876594 -0.2173199 0.4691573

encoder.lstm_cells.0.conv_z.convs.<prod___-___prod>.lin_dst.weight f4 [8, 8]
00000000: 3e43 753e b586 b3be e671 793d c089 2fbe
00000010: 474a 013f 7db6 20bf 3206 ccbd 5b81 13bf
00000020: d3a2 d6bd 810e 503e 5191 f53e 04f0 063e
00000030: dca9 0a3f 2fd9 1d3d d44f dd3e 223b 003f
00000040: a548 2a3f 2790 abbe 1f61 df3e 30c8 cc3e
00000050: fbb6 abbe 9a70 c9be d4cd d8be 6033 283e
00000060: dfbd b5be 8041 893e 95ae a03d 2101 01bf
00000070: a87f dc3d f586 09be 87d0 b93e faaf b93e
00000080: 1419 3fbf 7c30 123f 11e8 1f3f 41c1 6e3e
00000090: 0b20 0dbf 6269 e9bd 3c04 83be 8420 47be
000000a0: 47ca fe3e 7350 6d3e 3c72 b93e eb80 4ebe
000000b0: d21a 133e 6a4e 013e 3bc1 d5be 5fb1 15bf
000000c0: c243 f2be 0d3f d23e fe0e e6be eddb 0fbf
000000d0: f66f ce3e 0642 da3e 195e d13e d7cf f2be
000000e0: d067 9abe a787 a63e dfe1 d43e bec9 ca3e
000000f0: b09d f53c 7167 ed3d 7a33 2b3f 832e c7be
0.23951432 -0.3506371 0.060899638 -0.17142391 0.50503963 -0.62778455 -0.09962119 -0.57619256
-0.10480275 0.20318033 0.4796243 0.13177496 0.54165435 0.0385372 0.43224967 0.5009023
0.66517097 -0.33508417 0.43628785 0.3999648 -0.3353804 -0.3934372 -0.42344534 0.16425848
-0.35496423 0.26807785 0.07845799 -0.5039235 0.10766536 -0.13430388 0.36291906 0.36267072
-0.7464764 0.5710523 0.6246348 0.23315908 -0.5512702 -0.11397053 -0.25589168 -0.19445997
0.497637 0.2317522 0.36219966 -0.20166366 0.143657 0.12627569 -0.41748986 -0.5847377
-0.4731732 0.4106373 -0.44933313 -0.56194955 0.40319794 0.42628497 0.40892103 -0.47424194
-0.30157328 0.3252537 0.41578576 0.39607042 0.029982418 0.115919955 0.6687542 -0.38902673

encoder.lstm_cells.0.conv_z.convs.<inj___-___inj>.att_src f4 [1, 1, 8]
00000000: 4185 273f c9a1 fa3d cee4 6bbe d16d 1c3f
00000010: 6cb3 073e e272 263f f930 cc3d c8f2 4cbe
0.65437704 0.12237889 -0.23036501 0.61105067 0.13252038 0.6501905 0.09970278 -0.20014489

encoder.lstm_cells.0.conv_z.convs.<inj___-___inj>.att_dst f4 [1, 1, 8]
00000000: d45c 493e 45eb 1fbe 37cc b23e e814 2d3f
00000010: f36b e33e 56c5 acbe 10f2 ea3e be9b 2e3e
0.19664317 -0.15617092 0.3492143 0.67610025 0.44418296 -0.33744305 0.45887804 0.17051598

encoder.lstm_cells.0.conv_z.convs.<inj___-___inj>.bias f4 [8]
00000000: f2ed 58bb 88ba 62be 2c3a 093e 8084 eabd
00000010: 5b4e 37be 492b 55be ae86 02be 339d 5ebe
-0.003310081 -0.22141469 0.13401097 -0.114510536 -0.17900984 -0.20817293 -0.12746689 -0.21739654

encoder.lstm_cells.0.conv_z.convs.<inj___-___inj>.lin_src.weight f4 [8, 8]
00000000: 27ed 90be 3fd4 f43e 3e7b bbbe 97ab e4be
00000010: 031f f73e 47ff 383e 7faf 823e 16cf 67be
00000020: e3ed 12bd ef11 c33e b55b 0bbf 2b54 0b3e
00000030: e410 9e3e d888 6dbe 102f 1d3f 1bbb f6be
00000040: d836 6cbe 8e17 0abe 35b9 b1be e8e9 30bf
00000050: 80e3 a43e cda0 ff3d a77c 1ebf 76e0 babe
00000060: 9b11 183f 8278 133e b26d 423e e896 a8be
00000070: 6ad8 f2bd 1436 463c 669f e7bc 028e 04bf
00000080: 1680 8b3d f61e ee3d 7c4e 3dbd 0f25 013e
00000090: e9fb a1be 295e 813d 9e73 213e 4e54 79be
000000a0: 5669 01bf 7067 3d3e 7935 6ebb 167a f8bd
000000b0: c950 d73e 639f 27be 5d55 8a3e faf4 383e
000000c0: e68d f5be 9200 9b3e 88cd 2bbf 52af 9ebe
000000d0: 0269 d7bd 1cbe 99be eb98 0f3f 0d62 71be
000000e0: 0946 a23e 9160 40bf ec89 323e 5e61 c7bd
000000f0: e853 c7be 9b71 963e 223c c53e 3abb a13e
-0.28305933 0.4781818 -0.36617464 -0.44662163 0.48265848 0.1806613 0.25524518 -0.22637591
-0.035871398 0.3809962 -0.5443681 0.13606326 0.30872262 -0.23196733 0.61399937 -0.48189625
-0.23067796 -0.13485548 -0.34711614 -0.6910691 0.3220482 0.12481842 -0.61908954 -0.36499375
0.59401864 0.14401439 0.18987158 -0.32927632 -0.11857684 0.012097854 -0.02827425 -0.51779187
0.0681154 0.11626999 -0.046217427 0.12611793 -0.31637505 0.06316788 0.1576676 -0.24348566
-0.50551355 0.1849649 -0.003634779 -0.12132661 0.42053822 -0.16369395 0.27018252 0.18062201
-0.47959822 0.30273873 -0.6711049 -0.30993134 -0.105180755 -0.30027854 0.5609271 -0.2357256
0.31694058 -0.7514735 0.17435426 -0.09735368 -0.38931203 0.2938355 0.3852244 0.31588155

encoder.lstm_cells.0.conv_z.convs.<inj___-___inj>.lin_dst.weight f4 [8, 8]
00000000: 19ef 9ebe e999 9dbe ab17 e33d 5d7f 4b3e
00000010: 1b3c 883e a298 ad3e bccd ecbd df16 b13e
00000020: d7f8 c73e 10ee 1dbe 2f47 e23e 3adc 883e
00000030: 7451 033f 0269 b3be f0d1 a5be 2760 3bbe
00000040: a077 d43d 568a b83e a6f8 b6be a27a b03e
00000050: e7d5 3bbe eae9 be3e 0791 50bb adcf 07bf
00000060: fa44 84be ba12 e6be 05f7 973e defb bcbe
00000070: e1bd 45bc f1ef 083e 20c1 9dbe 0257 3c3e
00000080: 51da 05bf f3bd e3be a2ed 0fbf 9328 15be
00000090: b16b 3ebe 4569 b83d 637b b1bd 77be 963e
000000a0: 0790 fa3e 0d0f 683e fa53 6fbe 5380 1cbf
000000b0: 1be0 3e3e a7c8 9cbe 2775 923e f87b ce3e
000000c0: 35af 9f3e 806f 113f 9209 133f 4899 2d3e
000000d0: 3784 d1be 9597 0c3f 361c 87be a1a2 90be
000000e0: 46bb 123f 819e ef3e d133 363e 3802 8d3d
000000f0: 6860 f9be 2b17 79bd 720b 1c3f 0442 253e
-0.31041792 -0.30781487 0.11088499 0.19872804 0.26608357 0.33905512 -0.11562678 0.34587762
0.39057037 -0.15422845 0.44194934 0.2673052 0.5129616 -0.35041052 -0.32386732 -0.18298398
0.10374379 0.36043042 -0.3573658 0.3446856 -0.18343316 0.37287837 -0.0031824724 -0.53051263
-0.25833875 -0.44936162 0.29680648 -0.3691091 -0.012069196 0.1337278 -0.30811405 0.18392566
-0.5228625 -0.44480857 -0.56221974 -0.14566259 -0.18595769 0.090044536 -0.08666112 0.29442188
0.4893801 0.22661991 -0.23371878 -0.6113331 0.18640177 -0.30621836 0.28605005 0.40328956
0.3118836 0.5681076 0.5743648 0.16953003 -0.40921184 0.54918796 -0.2638871 -0.28249076
0.57317007 0.46800616 0.17793204 0.06885189 -0.48706365 -0.06081311 0.60954964 0.16138464

encoder.lstm_cells.0.W_z.inj f4 [1, 8]
00000000: 9c7f 8abd c0a3 a8bd bd14 1f3f f47e e33e
00000010: c955 f93e 3684 dbbe 0e40 48bd 271f a0be
-0.06762621 -0.08234358 0.6214102 0.44432795 0.4869826 -0.42874306 -0.048889212 -0.31273767

encoder.lstm_cells.0.W_z.prod f4 [1, 8]
00000000: 2f45 87be 6107 e1be 1dcd 633f a679 09bf
00000010: b0a9 5b3e 9af5 6f3d bdcf dc3d f010 c1be
-0.2641997 -0.43950942 0.88984853 -0.53701246 0.2145145 0.058583833 0.107818104 -0.37708235

encoder.lstm_cells.0.b_z.inj f4 [1, 8]
00000000: fbc2 043f 5fe7 f53e 2cd3 593d 693a 98be
00000010: 031b 2bbe 908b 83be ddf5 8c3d 7c01 3b3c
0.51860017 0.48028085 0.053179905 -0.29732063 -0.16709523 -0.25692415 0.06882832 0.011413928

encoder.lstm_cells.0.b_z.prod f4 [1, 8]
00000000: 8718 5bbf 537e f83c 71ba 5b3f ce35 593e
00000010: 9319 4cbe 6401 3dbf 35b5 1dbf 9aa6 67bf
-0.855843 0.030333674 0.8583136 0.21211931 -0.19931631 -0.73830247 -0.61604625 -0.9048859

encoder.lstm_cells.0.conv_r.convs.<inj___-___prod>.att_src f4 [1, 1, 8]
00000000: fa6a 163f 6207 12bf e512 80bf 0d36 09be
00000010: 7b55 15bf d4b8 023f dec0 b83e bf0f 873e
0.58756983 -0.57042515 -1.0005766 -0.13399525 -0.5833356 0.51063275 0.36084646 0.263792

encoder.lstm_cells.0.conv_r.convs.<inj___-___prod>.att_dst f4 [1, 1, 8]
00000000: 4d31 343e 1030 9f3d ec70 0d3f ef06 03bf
00000010: 1ec4 14bd eeb4 29bf 2ab6 a63e 492d b3be
0.17596932 0.07772839 0.5525043 -0.51182455 -0.036319844 -0.662917 0.32560855 -0.34995487

encoder.lstm_cells.0.conv_r.convs.<inj___-___prod>.bias f4 [8]
00000000: f025 093e 6202 083d 3fbf 99bd 89f8 a93e
00000010: 67a8 833d 40ab edbc eca4 953c e840 0d3e
0.13393378 0.033205397 -0.075071804 0.3319743 0.064286046 -0.029012322 0.018267117 0.13794291

encoder.lstm_cells.0.conv_r.convs.<inj___-___prod>.lin_src.weight f4 [8, 8]
00000000: d9e7 04be 698c 09bc 7492 c8bd 492f 933e
00000010: 4773 2dbe c8d6 803e c5bf a5be ee2b c43e
00000020: ac02 f23e 967a 00bd 1d7c 723e c534 113f
00000030: c872 c93e 346e dd3e ed50 61be 69f0 f7be
00000040: 3b85 e13d 5ee4 1abc 9148 c5bd 96b2 64be
00000050: 3cb7 6b3e 37c6 153f 05cc e33e 541b b3be
00000060: da9a 14bf 5f8e 2c3e 1b2a 853d d190 803e
00000070: 8da8 823e 90d6 5a3e d764 11be 5669 f03e
00000080: 9947 c7bd 4def 78be cb8b c83e dba6 a2be
00000090: f6a8 c2be 58a5 42bf 8f0e ea3e 5153 523f
000000a0: e2af 3d3d 987a 2c3f 75db c8bd 328e 7cbe
000000b0: f485 753e 1bce ebbd 39ee 22be faa1 01bf
000000c0: 5620 873e 35ec ebbe 34e7 08be dcc1 413f
000000d0: b464 98be 030a 7cbe abe7 813e 08c9 50be
000000e0: 1280 acbe 52a0 543f d0b2 c03c 13e6 31bf
000000f0: fb3d aebe a10a bdbe 2506 bcbe 87e8 c6bd
-0.12979068 -0.008395293 -0.09793559 0.28747013 -0.16938506 0.25163865 -0.3237287 0.38314766
0.47267663 -0.031366907 0.23680158 0.56721145 0.39345384 0.4324814 -0.22003527 -0.48425606
0.1101174 -0.009453861 -0.096329816 -0.2233375 0.23019117 0.58505577 0.44491592 -0.34981787
-0.58048785 0.16851185 0.065021716 0.25110486 0.2551922 0.21370912 -0.14198624 0.46955365
-0.09730453 -0.24310036 0.39169154 -0.31767926 -0.38019532 -0.76033545 0.45714232 0.8215838
0.046310313 0.67374563 -0.09807483 -0.24663618 0.2397688 -0.11513921 -0.15911187 -0.5063778
0.26391858 -0.4607865 -0.13369447 0.7568643 -0.2976433 -0.24613194 0.2537206 -0.20389187
-0.3369146 0.8305713 0.023522764 -0.6949169 -0.34031662 -0.36922172 -0.36723438 -0.0971232

encoder.lstm_cells.0.conv_r.convs.<inj___-___prod>.lin_dst.weight f4 [8, 8]
00000000: e744 913e 303c 743d 5e89 83be adca dcbe
00000010: f044 0ebe e161 a5be 10e9 24be b82c f7be
00000020: eecb 153e 0ed0 edbe a19f febe 44bc febe
00000030: c88e 923e 62ab cdbe 6251 78be c48b 033f
00000040: 7045 c13e a46e 923e acf4 2abf dceb c0be
00000050: bb9a 2bbe 8c0c dc3e 5665 f13d 9d7b bebe
00000060: 2d06 44bd 8ec4 d2be af66 48bd 49b7 6bbe
00000070: 5989 ee3e 2350 883e 0f21 25be ced1 913c
00000080: 7590 35be cfc1 753e 58e7 763e cb3b 353e
00000090: 71da 77be e067 053f 7a38 a9bd 0a7b 71be
000000a0: f00e a83e 55c7 103f f5ce 323f 1d46 f23d
000000b0: 8d40 8ebe 4fe8 c83e 32a8 ef3e 4ed5 30bf
000000c0: 2384 f6bc 3af2 f0be 519d 273d 58cd 9b3e
000000d0: 4986 78bd fef6 02be 1128 a53e 6cb4 adbc
000000e0: 2d9d 0fbf 4960 0b3f e8dd 6ebe a122 f5bd
000000f0: ce7b 06bc 47d6 243d bdb9 1fbf 373e 4b3e
0.2837288 0.05962771 -0.2569074 -0.4312338 -0.13893485 -0.32301238 -0.16104531 -0.48276305
0.14628574 -0.46447796 -0.49731162 -0.4975301 0.28624558 -0.40169817 -0.24249795 0.5138514
0.3774829 0.28600037 -0.6677959 -0.37679946 -0.16758244 0.42978323 0.117869064 -0.37203684
-0.047857452 -0.41165584 -0.04892605 -0.23019136 0.46589163 0.2662364 -0.16125892 0.017800238
-0.17730887 0.23999713 0.24111688 0.1769859 -0.24204423 0.52111626 -0.08262725 -0.23582092
0.32823896 0.56554157 0.6984704 0.11829779 -0.27783623 0.39239737 0.4680801 -0.6907548
-0.030092305 -0.47059804 0.040921513 0.30430102 -0.06067494 -0.12789533 0.3225713 -0.021204196
-0.56099206 0.54443794 -0.23326838 -0.119694956 -0.008208228 0.040243413 -0.6239279 0.19847952

encoder.lstm_cells.0.conv_r.convs.<prod___-___prod>.att_src f4 [1, 1, 8]
00000000: e013 193f 70f4 023d cfff 543f d4b1 9abe
00000010: f143 08be 0566 2ebf 6519 913f 4b8e 103e
0.5979595 0.031971395 0.8320283 -0.30213797 -0.13307168 -0.6812442 1.1335875 0.1411678

encoder.lstm_cells.0.conv_r.convs.<prod___-___prod>.att_dst f4 [1, 1, 8]
00000000: 4faa 393f 91e1 36bf 045a 68bf 00ed 2dbf
00000010: 582e 0fbf b92c d63e 2a7c 3b3e 8987 263f
0.72525495 -0.7143794 -0.9076235 -0.6793976 -0.5593009 0.41830996 0.18309084 0.6505056

encoder.lstm_cells.0.conv_r.convs.<prod___-___prod>.bias f4 [8]
00000000: f025 093e 6202 083d 3fbf 99bd 89f8 a93e
00000010: 67a8 833d 40ab edbc eca4 953c e840 0d3e
0.13393378 0.033205397 -0.075071804 0.3319743 0.064286046 -0.029012322 0.018267117 0.13794291

encoder.lstm_cells.0.conv_r.convs.<prod___-___prod>.lin_src.weight f4 [8, 8]
00000000: 8cae b5be 8ce2 31be 34dc 9b3e c0ce 1abe
00000010: 4fc4 5abe ef59 a8be 7689 c1be 6628 d6be
00000020: ebc7 79be 735e 3e3e 06e6 f7be 3574 b5be
00000030: 3929 7c3d fb96 313d 6a43 aa3e 1926 e3be
00000040: 5c00 f83d 71e8 4c3e 3739 6a3e 0f9b 22bf
00000050: edbb 6fbe 228f f1be 17c2 90be 6b25 d13e
00000060: bdf0 773e c1f1 043f ca96 5bbe af4e f3bd
00000070: 8a15 09bf ad08 04bd 2539 e3be 9df6 0abf
00000080: 0369 17bf 5969 7f3d 76ea 1e3f 0eec ec3e
00000090: 2b50 8dbe c915 63bd c42b e6bd 3e35 0bbf
000000a0: 36c4 183f bc6d 9abb e41b 0c3e 6d38 33be
000000b0: bc62 d0be b79d 033e 756a 863e 0f90 223e
000000c0: 53ac d2be 045a 1c3f a254 89bd ed30 b7be
000000d0: 5672 62be e038 163f f764 eabc 509b f1bd
000000e0: b2a0 11bd 0495 f13c 3db4 d7be 6f1a 98be
000000f0: 3a2c 723e 9100 c53e c6fa 183f ee15 08bf
-0.3548473 -0.17371577 0.3044144 -0.15117931 -0.21363948 -0.32881114 -0.37800187 -0.41827697
-0.24392669 0.18590717 -0.4841768 -0.3544022 0.06156275 0.043356877 0.33254558 -0.44365004
0.121094435 0.20010544 0.22873388 -0.6351785 -0.23411532 -0.47179514 -0.2827308 0.4084886
0.24212928 0.5193139 -0.2144424 -0.11880242 -0.5354849 -0.032234836 -0.44379535 -0.5428255
-0.5914461 0.062356327 0.6207651 0.46273845 -0.27600226 -0.055440698 -0.112388164 -0.54378116
0.59674394 -0.0047127884 0.13682514 -0.17501993 -0.40700328 0.12853132 0.26253095 0.15875266
-0.41147098 0.6107485 -0.067055956 -0.35779515 -0.22113928 0.58680534 -0.028612597 -0.11797202
-0.03555364 0.029490001 -0.42129698 -0.29707667 0.23649684 0.38476995 0.5975765 -0.5315846

encoder.lstm_cells.0.conv_r.convs.<prod___-___prod>.lin_dst.weight f4 [8, 8]
00000000: ee2a 673e 4f21 97be ec37 b13e 9189 f23e
00000010: a4fc 173f dd3b b63e 1e8d 993e e6e3 fd3d
00000020: 5eaf c63e 4bb0 9cbe 5d22 923e 182f 6dbe
00000030: 565f 08be 8d11 e4be 99e0 9abd d618 dfbe
00000040: ba7a cfbd 8b56 f9be b7cb 09bf 246f 67bb
00000050: e420 8b3e 30bf 263f c43a e43e 823e d9be
00000060: c9b1 00bf ac6c 0c3e 91ce b63e 24ee 11bf
00000070: 0a8c c13d 9642 1c3f 39e7 fd3d d7b6 f4be
00000080: 0308 1c3f 49f7 373e ecd9 da3e ea00 e3be
00000090: 8257 713e c810 abbe c332 303f 9b57 c0be
000000a0: def1 863e 9f94 653e 4171 1d3e 873f 3cbd
000000b0: 5a73 c23e 4ba7 b4be 7421 2bbf 2760 07be
000000c0: e6e6 bf3e 712d c7bd 7b41 293e d141 5cbe
000000d0: 4d55 113f 1ef1 973e b1ee 0f3e 86cf 4bbe
000000e0: 3b0b 1bbf db0e dd3d 18f4 c1be 0475 093f
000000f0: 4079 efbe fc60 403e 0706 073f d908 d73e
0.2257497 -0.295176 0.34612978 0.4737058 0.59369874 0.35592547 0.29990476 0.12396984
0.3880567 -0.3060325 0.28541842 -0.23162496 -0.13317618 -0.4454464 -0.0756237 -0.43573636
-0.1013083 -0.4869884 -0.5382647 -0.0035314048 0.2717353 0.6513548 0.44576085 -0.42430502
-0.5027128 0.1371333 0.35704473 -0.57004 0.094505385 0.610391 0.12397618 -0.47795746
0.60949725 0.17965426 0.42744386 -0.44336635 0.23568538 -0.3341124 0.68827456 -0.37566838
0.26356405 0.22419976 0.15375234 -0.045959022 0.3797863 -0.35283884 -0.6684792 -0.13220273
0.3748085 -0.09725464 0.16528885 -0.21509482 0.56770784 0.29676145 0.14055897 -0.19903383
-0.6056401 0.10793849 -0.3788154 0.53694177 -0.46772194 0.18786997 0.5274357 0.41998938

encoder.lstm_cells.0.conv_r.convs.<inj___-___inj>.att_src f4 [1, 1, 8]
00000000: 740b 15bf 55dc b3be bac4 1c3f 5ffc f8bd
00000010: 14cd b73e c0b4 cfbe bac4 2e3f c348 67bf
-0.582206 -0.35129037 0.6123768 -0.12157511 0.3589865 -0.4056759 0.6826893 -0.903454

encoder.lstm_cells.0.conv_r.convs.<inj___-___inj>.att_dst f4 [1, 1, 8]
00000000: c315 d4be 0c3c 803e 1f27 323e 9973 57be
00000010: 31bd fa3e 26c3 0c3f 1e5b 16bf fac6 e0be
-0.41422853 0.25045812 0.17397736 -0.21040191 0.48972467 0.5498527 -0.58732784 -0.43901807

encoder.lstm_cells.0.conv_r.convs.<inj___-___inj>.bias f4 [8]
00000000: db35 6a3e bc79 c43e c62c 903c 5ef0 e03c
00000010: d9b1 d83d 1472 b33e 54d6 b3bd 1aa6 3dbd
0.22872107 0.38374126 0.017599475 0.027458366 0.10580797 0.35047972 -0.08781114 -0.046300985

encoder.lstm_cells.0.conv_r.convs.<inj___-___inj>.lin_src.weight f4 [8, 8]
00000000: 4a24 403e 300b 31bf f547 fa3e 5ea9 67be
00000010: 64ad 33bf 6a3b 443f cb3e 5bbe c8cd 1abe
00000020: a3e2 3b3f dfb1 83bd 3e19 b7bd 10b9 2cbe
00000030: 2fe1 d13d 075c 81be bf51 e6be 36f1 c73e
00000040: 3662 7ebd b2dd 16be 866c d8be 2dd0 983e
00000050: 72b6 b73e db39 4bbf 335d 2c3f 84a2 cc3e
00000060: 299c 8b3e b7a8 adbe 9e36 df3d 854c 1f3f
00000070: 94e2 df3e 642d 05bf aebc ff3e 8b77 9c3d
00000080: 1834 cf3e ebbb cc3e 5e63 ae3e 46b9 39be
00000090: 08f8 193e 0a17 bebe f017 96be 8b52 ebbe
000000a0: c034 243e d1a9 b73e 2f85 8f3e 0642 98be
000000b0: 7d59 ed3d b2eb 3d3e 1210 ec3e 2d30 413f
000000c0: 3a5a 413d d838 123f a733 5b3d fcc9 a9bb
000000d0: 9f20 f6bc 410e 14bf b446 1dbf 5bc0 233e
000000e0: a4ba 67be 6f06 343e bdc4 053d 3534 dfbd
000000f0: b918 be3e 9048 cfbe 5def ec3e d099 2f3f
0.18763843 -0.69157696 0.48883024 -0.22623202 -0.7018645 0.7665316 -0.21410672 -0.15117562
0.73392695 -0.064304106 -0.089403614 -0.1686747 0.102480285 -0.25265524 -0.44984242 0.39051217
-0.06210538 -0.14733008 -0.42270297 0.29846326 0.35881382 -0.79385155 0.6732971 0.3996774
0.27267578 -0.33917782 0.10899089 0.62226135 0.43727553 -0.52022386 0.4994864 0.076399885
0.40469432 0.3998712 0.34060186 -0.18137082 0.15036023 -0.37126952 -0.29315138 -0.45961413
0.16035748 0.35871747 0.280313 -0.29737872 0.11589334 0.18546942 0.4610601 0.75464135
0.047205187 0.57117987 0.053516056 -0.005181549 -0.030044852 -0.5783425 -0.6143601 0.15991347
-0.22629791 0.17580579 0.032658327 -0.108986296 0.37128237 -0.40485048 0.4627637 0.68594074

encoder.lstm_cells.0.conv_r.convs.<inj___-___inj>.lin_dst.weight f4 [8, 8]
00000000: a1b2 f0be bc7e f2be b99b fdbe 9178 adbe
00000010: bd43 71be c8eb 33bd de26 16be fe59 9fbe
00000020: 7e24 47be 8061 62be 75c6 193f 9757 66be
00000030: b760 e1be a8a5 813e 83b7 16bd 759c f03e
00000040: 95ee c33e 381b 103f c3a5 e5be 3b4a ca3e
00000050: c340 033f 2651 9bbe 61d7 0f3f 1572 eb3e
00000060: 17c6 d93b b0fa 963e ba2b 5bbe d12a 09bf
00000070: 3402 203e 4c1b 3c3e 644c ccbe 6293 973e
00000080: eee0 05bf 6923 073f 05c6 173f 2b8e 2e3e
00000090: b75f c6be e44a 973e 3b3f d03d a1b5 2c3e
000000a0: a93f 4e3e 9a35 ef3e d0da 86be f8c8 08be
000000b0: c84f 273e b1d8 823d 5c4b fb3e a472 a3be
000000c0: 000e b8bc c237 e83d bf5b 26be f67a d33e
000000d0: 7802 913d 691e 10bf a15c 81bd f283 8fbe
000000e0: 2538 733d 9f56 93bd f877 1bbf 527a ebbd
000000f0: c745 64bd 9491 36be 3ea7 103f e5ce 0abe
-0.47011283 -0.47362316 -0.4953287 -0.33881047 -0.23560996 -0.04392603 -0.14663264 -0.31123346
-0.19447514 -0.22107506 0.60068446 -0.2249435 -0.440191 0.25321698 -0.036796104 0.46994367
0.3826796 0.5629153 -0.4485303 0.39509758 0.51270694 -0.3033535 0.5618802 0.45985475
0.0066459286 0.29488134 -0.21403399 -0.5358096 0.1562584 0.18369788 -0.3990203 0.29604632
-0.5229634 0.52788407 0.5928653 0.1704642 -0.387449 0.29549325 0.1016831 0.16866161
0.20141472 0.46720582 -0.26338816 -0.13357913 0.16339028 0.06388987 0.49080932 -0.319234
-0.022467613 0.1133876 -0.16245936 0.4130475 0.07080549 -0.562964 -0.06316496 -0.28030354
0.059379715 -0.07194256 -0.6072993 -0.1149794 -0.055730607 -0.17828971 0.5650519 -0.13555487

encoder.lstm_cells.0.W_r.inj f4 [1, 8]
00000000: 0c6d 6b3f a888 d43e 9fbf 113e 7f85 63bf
00000010: 8b0f 573e 020b 85bd 3558 60be 1e9a 4a3f
0.9196327 0.4151051 0.14233254 -0.88875574 0.21002023 -0.0649624 -0.21908648 0.79141414

encoder.lstm_cells.0.W_r.prod f4 [1, 8]
00000000: aa38 973e 0f90 11bf 566d ebbe 7a0b 2a3c
00000010: e7df 023f bbf5 b03b d5fa 17bf 7eae 943b
0.2953542 -0.5686044 -0.45981854 0.010378713 0.511229 0.005400387 -0.59367114 0.0045374027

encoder.lstm_cells.0.b_r.inj f4 [1, 8]
00000000: bc4b 19bd 58d3 283f 8dc8 093f c011 cf3e
00000010: 73ad 1dbf 33e7 0fbe 3cde 5dbe 6358 3e3f
-0.03742574 0.65947485 0.5382164 0.4044323 -0.6159279 -0.14053039 -0.21666807 0.7435362

encoder.lstm_cells.0.b_r.prod f4 [1, 8]
00000000: 3b0c 813e 6685 36be ed83 863e a3e9 ab3c
00000010: 01ab edbe 0223 113f c9bb b4be cdd6 d2bc
0.25204644 -0.17824325 0.26272526 0.02098543 -0.46419528 0.5669404 -0.3529952 -0.02573719

encoder.lstm_cells.0.conv_n.convs.<inj___-___prod>.att_src f4 [1, 1, 8]
00000000: 6d53 7f3f 9a84 c5bc 4286 4fbe 42e4 78bf
00000010: 5aa2 b2be 3ffe 26bd 5270 92bc 20fb 50bf
0.9973667 -0.02411108 -0.20266059 -0.97223294 -0.3488949 -0.04076981 -0.017875824 -0.81633186

encoder.lstm_cells.0.conv_n.convs.<inj___-___prod>.att_dst f4 [1, 1, 8]
00000000: cf88 5c3d 48ee 1ebf 1c31 75bf dae0 1dbf
00000010: 7edc 3dbf 8af0 fdbe 5193 6f3f bdf6 2c3b
0.05384141 -0.6208234 -0.9577806 -0.6167122 -0.7416457 -0.4959758 0.9358416 0.0026392185

encoder.lstm_cells.0.conv_n.convs.<inj___-___prod>.bias f4 [8]
00000000: 1ed6 9f3b 06a2 30bc 38b3 953c 24b6 f1bd
00000010: aa19 953d 7b82 1dbd 9aa7 74bc 5230 603e
0.0048778197 -0.010780817 0.018273935 -0.11802319 0.07280286 -0.038454514 -0.014932537 0.21893433

encoder.lstm_cells.0.conv_n.convs.<inj___-___prod>.lin_src.weight f4 [8, 8]
00000000: bce9 b43e 8125 fa3d 70e1 febe 6b99 d73c
00000010: a761 163f c9b3 05be 16be 6abe 4660 fd3e
00000020: 6781 673f 286e 54bf 812d 94bd dea2 763e
00000030: f02b 7cbf 768a e43e 12d0 403e 3621 2cbf
00000040: 67e0 c03e 705f 42bf f3c6 633e b20e 2f3f
00000050: 0837 9a3e 4128 a93e 4735 6f3e 118f 2dbf
00000060: a75a 8ebe a6ea 5abe 23ef dabe ff7e 01bf
00000070: c3b6 ba3e becd 153f b3d7 11bf 9a04 663c
00000080: c3d3 3f3d c6a3 493f 14e5 f83e 8a35 173f
00000090: 492a 2ebe 3835 673e c0cb c83e 0325 b3be
000000a0: f07b a2be dae7 dabd 8d79 003e 9465 8bbd
000000b0: d8c5 1a3d 1f9a 893e ff1e 373e 64a3 13bf
000000c0: e592 363e 9c42 153f 46ea 7abe 89bd 95bd
000000d0: 114a 03be 128b f23d de1a f63e e483 933e
000000e0: 1c70 d4be 1972 743f 050d f43d 7e32 a8be
000000f0: 57a8 16be 6737 6bbf 8ab8 1cbe 41de a93c
0.35334575 0.122141846 -0.4978137 0.026318273 0.58742756 -0.13056864 -0.22924075 0.49487513
0.9043183 -0.82980585 -0.07235242 0.24085566 -0.98504543 0.44636887 0.18829373 -0.67238176
0.37671205 -0.75926876 0.22243862 0.683818 0.3012011 0.33038524 0.23360167 -0.67796427
-0.27803537 -0.21378574 -0.42760572 -0.50584406 0.3646756 0.5851706 -0.56969756 0.014039183
0.04683281 0.78765523 0.48612273 0.5906607 -0.17008318 0.22578895 0.3921795 -0.34989175
-0.31735182 -0.106887534 0.12546368 -0.06806484 0.037786335 0.26875398 0.17882918 -0.5767119
0.17829473 0.5830476 -0.2450343 -0.073115416 -0.12821223 0.11842932 0.48067373 0.28811562
-0.41491783 0.954866 0.11916546 -0.32851022 -0.14712654 -0.9188141 -0.15304771 0.020735862

encoder.lstm_cells.0.conv_n.convs.<inj___-___prod>.lin_dst.weight f4 [8, 8]
00000000: df95 853e 1dd6 fc3d 7338 413d 863c 43bf
00000010: f191 08bf c48a 9b3d 7146 ca3e 1827 2fbf
00000020: c16e 403d 820a 09bf cd21 983d eda8 4d3f
00000030: 90a0 ca3e c0b8 7cbe caf7 ff3e c1f9 dd3e
00000040: 7a97 3fbe 91b6 033f bb0c 45be 6c99 ca3d
00000050: bfcb c4be 0d24 973e 199a 8c3e 3e45 173e
00000060: 32ba 07bf fa91 b5be 144c 833e c11d 99be
00000070: 9974 2dbe a12b 463e d03c 0dbe ed4d a43e
00000080: 35f0 0ebe b8ed b43e f374 08bc 53e4 21be
00000090: a725 b93e f8d0 923e 7ea8 92bd 0bb0 a2be
000000a0: 6c53 0cbd b8d2 2abf 1c9d 4a3e 45d8 083f
000000b0: 97c3 1abf 14a8 4fbe bc88 a4be 02ec 1f3f
000000c0: b7b1 333f 7f20 f03d 217f 073f 6aec dfbe
000000d0: 1a9c 05bf 83ba 293c d829 de3d 67cf 013f
000000e0: 86cf 073e 9e2f 113f 4f50 d63e b17c 933e
000000f0: 8ae4 17bf d40a b53e 13d7 28bf a83a c03e
0.26090905 0.12345526 0.047172975 -0.76264226 -0.5334769 0.07594827 0.39506868 -0.6841903
0.046980623 -0.5353166 0.07428322 0.80335885 0.39575624 -0.24679852 0.49993736 0.4335461
-0.18710127 0.5145045 -0.19243138 0.09892544 -0.38436696 0.29519692 0.27461317 0.14772508
-0.53018486 -0.35462934 0.2564398 -0.29905513 -0.1693901 0.1935258 -0.1379273 0.32090703
-0.13958819 0.35337615 -0.008328664 -0.15809755 0.3616154 0.28675056 -0.071610436 -0.31774935
-0.034259245 -0.6672778 0.19786495 0.53455 -0.60454696 -0.2027896 -0.3213557 0.62469494
0.70193046 0.11724948 0.5292836 -0.43735057 -0.5219132 0.010359409 0.10847825 0.50707096
0.13262758 0.56713283 0.41858146 0.2880607 -0.593331 0.35359824 -0.6595318 0.3754475

encoder.lstm_cells.0.conv_n.convs.<prod___-___prod>.att_src f4 [1, 1, 8]
00000000: 27e3 e83e 927c 79bf c0ce 24bf d173 58be
00000010: 5bb9 02bd 203f 35bf 34f4 abbe 4b18 e5be
0.45485803 -0.97455704 -0.64377975 -0.2113793 -0.03191505 -0.70799446 -0.3358475 -0.44745097

encoder.lstm_cells.0.conv_n.convs.<prod___-___prod>.att_dst f4 [1, 1, 8]
00000000: 04e3 83be bab5 20bf 551e 60be c780 10bf
00000010: 8563 24bf 7c35 03bf d173 fabd 9218 5cbf
-0.25759137 -0.6277729 -0.21886571 -0.564465 -0.64214355 -0.51253486 -0.122291215 -0.8597499

encoder.lstm_cells.0.conv_n.convs.<prod___-___prod>.bias f4 [8]
00000000: 1ed6 9f3b 06a2 30bc 38b3 953c 24b6 f1bd
00000010: aa19 953d 7b82 1dbd 9aa7 74bc 5230 603e
0.0048778197 -0.010780817 0.018273935 -0.11802319 0.07280286 -0.038454514 -0.014932537 0.21893433

encoder.lstm_cells.0.conv_n.convs.<prod___-___prod>.lin_src.weight f4 [8, 8]
00000000: 67e5 c13d 6855 17bf e460 1c3e 77d4 37be
00000010: 71b4 25bf a4b5 53be ff1b cd3d 4bc5 ea3e
00000020: 9db2 17be b5f3 7d3e 9efc b0bb dbd8 b6be
00000030: e259 133e cc53 97be e090 03bf 8f51 0abf
00000040: 5080 38bf ce51 39be 3327 1e3e 4a05 0cbf
00000050: fba9 cdbd 9d2c 08be 71b3 48be ca5a f4be
00000060: 58d4 2e3e 7390 4abe 19e0 b73d 95ee cdbd
00000070: 9568 f9be 5842 ccbd 83d5 bc3d a82d dbbe
00000080: b513 92bb e88f 903d 1edc 9e3e 95ba f83d
00000090: f574 0f3f 7113 2bbe b86e 06bf 4809 163e
000000a0: f807 18bf 8a47 81bb 86b7 fabd 4552 d1be
000000b0: db33 3abd a5ec 1b3f 2ab5 763e 971b 313d
000000c0: 4269 3a3f e23f 1fbf ab72 613d 8cd4 e43e
000000d0: 8bef 763e 160a edbe a266 953e 3405 bcbe
000000e0: 8873 923e edc3 b53d 3ab1 9abe a5fe 4fbf
000000f0: 9888 c8be 0113 06bd d54c e13d e015 2abf
0.09467583 -0.59114695 0.15271336 -0.17952143 -0.64728457 -0.20674759 0.100151055 0.45853648
-0.1481423 0.24799998 -0.005401208 -0.35712323 0.14389756 -0.2955612 -0.51392937 -0.540307
-0.7207079 -0.18097612 0.15444641 -0.5469557 -0.10042187 -0.13298269 -0.19599701 -0.47725517
0.1707319 -0.19781666 0.0897829 -0.100552715 -0.48712602 -0.099735916 0.09220412 -0.4280827
-0.0044579157 0.07058698 0.3102731 0.12144963 0.5603784 -0.16706635 -0.52512693 0.14651978
-0.5938716 -0.0039452957 -0.122420356 -0.4088308 -0.04545961 0.60907966 0.24092546 0.043239202
0.7281686 -0.6220685 0.055040997 0.4469341 0.24114816 -0.46296757 0.29179865 -0.3672272
0.28603768 0.088752605 -0.30213338 -0.8124793 -0.39166713 -0.032732967 0.11000983 -0.6643963

encoder.lstm_cells.0.conv_n.convs.<prod___-___prod>.lin_dst.weight f4 [8, 8]
00000000: e3c4 e7be 0b49 dabd 296a 4dbf 8d77 c53d
00000010: f27f 5b3f 64d0 9d3d 1548 c9be 5db1 af3e
00000020: 9c9b b83d 7bcc dd3e ba83 0cbf b1b0 3abf
00000030: cf67 0d3f bed8 a7bd dcf9 52be 4712 14be
00000040: 00ad ffbe 0b26 de3e 628f b0be 65f4 833e
00000050: b1d5 533f b59b 2cbc e062 123e 027b b13d
00000060: 3b68 913e 7ef8 1abf 3e41 3e3d 4a65 8bbe
00000070: 029f 063f 0d51 c7bd 6495 5dbe aaf9 433d
00000080: 49e4 333e 8b38 f6be e887 17bf bba3 9dbe
00000090: cc0a cf3c 6e72 1b3e 1c5c da3e 3a00 4b3d
000000a0: 8ba3 e73e b6d2 9dbe 508c 0abf 5b60 e6be
000000b0: 8dd3 2cbe e9fa 07bf 9f43 0abf 5ede debe
000000c0: 2a55 903c dffe ab3e 568a d03e fe5f c03e
000000d0: b3e9 3e3e a215 343d 868a b7be b5a6 9b3e
000000e0: c4b0 3dbf 30aa 703e 2dcd c3bd b618 873c
000000f0: 1fdb f53e 016f bfbe a13d 093f 4c79 ce3e
-0.452674 -0.10658463 -0.8024011 0.09641943 0.85742104 0.07705763 -0.39312807 0.34315005
0.09014055 0.4332007 -0.548885 -0.7292586 0.55236524 -0.08195637 -0.20603126 -0.14460097
-0.49936676 0.433884 -0.34484392 0.25772396 0.8274794 -0.01053517 0.1429553 0.0866604
0.28399834 -0.6053542 0.04644894 -0.27225715 0.52586377 -0.09732256 -0.21639019 0.04784552
0.17567553 -0.48090014 -0.5919175 -0.3078898 0.025273703 0.1518037 0.426484 0.049560763
0.4524196 -0.30824822 -0.5412035 -0.44995388 -0.16877575 -0.53117234 -0.5400943 -0.43529028
0.017618734 0.3359289 0.40730542 0.37573236 0.18643837 0.043965943 -0.35847872 0.30400625
-0.7409785 0.23502421 -0.095606185 0.016491275 0.4801874 -0.37389377 0.53609663 0.40326917

encoder.lstm_cells.0.conv_n.convs.<inj___-___inj>.att_src f4 [1, 1, 8]
00000000: 771c 293f 777d 29be 89ba cf3e 2dc9 69bd
00000010: 3b21 7fbf 5b96 523f c040 06bf f643 15bf
0.6605906 -0.16551767 0.40572003 -0.05707662 -0.9966008 0.82260674 -0.5244255 -0.58306825

encoder.lstm_cells.0.conv_n.convs.<inj___-___inj>.att_dst f4 [1, 1, 8]
00000000: f7a4 1bbf f7dd 47bf 09d5 3d3e c5b2 90be
00000010: 51be e43e 75d0 12bf 52ef 013f c794 34bf
-0.6079859 -0.78073066 0.18538298 -0.2826139 0.4467645 -0.5734933 0.507558 -0.70539516

encoder.lstm_cells.0.conv_n.convs.<inj___-___inj>.bias f4 [8]
00000000: 35d8 033e b0ea af3e 32ba ae3d 2e12 aabe
00000010: f981 be3e 3454 07be 306e a93e f30f 6b3e
0.12875445 0.3435874 0.08531608 -0.33216995 0.37208536 -0.13215715 0.3309188 0.22955303

encoder.lstm_cells.0.conv_n.convs.<inj___-___inj>.lin_src.weight f4 [8, 8]
00000000: 777e be3e e9df af3e 2d9e 1f3f 7fe2 613e
00000010: 7434 8b3e b1c6 163e 3c96 1dbe 0ffc 293f
00000020: 906f 2b3e ef39 223f 1c7f 583f b869 4a3e
00000030: 2039 85be 6f6e b2be 83e3 c03d c634 b43e
00000040: 07eb afbc 6dbc e63e 7363 ac3e 1e4d 92be
00000050: 1b24 07bd 915d 96bd 2493 9dbe 6604 863d
00000060: 581d 7cbe b7b2 2bbf 0d64 08bf afee ea3b
00000070: 7d1d 093f 1ac8 253f 6a21 113f 5708 3abe
00000080: 1027 c63d 7d88 c43e 7c16 823e 25eb 41bf
00000090: 232e 3fbe bf8b 14be d205 223e 9493 943e
000000a0: ae38 1c3e aae8 a63e 6e0a 88bd 0102 95bb
000000b0: 885d 2abf 1c55 6cbe a79c 02bf e53f 6bbc
000000c0: fd8e 283e 90e1 3f3f b571 123c 7950 8dbe
000000d0: ad89 4abd 62e0 debd dcce 883e 85f2 383e
000000e0: 5fb9 c63c d2a3 c23e 2578 013f bd8f cdbe
000000f0: e6aa b5be 9bea 4bbe bdb7 98bd c3ca 363c
0.3720586 0.34350517 0.6235073 0.22059058 0.27188456 0.14724232 -0.15389341 0.66400236
0.16741776 0.6336965 0.84568954 0.19766891 -0.26020145 -0.3484988 0.094183944 0.35196513
-0.021474374 0.45065632 0.33669624 -0.2857446 -0.032993417 -0.07342065 -0.30776322 0.06543808
-0.24620569 -0.6706957 -0.53277665 0.0071695666 0.5356062 0.64758456 0.5669161 -0.18167244
0.09675419 0.38385382 0.2540778 -0.7574943 -0.18669944 -0.14506434 0.15822533 0.29018843
0.15255997 0.32599384 -0.06642614 -0.004547358 -0.6654897 -0.23079342 -0.5102028 -0.014358495
0.16460796 0.74953556 0.008938243 -0.27600458 -0.049447704 -0.108826414 0.2672032 0.18061264
0.024258314 0.3801561 0.5057395 -0.40148726 -0.35481948 -0.19913714 -0.0745692 0.011156741

encoder.lstm_cells.0.conv_n.convs.<inj___-___inj>.lin_dst.weight f4 [8, 8]
00000000: 7e5d 5b3e 5b07 bdbd a3bd 43be 717f 53be
00000010: 9d16 bbbd ff03 dbbe 9d71 f63d 7e35 aebd
00000020: d417 a83e 38f2 70bd f58c 5dbd 9dc7 833e
00000030: b04d e93e 6856 47be a15b b23e 15e6 613d
00000040: 97e8 bcbe 35ed 993e 1465 8fbe 835f 89be
00000050: c798 94be efe2 f9be 30ad 003f 21dd ecbe
00000060: f14d 853e e681 25bf 2ec8 2dbe 8007 f63d
00000070: 7af1 d93e 421e 11be da7b 183e 0468 e03a
00000080: ae4c d03e c0b5 093e 6c8a a83e d283 eabe
00000090: 12be d3be 499c ea3e 53cd d7be baa3 11bc
000000a0: 6d25 eebd ccf1 003f dcfe 6cbe 9e2d c2be
000000b0: f982 26be 0cab cf3e aa8b 673e b289 d43e
000000c0: fe02 acbd 619c c33e 5244 f5be 7b58 1b3e
000000d0: 0913 933e d67f 9d3e b0a2 abbe 6e6b 96bd
000000e0: b383 d13d df89 09bf 94db 17bf 799d fdbe
000000f0: 7d5a 9c3c 7d3e f43e 68fe 093e e5a0 7bbd
0.21422383 -0.092299186 -0.1911531 -0.20654084 -0.091351725 -0.42776486 0.12033389 -0.085062966
0.3283068 -0.058824748 -0.054089505 0.2573823 0.45567083 -0.19466555 0.34835532 0.055151064
-0.36896202 0.30063787 -0.28006804 -0.26830682 -0.2902281 -0.4880595 0.50264263 -0.46262458
0.26036027 -0.64651334 -0.16970894 0.12013149 0.42567044 -0.14171699 0.14890996 0.0017120843
0.40683502 0.13448238 0.32918108 -0.45803696 -0.4135595 0.4582236 -0.42148837 -0.008889133
-0.11628232 0.5036895 -0.23144096 -0.37925428 -0.162609 0.40560186 0.22611871 0.41511303
-0.08399008 0.38205245 -0.47903687 0.15170471 0.2872546 0.30761594 -0.33522558 -0.07344709
0.10230198 -0.53726 -0.59319425 -0.49534205 0.019086117 0.47703925 0.13475955 -0.061432738

encoder.lstm_cells.0.W_n.inj f4 [1, 8]
00000000: 03e8 42bf a442 af3e 8458 ef3e d02b 60bf
00000010: 4795 df3e 97b7 d33e 49e3 e43e af64 cabd
-0.7613527 0.3423053 0.4674722 -0.8756685 0.43668577 0.41351005 0.44704655 -0.09882485

encoder.lstm_cells.0.W_n.prod f4 [1, 8]
00000000: 1def 193f 15c9 293d d2d3 c93d f363 69be
00000010: 6614 ebbe 4e52 58be 5b8f b93d 53c1 10bf
0.6013048 0.041451532 0.09854855 -0.22792034 -0.45914 -0.21125147 0.09060546 -0.5654499

encoder.lstm_cells.0.b_n.inj f4 [1, 8]
00000000: c5f9 2ebf 15da 633f 5a34 343f 19b8 0dbd
00000010: 8ef8 49be 0c20 70bf f518 aabe 37a2 563f
-0.6834987 0.8900464 0.7039238 -0.034599397 -0.19723722 -0.937989 -0.33222166 0.8384127

encoder.lstm_cells.0.b_n.prod f4 [1, 8]
00000000: 4b34 cb3e 6322 2d3f c25b e43e 6081 b53d
00000010: b0b9 843d cdce 28bf 8be8 36bf 7476 0bbf
0.39688334 0.67630595 0.44601256 0.08862567 0.064807296 -0.6594055 -0.7144858 -0.5447762

decoder.lstm_cells.0.conv_z.convs.<inj___-___prod>.att_src f4 [1, 1, 8]
00000000: 492a 823e 32b3 e0be 3952 7cbe f65d 02bf
00000010: 97a6 0dbe 21a8 9fbe 6efb 2bbf 7600 a13e
0.25422886 -0.43886715 -0.2464074 -0.50924623 -0.1383308 -0.3118296 -0.67180526 0.31445664

decoder.lstm_cells.0.conv_z.convs.<inj___-___prod>.att_dst f4 [1, 1, 8]
00000000: 51be 83be e2c2 353f b75d 01bf f619 0bbf
00000010: a92a 82be a202 a1be 29a1 89be d1f4 8cbf
-0.25731137 0.7100049 -0.5053362 -0.5433649 -0.25423172 -0.3144732 -0.26880768 -1.1012212

decoder.lstm_cells.0.conv_z.convs.<inj___-___prod>.bias f4 [8]
00000000: 7fd5 43bc 4309 86be 1fa8 76bd 939d adbd
00000010: 0fb6 f33d e27c 9f3e d521 38be 747b 25bd
-0.011952757 -0.2617894 -0.060218927 -0.084773205 0.11899959 0.31149966 -0.17981656 -0.040400937

decoder.lstm_cells.0.conv_z.convs.<inj___-___prod>.lin_src.weight f4 [8, 8]
00000000: 7fc1 873e c56b 0dbf 36be 773d c803 8dbb
00000010: 4b1c fbbe 4cfe 2c3f 330b 19bf b868 29be
00000020: 84d4 c7be d565 b3be cc3c a0bd ddec dd3e
00000030: 2637 17bf 8b23 853e 60ac 41bf ea1f f53d
00000040: 91ae 8dbe d9fd 963d a5a6 a7be 456e 5b3e
00000050: c326 c0be 2929 303f 6918 3a3e 338c 43bf
00000060: 4df2 4e3e 7e2e 4bbf 4631 6b3e 576c bb3e
00000070: df3d 86be 8701 03bd 2ea7 2a3e e3fd 01bf
00000080: 7381 af3e 67b7 8a3e 8380 663e 7aa3 dbbd
00000090: a337 a0be 513c 173f b1ad 8abc 39b8 833d
000000a0: 0c36 e4bd 4ac8 1a3f dbb0 ea3e 5f63 60be
000000b0: bf8a 0d3f 31f8 22bf 5ee5 8a3d 19d0 52be
000000c0: 6a61 c73e a892 35bf f7b8 e6be aa77 2a3f
000000d0: 5a8f 143f 9123 ccbd 14b1 3abe 249d 5fbe
000000e0: cbbb b63d 3ace 82bd 4118 edbe 706b 41bf
000000f0: 665e 1c3f f75a 713f 323e f43c 5fb1 333f
0.26514813 -0.5524257 0.060484134 -0.0043034293 -0.49045023 0.67575526 -0.59782714 -0.16543853
-0.39029324 -0.3503863 -0.07824096 0.43344775 -0.59068525 0.2600368 -0.7565365 0.11968978
-0.27672246 0.07372636 -0.32744327 0.21428783 -0.37529573 0.68812805 0.18173374 -0.763858
0.20209618 -0.79367816 0.22968015 0.36606094 -0.2621908 -0.03198388 0.16665336 -0.50778025
0.3427845 0.2709305 0.22509961 -0.1072454 -0.31292447 0.5907641 -0.016928526 0.06431622
-0.11143121 0.60461867 0.45838055 -0.21912907 0.55289835 -0.6365996 0.067820296 -0.20587195
0.3894151 -0.70926905 -0.45062992 0.6658884 0.5803124 -0.09967721 -0.18231612 -0.21837288
0.089225374 -0.06386991 -0.46307567 -0.7555456 0.6108154 0.94279426 0.029814813 0.7019252

decoder.lstm_cells.0.conv_z.convs.<inj___-___prod>.lin_dst.weight f4 [8, 8]
00000000: 1e5e d43e d6e0 ed3e a6e2 a6be e601 42be
00000010: af33 8c3e 85d0 5a3e 9ecd 2f3f c4d5 3dbd
00000020: d599 ee3d 64f6 e83e 5f83 0cbe d0c9 b03e
00000030: 0589 843d ec03 153f 59c7 b1be 7e4e f2bd
00000040: 2985 f93e ea5d 1bbf d3c6 50bf 583e 0ebf
00000050: 6e15 313e 81a0 683e 7fe6 aebe 7964 943e
00000060: 26ed 4ebe 0f68 98be d10d 8c3e 2095 c33d
00000070: e211 b1be fea2 c4bd d7ba 423e 6b51 933e
00000080: 7298 85bd 137a b2be 59ff 033e 1ca0 0abe
00000090: 0f18 373d 9b3d e3be 6c91 b13e 350b 233f
000000a0: df93 f73e daec 0a3e f0a0 b33e 6ed8 4dbe
000000b0: 0876 22bd dc9f d23e 76e9 2d3f d9f8 09be
000000c0: cc0b 2c3f 4ec9 4e3e 8c7f a8be de01 a63e
000000d0: 7658 ffbe 3e0b 5e3e a457 303f 9acc 92be
000000e0: 5a17 72be a64d 22bf 936f c5be 1433 47bf
000000f0: e378 cebe d635 72ba ee6d 023f 7f9f fd3e
0.41478056 0.464606 -0.32594794 -0.18946037 0.2738318 0.21368606 0.6867312 -0.04634644
0.11650435 0.4550048 -0.13721989 0.3452897 0.06471447 0.5820911 -0.34722403 -0.118313774
0.48734406 -0.60690176 -0.8155338 -0.5556388 0.17293331 0.22717477 -0.3416023 0.28982905
-0.20207652 -0.2976689 0.2735429 0.09549928 -0.34583956 -0.09601401 0.19016586 0.28773054
-0.06523217 -0.3485876 0.12890376 -0.1353764 0.04470068 -0.4438294 0.3468126 0.63688976
0.48355004 0.13566914 0.35083723 -0.20102093 -0.039663345 0.41137588 0.6793436 -0.13473834
0.672055 0.20193979 -0.3290981 0.324233 -0.49872178 0.21683976 0.6888373 -0.28671724
-0.2364172 -0.6339973 -0.38561687 -0.77812314 -0.40326604 -0.00092395896 0.5094899 0.49535748

decoder.lstm_cells.0.conv_z.convs.<prod___-___prod>.att_src f4 [1, 1, 8]
00000000: aca5 413f cc77 4bbf 00f9 113f b895 353f
00000010: d9a1 0a3e 33b4 92be eb43 063f cea2 48bd
0.7564342 -0.7947967 0.5702057 0.7093158 0.13538302 -0.28653106 0.52447385 -0.048983388

decoder.lstm_cells.0.conv_z.convs.<prod___-___prod>.att_dst f4 [1, 1, 8]
00000000: 450a a03e 7ff8 743f f3b5 7abe 8609 d13d
00000010: 2de8 fabe eb96 c1be 4c71 603e e7f4 89bf
0.31257835 0.95691675 -0.2448347 0.102068946 -0.4900526 -0.37810454 0.2191822 -1.0777863

decoder.lstm_cells.0.conv_z.convs.<prod___-___prod>.bias f4 [8]
00000000: 7fd5 43bc 4309 86be 1fa8 76bd 939d adbd
00000010: 0fb6 f33d e27c 9f3e d521 38be 747b 25bd
-0.011952757 -0.2617894 -0.060218927 -0.084773205 0.11899959 0.31149966 -0.17981656 -0.040400937

decoder.lstm_cells.0.conv_z.convs.<prod___-___prod>.lin_src.weight f4 [8, 8]
00000000: 85c4 143e 4b15 6f3e 1b4f 8cbe a0c3 e7be
00000010: 191b 1d3e e66f 273f cba5 28bd ad42 fdbd
00000020: 62a7 33bf e77f 1dbf 73e7 97be 2616 a23e
00000030: d233 0e3e d4cb 8fbe 8f72 2f3e bcb0 1e3e
00000040: 479d 9ebe 03bf 91bd 2d2f de3e 88e8 30bf
00000050: 752f a1be 0798 973e 97bd 24bf 23f3 e2be
00000060: 095e e73e 8cda 2dbe 77b7 c0be 1a61 bdbe
00000070: 2ecc 00bf 7a0c 113f 13bf 9fbd 3d45 c9be
00000080: cee2 a7be a395 e33e f740 6bbe 4258 32bd
00000090: 77e3 17be 4fcc e2be dfcb acbc 0571 fc3e
000000a0: a0a0 d0bd 56fa 563e 2805 37bf 31d6 23be
000000b0: b97d 6e3e 63b1 74be 014d 2d3f c264 4abe
000000c0: ce5d 0fbf 2454 2bbf a972 9f3e 928e 3bbf
000000d0: d74d db3e b281 f73e 4a57 ca3e 711b ea3e
000000e0: 79da 943c 71bb a33e a6ad 30bf 0884 c8be
000000f0: fb5f 903e 1749 a9bb 3c62 923d ddc4 afbe
0.14528091 0.23347966 -0.27404103 -0.45266438 0.15342368 0.6540512 -0.041173737 -0.12366233
-0.7017728 -0.6152329 -0.2966877 0.31657523 0.13886955 -0.28085196 0.17133544 0.15497106
-0.30979368 -0.07116511 0.43395367 -0.69104815 -0.3148152 0.29608175 -0.6435179 -0.44326124
0.4518893 -0.169779 -0.37639973 -0.36988145 -0.50311553 0.5665966 -0.078001164 -0.39310637
-0.32790226 0.444501 -0.22974001 -0.0435412 -0.14832865 -0.442965 -0.021093307 0.49304977
-0.10186887 0.20993933 -0.7149224 -0.15999676 0.23290147 -0.23895793 0.67695624 -0.19764999
-0.5600251 -0.66925263 0.31142166 -0.7326442 0.42832825 0.48341137 0.3951972 0.4572406
0.018170582 0.31978944 -0.69014966 -0.39163232 0.28198227 -0.0051661837 0.07147643 -0.34329882

decoder.lstm_cells.0.conv_z.convs.<prod___-___prod>.lin_dst.weight f4 [8, 8]
00000000: 4cd8 c2be f5ee a23e e7bb 4abe 0679 85be
00000010: d344 133c e681 b93e e341 6fbd a58c c9be
00000020: fffe cd3e 385c 923e 27f9 fbbe 3915 5cbf
00000030: 03f9 13bd 38a6 673e 84eb d43e dd61 763e
00000040: 5bf6 e8be c9dd c43e 976f 2abe 4d1d 203f
00000050: b70c 223f 7e13 9e3e fa35 473e eb54 40be
00000060: 2048 3bbf f890 40bf 5560 ca3e 50b8 9a3e
00000070: a3c2 c9be cf3f ab3e 3ad4 fe3e 31aa 01bf
00000080: 90e0 f43e 0b61 313e 5cd4 8e3e 4f51 593f
00000090: 495d 3f3f 2da6 bf3e 9f45 2d3e 15f1 f93e
000000a0: 69b4 b53d 8480 01bf 67ee 873e e97e 70be
000000b0: f809 983e a359 3b3e 6bcd 4dbe a4d3 88be
000000c0: 8826 b8be 8426 d73e da1d 163e f1de f43d
000000d0: 8fca 95be 6292 37be 9f9f 713d 0f9d 883e
000000e0: eda5 7ebe c48e e53e 8861 1d3f 30c6 9bbe
000000f0: 3026 1e3e 5839 a1bc e45d 1cbf a106 eb3e
-0.38055646 0.31822935 -0.19798242 -0.26068896 0.008988577 0.36231917 -0.058412444 -0.39365116
0.4023361 0.28585982 -0.49213526 -0.85969883 -0.036126148 0.22622001 0.41585934 0.2406077
-0.45500454 0.3845046 -0.1664413 0.6254471 0.6330065 0.30874246 0.19454184 -0.18782394
-0.7315693 -0.75221205 0.3952662 0.30218744 -0.3940631 0.3344712 0.4977129 -0.50650316
0.47827578 0.17322175 0.27896392 0.8488969 0.74751717 0.3743147 0.1692109 0.48816743
0.08872301 -0.50586724 0.26549074 -0.23485912 0.29695106 0.18295912 -0.20097892 -0.2672397
-0.35966897 0.42021573 0.14659825 0.11956585 -0.29256102 -0.17926934 0.058990117 0.26682326
-0.24867983 0.44835484 0.61476946 -0.30424643 0.15444255 -0.019680664 -0.61080766 0.45903495

decoder.lstm_cells.0.conv_z.convs.<inj___-___inj>.att_src f4 [1, 1, 8]
00000000: c3b0 273f bc8d 3c3f ee81 1a3f f73f adbd
00000010: 85d2 08bf f762 e43b 29fb 213f 9595 7abf
0.6550409 0.7365377 0.60354507 -0.08459466 -0.5344623 0.0069698053 0.63273865 -0.97884494

decoder.lstm_cells.0.conv_z.convs.<inj___-___inj>.att_dst f4 [1, 1, 8]
00000000: 91ef 96be 1625 1cbf f8f7 df39 acc3 04bf
00000010: b98e f9be 3837 c2be 06a6 37bf 10f7 0e3f
-0.2947965 -0.6099409 0.00042718626 -0.5186107 -0.487417 -0.37932754 -0.71737707 0.5584574

decoder.lstm_cells.0.conv_z.convs.<inj___-___inj>.bias f4 [8]
00000000: 90ef 9bbe 5b16 ef3c db36 0ebe 987a 43be
00000010: 7895 89be 4637 64bc b528 d93d adf4 0c3e
-0.3045621 0.029185465 -0.13888113 -0.19089735 -0.26871848 -0.013929194 0.106034674 0.13765211

decoder.lstm_cells.0.conv_z.convs.<inj___-___inj>.lin_src.weight f4 [8, 8]
00000000: af26 213e a77c 2d3f ba5e 61be f14d ef3e
00000010: 40de 3bbf 1613 0abf b569 09be ab06 093f
00000020: 0f96 a03e 2313 40bf d706 81bd 6622 6dbe
00000030: 4a11 0f3d f458 b7be 4636 4bbe a272 b03e
00000040: 91ff 26bf 7542 4dbf 6d1d b23c 760a 223e
00000050: 998c 19be 0a7a 363f 16a7 d6be 506c 35bf
00000060: e7e0 24bf a65c fc3d 0e2e 8a3d 8eb4 073f
00000070: 125e 69be b319 c0bc 1f3c e5be fc9e 953e
00000080: 9b41 d33e 6ee8 4cbf f23f 27be 83e4 9cbe
00000090: 6737 aabd ad56 7bbe 24e7 0bbf b7e8 a03e
000000a0: 4d62 51bf c7ed a13e 3a7c 863c 0ce6 0d3f
000000b0: 62d0 13bf 4017 033f 30a9 64be 337e ffbd
000000c0: b314 113f 0bf8 2fbf a5bb 23bf b255 223f
000000d0: 34e1 3abe c203 aebe bdb8 1d3e b722 90bd
000000e0: b6cc 503e afd1 09bf fe2d 0abb 8b87 58bf
000000f0: f971 b13e 5b4d 073f b641 d43e b45f e33e
0.15737413 0.6776833 -0.22008792 0.46739152 -0.73386 -0.5393537 -0.1341923 0.535258
0.31364486 -0.750292 -0.06300133 -0.23157653 0.034928598 -0.35810053 -0.19844922 0.34462458
-0.65233713 -0.8017953 0.021742547 0.15824303 -0.1499504 0.71279967 -0.4192435 -0.70868397
-0.64405674 0.12322359 0.067470655 0.5300988 -0.22789791 -0.023449754 -0.4477243 0.29222858
0.4126099 -0.8004216 -0.16332987 -0.3064309 -0.083113484 -0.24544783 -0.5464957 0.31427547
-0.8179062 0.31626722 0.016416658 0.5542915 -0.5773984 0.5120735 -0.22330165 -0.124752425
0.5667221 -0.6873786 -0.639582 0.6341201 -0.1824997 -0.33987242 0.15402503 -0.07037871
0.20390591 -0.53835577 -0.0021084542 -0.8458182 0.34657267 0.5285241 0.41456383 0.44408953

decoder.lstm_cells.0.conv_z.convs.<inj___-___inj>.lin_dst.weight f4 [8, 8]
00000000: b888 10bc b69e a6be 43ad 6fbe 2310 82be
00000010: c73e dabe 4d02 3dbe 2db4 0f3f 3752 8abe
00000020: f4c7 ec3d cb28 923e ad69 20be 267c aabe
00000030: b51f d8be 09be b7bd 2088 3a3e 84aa 2cbf
00000040: 74cc 2abe ef1e 063e 025a db3e 1483 193e
00000050: dc20 133e 43b3 093f c9cf 913e 8238 ae3d
00000060: 6180 92be 15e4 21bf c7ac 79be b95e dcbd
00000070: 7bd2 023d eb1c 8f3d 7d25 513e 4291 793e
00000080: f097 b1be 5fe5 39bf d05f dcbe b866 94be
00000090: c52b ab3e d7dd 82be 8e5a cfbd 6b99 97be
000000a0: 4b61 f0be cbd3 0b3e 07cb bbbe af02 fbbc
000000b0: 826e e2be 908d 973d 2d11 3a3d 25f5 3fbe
000000c0: 914a a5be 7ec6 5a3d 0024 83be 21cc b0be
000000d0: fd35 eabe fcc5 dcb7 1272 1cbf 4753 b73e
000000e0: 3c22 4bbe 0672 03be 747c 1a3e 91e0 2b3e
000000f0: 8db8 63bd 1312 953e 0545 a8be 7ec6 bb3e
-0.008821659 -0.32542962 -0.23405938 -0.25402936 -0.4262602 -0.18457909 0.561343 -0.2701585
0.115615755 0.28546748 -0.15665312 -0.33297843 -0.4221169 -0.08971793 0.1821599 -0.67447686
-0.16679555 0.13097738 0.42842108 0.14991409 0.14368004 0.53789157 0.2847884 0.08506872
-0.2861357 -0.6323865 -0.24382316 -0.107602544 0.03193901 0.069879375 0.20424457 0.24371818
-0.34686232 -0.7261562 -0.4304185 -0.28984618 0.3343183 -0.25559875 -0.10124694 -0.29609236
-0.4694923 0.13655011 -0.36678335 -0.030640928 -0.44224936 0.07400048 0.045426536 -0.18745859
-0.32283452 0.053411953 -0.25613403 -0.34530738 -0.45744315 -2.6318237e-05 -0.6111156 0.35805723
-0.19837278 -0.12836465 0.15086538 0.16784884 -0.055595923 0.29115352 -0.32865158 0.36674875

decoder.lstm_cells.0.W_z.inj f4 [1, 8]
00000000: eb2f 99be 109c 343f cfd2 f4be 79b3 17be
00000010: 0654 853e 62de 4abe 60ff a1be 1088 fdbe
-0.2991937 0.7055063 -0.47817084 -0.14814557 0.26040667 -0.19811395 -0.31640148 -0.4951787

decoder.lstm_cells.0.W_z.prod f4 [1, 8]
00000000: 0268 ae3e d283 d13d bca3 cd3c 243e 21bf
00000010: a81f 5ebf a2c1 053f fd01 6ebc 1b33 e8be
0.34063727 0.10230221 0.025102489 -0.62985444 -0.86767054 0.52248585 -0.014526841 -0.4535149

decoder.lstm_cells.0.b_z.inj f4 [1, 8]
00000000: 049b 20bf b1e3 f73e e804 4abf 1f79 a63e
00000010: 1ee2 15bf 92c4 bbba 2595 62bd bc52 723e
-0.62736535 0.48415902 -0.78913736 0.32514283 -0.5854815 -0.001432555 -0.055318017 0.23664373

decoder.lstm_cells.0.b_z.prod f4 [1, 8]
00000000: d773 84be 9def a93e f5cc a6bd 2076 0d3f
00000010: 8f6f 673f e1b8 b0bd 7384 46bf 735b 1d3f
-0.2586963 0.33190623 -0.08144561 0.5525837 0.904046 -0.08629013 -0.7754585 0.61467665

decoder.lstm_cells.0.conv_r.convs.<inj___-___prod>.att_src f4 [1, 1, 8]
00000000: 59f9 203f eafb 62be e849 21be 9423 8cbe
00000010: 0f4d 5fbf 3ce9 35bf 1172 843e a3cd 00bf
0.62880474 -0.2216641 -0.15750849 -0.27370894 -0.8722696 -0.7105901 0.25868276 -0.50313777

decoder.lstm_cells.0.conv_r.convs.<inj___-___prod>.att_dst f4 [1, 1, 8]
00000000: d190 e0be 39a9 18be 1336 9fbe 9931 42be
00000010: 85a6 dd3d 21b9 8dbe 48b4 83be 7d61 f3be
-0.43860486 -0.14908303 -0.31095943 -0.18964233 0.10822777 -0.27680305 -0.2572348 -0.47535315

decoder.lstm_cells.0.conv_r.convs.<inj___-___prod>.bias f4 [8]
00000000: cc55 31bd 870b ea3c 973d 82bd dc89 2d3d
00000010: 37b8 c43c accf afbd 1beb fe3d 66e9 97bd
-0.043294713 0.02856995 -0.063594036 0.0423678 0.024013622 -0.08584532 0.124471866 -0.07417564

decoder.lstm_cells.0.conv_r.convs.<inj___-___prod>.lin_src.weight f4 [8, 8]
00000000: d743 76bd 54e5 e3be ae98 e9bd 72f8 b13e
00000010: 8038 de3c 584c bf3e 9097 b13e 69f1 fdbe
00000020: 64e4 8ebe 79cc 53bc f78e 18be a494 1c3e
00000030: 6b42 4abf 1907 62bc db4c 6a3e 6cf0 7bbe
00000040: dc0a 04bf 16fd e1be aaa2 94be 70e6 003e
00000050: 0e08 813d b8c5 353e 9248 1b3f 991d ba3e
00000060: 032e 473e 8084 2cbe 19d2 793d 7fb9 e43b
00000070: 93b5 8bbe 0442 62be 714e c43d 4684 f23e
00000080: 08aa 133f e5f5 1dbf 3754 d6be 30e0 4c3e
00000090: b108 28be 3417 6a3e 0515 e3bd a910 7b3e
000000a0: f931 d3bd 9c00 173f e74a 83be 6e0d de3e
000000b0: 496d b0bd 9424 e5be 1cd0 273e d949 48bf
000000c0: b23e 053f 9f10 a23c a061 6d3e c64b f33e
000000d0: b600 58bd a7ef 623e 433b c43e afa5 2bbf
000000e0: 0872 e53e a39a 03be bdd5 88be 4775 69bd
000000f0: b913 123f 436f 90be 9b85 b3be d324 0e3f
-0.06012329 -0.445109 -0.114060745 0.3475986 0.02712655 0.37362933 0.34685946 -0.49598244
-0.27908623 -0.012927168 -0.14898287 0.15291077 -0.79007596 -0.0137956375 0.2288088 -0.24603432
-0.5157907 -0.44138402 -0.29030353 0.12587905 0.063003644 0.17751205 0.6065761 0.36350706
0.19451146 -0.1684742 0.06099138 0.0069801207 -0.27286968 -0.22095495 0.09585274 0.47366542
0.5768132 -0.6170333 -0.41861126 0.20007396 -0.16409566 0.22860414 -0.110879935 0.24518074
-0.10312266 0.58985305 -0.25643083 0.4336962 -0.086145945 -0.4475447 0.16387981 -0.7823768
0.5204879 0.019783316 0.23181772 0.47518748 -0.052735053 0.22161733 0.38326463 -0.6704969
0.4481356 -0.12851958 -0.2672557 -0.05699661 0.57061344 -0.28209886 -0.3506287 0.5552494
