fitted_models/model_seq2sew_gat_RN_one_step.pth (torch, 77050 bytes, 154 tensors)

encoder.lstm_cells.0.conv_i.convs.<inj___-___prod>.att_src f4 [1, 1, 8]
0.92639446 -0.49931338 -0.7250987 -0.09559413 -0.50481015 0.21046206 0.22849615 0.031024834
00000000: 3028 6d3f 01a6 ffbe 12a0 39bf dbc6 c3bd
00000010: 3d3b 01bf 5e83 573e e5fa 693e cb27 fe3c

encoder.lstm_cells.0.conv_i.convs.<inj___-___prod>.att_dst f4 [1, 1, 8]
0.56414926 0.04436469 -0.2610734 -0.6970299 0.23945138 -0.78977066 -0.020358777 0.14897011
00000000: 166c 103f c0b7 353d 6aab 85be 8d70 32bf
00000010: be32 753e 692e 4abf 73c7 a6bc 9f8b 183e

encoder.lstm_cells.0.conv_i.convs.<inj___-___prod>.bias f4 [8]
0.11456927 -0.07917303 0.03168565 -0.05128046 0.08883409 0.19661148 0.088992395 0.37707838
00000000: 4ba3 ea3d 7825 a2bd d0c8 013d 760b 52bd
00000010: a6ee b53d 8554 493e a541 b63d 6b10 c13e

encoder.lstm_cells.0.conv_i.convs.<inj___-___prod>.lin_src.weight f4 [8, 8]
0.056249045 0.5226036 -0.11713176 -0.29342923 0.2772464 -0.5307742 -0.38723418 0.33554196
0.3630817 0.44418377 -0.03799921 0.0669533 -0.39327446 -0.18439142 -0.012848829 0.04946894
-0.51533985 -0.0038953305 0.5179728 0.3673865 0.011389621 0.4849466 -0.46083537 -0.27943742
0.11821672 0.07900054 0.37140563 -0.5535801 0.54196584 -0.784053 -0.28580233 -0.23449986
-0.61833394 -0.62272346 -0.33849022 0.47419053 0.16182815 -0.19362907 -0.010013925 -0.5763106
-0.54686314 -0.3705091 -0.44800523 0.43441194 -0.2385092 -0.13092448 -0.57084423 0.10711403
-0.102311924 -0.38728994 0.62685347 0.5001757 -0.42296708 0.34413502 -0.12548985 -0.04840314
0.5166858 0.06622825 0.2723944 0.6332721 -0.6643161 -0.15964457 -0.8588873 0.4786275
00000000: 6665 663d 59c9 053f c7e2 efbd 5b3c 96be
00000010: 3df3 8d3e d1e0 07bf 8f43 c6be 28cc ab3e
00000020: d8e5 b93e 0e6c e33e 0fa5 1bbd d01e 893d
00000030: 455b c9be 1bd1 3cbe e583 52bc f19f 4a3d
00000040: 50ed 03bf cd48 7fbb de99 043f 151a bc3e
00000050: 889b 3a3c ec4a f83e 9df2 ebbe 6c12 8fbe
00000060: 9c1b f23d 09cb a13d e128 be3e 6db7 0dbf
00000070: 46be 0a3f b3b7 48bf af54 92be bb20 70be
00000080: 224b 1ebf ce6a 1fbf 974e adbe 1ac9 f23e
00000090: 47b6 253e b346 46be 7211 24bc 1789 13bf
000000a0: 39ff 0bbf 5eb3 bdbe f160 e5be 3e6b de3e
000000b0: c13b 74be 1111 06be d922 12bf 9a5e db3d
000000c0: ea88 d1bd de4a c6be 7879 203f 840b 003f
000000d0: 248f d8be 7732 b03e 6980 00be 5f42 46bd
000000e0: 8545 043f ada2 873d 4777 8b3e 1f1e 223f
000000f0: 9f10 2abf de79 23be 0ae0 5bbf aa0e f53e

encoder.lstm_cells.0.conv_i.convs.<inj___-___prod>.lin_dst.weight f4 [8, 8]
-0.45663375 -0.5264091 -0.4096806 -0.5750122 -0.48819897 0.5608293 0.33030942 0.5003775
-0.29484376 -0.2632778 -0.23383497 0.044429258 -0.42843047 0.10337156 -0.40610775 0.049826447
0.5565333 0.11686148 0.4640495 -0.46728715 -0.09698855 -0.39297867 -0.05610782 -0.20226774
-0.3521357 -0.5783223 -0.2098335 0.051336654 -0.118302874 -0.5850516 0.47166598 0.49570417
-0.3654219 0.049394127 0.38960716 -0.5515931 -0.5307583 0.35416156 -0.023744646 0.15276305
-0.25897333 0.12428721 0.42342088 -0.18060316 -0.20835702 -0.59784657 -0.082845025 0.42988726
-0.58901834 -0.029492809 0.46751475 -0.21386476 -0.24061684 -0.20673858 -0.23306741 0.09478667
-0.5843828 0.22116762 -0.17303626 -0.045704782 -0.029578645 0.3570835 -0.39224166 -0.5992455
00000000: e6cb e9be bfc2 06bf a8c1 d1be 0034 13bf
00000010: 37f5 f9be 8292 0f3f 511e a93e bd18 003f
00000020: c3f5 96be 59cc 86be 6f72 6fbe 74fb 353d
00000030: 3d5b dbbe 78b4 d33d 5bed cfbe d116 4c3d
00000040: f778 0e3f 1255 ef3d e597 ed3e 4340 efbe
00000050: efa1 c6bd 8034 c9be 50d1 65bd 461f 4fbe
00000060: 214b b4be ee0c 14bf 98de 56be 6246 523d
00000070: c748 f2bd f1c5 15bf 347e f13e f0cc fd3e
00000080: 9418 bbbe 7f51 4a3d 977a c73e 3535 0dbf
00000090: c7df 07bf aa54 b53e 2284 c2bc eb6d 1c3e
000000a0: 2798 84be 4b8a fe3d 9fca d83e 09f0 38be
000000b0: 8b5b 55be 790c 19bf a7aa a9bd 2f1a dc3e
000000c0: e8c9 16bf e79a f1bc 185e ef3e 5dff 5abe
000000d0: 4364 76be 47b3 53be 39a9 6ebe 831f c23d
000000e0: 1c9a 15bf c479 623e 6b30 31be f034 3bbd
000000f0: ea4e f2bc a6d3 b63e e6d3 c8be 2768 19bf

encoder.lstm_cells.0.conv_i.convs.<prod___-___prod>.att_src f4 [1, 1, 8]
-0.62120205 0.1859081 0.2401429 0.5754399 0.28213316 -0.79070383 -0.5523091 -0.37142247
00000000: 1907 1fbf b15e 3e3e 05e8 753e 0750 133f
00000010: c273 903e 916b 4abf 2164 0dbf 162b bebe

encoder.lstm_cells.0.conv_i.convs.<prod___-___prod>.att_dst f4 [1, 1, 8]
-0.77222395 0.2816514 -0.6741221 -0.88809085 0.16438897 0.6023449 -0.1375713 -0.6900627
00000000: 78b0 45bf 9d34 903e 4493 2cbf ec59 63bf
00000010: 9555 283e 4633 1a3f 7edf 0cbe f3a7 30bf

encoder.lstm_cells.0.conv_i.convs.<prod___-___prod>.bias f4 [8]
0.11456927 -0.07917303 0.03168565 -0.05128046 0.08883409 0.19661148 0.088992395 0.37707838
00000000: 4ba3 ea3d 7825 a2bd d0c8 013d 760b 52bd
00000010: a6ee b53d 8554 493e a541 b63d 6b10 c13e

encoder.lstm_cells.0.conv_i.convs.<prod___-___prod>.lin_src.weight f4 [8, 8]
-0.46103948 -0.3322113 -0.40422386 0.527118 -0.32322675 -0.3387114 -0.510926 -0.24506828
-0.20455207 -0.533883 0.096585646 0.17337756 -0.058655728 0.26247317 -0.0015544343 0.6701933
0.08272398 0.41917467 0.406162 0.3831471 0.26975858 -0.4046124 -0.34120592 0.062273096
-0.0027287048 0.36240917 0.0518154 -0.042040728 0.13785504 -0.050029755 0.74155694 -0.52520084
-0.12931505 -0.17951879 0.31479096 -0.5161029 -0.2240234 0.33526015 0.28276306 0.23361056
-0.1113491 -0.2551242 -0.6402769 -0.11582243 -0.37576708 0.27354234 0.34686446 -0.606647
0.6120314 0.07330695 0.14043836 -0.20016131 0.3475568 -0.46087164 0.62742865 -0.5980202
-0.0104493 0.05997134 0.1579125 -0.27831277 0.1738107 0.09352432 -0.10047332 -0.5972466
00000000: 5e0d ecbe 9917 aabe 6ef6 cebe 35f1 063f
00000010: fa7d a5be 956b adbe 0ccc 02bf 2ef3 7abe
00000020: 1976 51be 8eac 08bf b2ce c53d e389 313e
00000030: fd40 70bd e262 863e 29be cbba ca91 2b3f
00000040: 316b a93d 109e d63e 77f4 cf3e db2b c43e
00000050: cc1d 8a3e 5b29 cfbe 8bb2 aebe 1312 7f3d
00000060: 12d4 32bb b28d b93e 633c 543d e632 2cbd
00000070: df29 0d3e 00ec 4cbd add6 3d3f 9073 06bf
00000080: 2a6b 04be c6d3 37be 482c a13e 521f 04bf
00000090: 6466 65be 38a7 ab3e 52c6 903e 9b37 6f3e
000000a0: ff0a e4bd a49f 82be 30e9 23bf 4f34 edbd
000000b0: 8b64 c0be be0d 8c3e 3898 b13e 384d 1bbf
000000c0: 17ae 1c3f f421 963d 13cf 0f3e 16f7 4cbe
000000d0: f7f2 b13e 5ef7 ebbe 2a9f 203f da17 19bf
000000e0: 8a33 2bbc 82a4 753d d0b3 213e 037f 8ebe
000000f0: 6ffb 313e ae89 bf3d f5c4 cdbd 27e5 18bf

encoder.lstm_cells.0.conv_i.convs.<prod___-___prod>.lin_dst.weight f4 [8, 8]
-0.29275838 -0.049688946 0.58864784 -0.28576687 0.63160336 -0.43486235 -0.18197718 -0.06744493
0.019799126 0.30103993 0.41787556 0.3918752 -0.5477585 -0.073505856 -0.26167828 -0.5203481
0.072781764 0.4201755 0.4591675 -0.19670568 -0.016120842 -0.43124208 0.0621499 0.5027479
-0.4365219 -0.016776389 -0.29223526 -0.35654962 0.06412909 -0.6084102 0.30236334 -0.56402487
-0.12062966 0.5230446 0.43912715 0.117929935 -0.47443032 -0.37717792 -0.28839067 -0.27852064
0.60819906 -0.3253876 0.21622372 0.29998684 -0.21647236 0.64113355 0.20585306 0.016248107
-0.52031326 -0.2758352 0.3250488 0.38324612 -0.16873883 -0.37818006 -0.48211363 0.35590437
0.4770417 0.31843853 -0.19934739 0.26886106 -0.152814 0.18711907 0.49068838 -0.53175795
00000000: 6de4 95be a386 4bbd a0b1 163f 0950 92be
00000010: c2b0 213f 47a6 debe 3a58 3abe 9120 8abd
00000020: c731 a23c e821 9a3e c9f3 d53e dea3 c83e
00000030: e739 0cbf 3d8a 96bd b2fa 85be 8835 05bf
00000040: 9b0e 953d 3e21 d73e 0118 eb3e 376d 49be
00000050: db0f 84bc c3cb dcbe e590 7e3d 16b4 003f
00000060: cc7f dfbe a36e 89bc dc9f 95be ac8d b6be
00000070: 1d56 833d c5c0 1bbf 5ecf 9a3e ef63 10bf
00000080: af0c f7bd 40e6 053f 46d5 e03e 4085 f13d
00000090: 88e8 f2be 771d c1be f1a7 93be 429a 8ebe
000000a0: efb2 1b3f 3499 a6be c069 5d3e e097 993e
000000b0: eeaa 5dbe 5421 243f 25cb 523e c01a 853c
000000c0: 4033 05bf 453a 8dbe cc6c a63e d638 c43e
000000d0: dfc9 2cbe d1a0 c1be 99d7 f6be 1939 b63e
000000e0: cf3e f43e 600a a33e b921 4cbe 28a8 893e
000000f0: 467b 1cbe 249c 3f3e 823b fb3e 4a21 08bf

encoder.lstm_cells.0.conv_i.convs.<inj___-___inj>.att_src f4 [1, 1, 8]
0.25582394 0.57888216 0.7658351 0.109446496 0.6931653 -0.74461645 0.81527066 -0.35844967
00000000: 5bfb 823e 9f31 143f c50d 443f 7c25 e03d
00000010: 4873 313f 2f9f 3ebf 94b5 503f b786 b7be

encoder.lstm_cells.0.conv_i.convs.<inj___-___inj>.att_dst f4 [1, 1, 8]
-0.6145103 0.6164841 -0.15034693 0.50327486 -0.51805925 0.6872365 0.7707153 0.29874334
00000000: 8c50 1dbf e7d1 1d3f 8cf4 19be 9fd6 003f
00000010: 889f 04bf bbee 2f3f 994d 453f e3f4 983e

encoder.lstm_cells.0.conv_i.convs.<inj___-___inj>.bias f4 [8]
0.1484035 0.035453383 0.22716177 0.17265977 0.1456873 0.06535657 0.044569403 0.19393301
00000000: 16f7 173e 9137 113d 189d 683e b9cd 303e
00000010: 0d2f 153e aad9 853d 688e 363d 6096 463e

encoder.lstm_cells.0.conv_i.convs.<inj___-___inj>.lin_src.weight f4 [8, 8]
0.1846482 0.29269594 -0.40030688 0.6383777 0.39294234 0.5947944 -0.080837 -0.24140002
-0.3943949 0.18218389 -0.10326926 0.5039864 0.47616825 0.06877977 -0.5272002 0.24505652
0.6563006 -0.16720918 -0.52828336 0.013868212 -0.07424444 -0.29322603 0.20240563 0.4358099
-0.13131078 -0.24113196 -0.46558145 0.6429006 0.21298853 0.29796916 -0.10936429 0.31284156
0.58348477 0.15793136 -0.35968673 0.2829572 -0.29502508 0.029600652 -0.4366831 0.036156792
0.030721985 -0.32844946 0.47728932 0.5760817 -0.52485573 0.18312778 -0.44648835 -0.13674648
0.2143786 -0.00633526 0.3705662 -0.28371513 0.66188115 -0.36504105 0.16661593 -0.035809875
0.5041264 0.09283482 0.28639606 0.25777325 0.28901762 0.104645915 0.10290643 0.6995054
00000000: 6b14 3d3e 3edc 953e 06f5 ccbe b96c 233f
00000010: bd2f c93e 7244 183f de8d a5bd 9131 77be
00000020: 21ee c9be 6a8e 3a3e d57e d3bd 4105 013f
00000030: 53cc f33e 68dc 8c3d 98f6 06bf 19f0 7a3e
00000040: 5103 283f e238 2bbe 943d 07bf 7f37 633c
00000050: 780d 98bd b921 96be 6c43 4f3e 7a22 df3e
00000060: 5576 06be 4ceb 76be b160 eebe 2295 243f
00000070: aa19 5a3e 6a8f 983e 63fa dfbd c52c a03e
00000080: 425f 153f c2b8 213e dc28 b8be c4df 903e
00000090: 870d 97be 117d f23c ed94 dfbe 2519 143d
000000a0: acac fb3c 872a a8be 445f f43e 177a 133f
000000b0: f25c 06bf d985 3b3e 1f9a e4be 4507 0cbe
000000c0: 1086 5b3e 0398 cfbb daba bd3e 1c43 91be
000000d0: 0b71 293f a9e6 babe 5e9d 2a3e 60ad 12bd
000000e0: 6e0e 013f 2f20 be3d 81a2 923e dbfa 833e
000000f0: 1efa 933e 9950 d63d 9bc0 d23d c912 333f

encoder.lstm_cells.0.conv_i.convs.<inj___-___inj>.lin_dst.weight f4 [8, 8]
-0.22441563 -0.3198423 0.46671015 0.21168073 -0.56129813 0.2090717 -0.57641613 -0.35161355
0.26521036 0.39258274 -0.16117008 0.5415505 0.59104675 0.4873522 -0.58734506 -0.20279428
0.012704927 0.43605596 -0.0812067 0.10637095 0.3381129 -0.32146206 -0.34783298 0.5890207
0.0105143115 0.5015665 -0.6185439 -0.21205983 0.41374874 -0.05214247 0.1827512 -0.49479932
0.5709858 -0.37292814 -0.008489315 -0.42390385 -0.25448406 -0.5345607 -0.5114834 -0.14469369
-0.2457711 0.52288747 -0.024570182 0.49810606 -0.11870551 0.13860434 0.5644426 -0.45523795
-0.24133368 0.5918351 -0.16172029 -0.14322822 0.033143625 -0.31869915 0.020517783 -0.23595095
0.22056736 -0.05880227 -0.2287019 -0.20739302 0.14174874 0.31130806 -0.5844825 -0.40832844
00000000: 36cd 65be 5fc2 a3be a2f4 ee3e d5c2 583e
00000010: 3cb1 0fbf e416 563e 0290 13bf b106 b4be
00000020: a7c9 873e 9b00 c93e c509 25be 0ea3 0a3f
00000030: d74e 173f 3a86 f93e 3f5c 16bf 4ea9 4fbe
00000040: 5328 503c ba42 df3e b34f a6bd 03d9 d93d
00000050: 221d ad3e ad96 a4be 2a17 b2be 10ca 163f
00000060: 3844 2c3c aa66 003f e558 1ebf 3626 59be
00000070: e0d6 d33e 5893 55bd 2123 3b3e 5656 fdbe
00000080: 202c 123f 70f0 bebe c516 0bbc ed09 d9be
00000090: bc4b 82be f8d8 08bf 93f0 02bf 952a 14be
000000a0: 6bab 7bbe f4db 053f 6847 c9bc c207 ff3e
000000b0: e01b f3bd 4cee 0d3e 4f7f 103f f314 e9be
000000c0: 2d20 77be 8182 173f 019a 25be 6baa 12be
000000d0: 9cc1 073d 892c a3be e914 a83c 209d 71be
000000e0: 69dc 613e a6da 70bd d530 6abe d65e 54be
000000f0: 9526 113e c563 9f3e a5a0 15bf 6d10 d1be

encoder.lstm_cells.0.W_i.inj f4 [1, 8]
0.76305854 0.42722332 0.9738064 -0.30197233 -0.35390016 -0.16474985 -0.0944568 -0.40283328
00000000: ce57 433f 04bd da3e 604b 793f 1e9c 9abe
00000010: 6732 b5be 2fb4 28be 9172 c1bd 2a40 cebe

encoder.lstm_cells.0.W_i.prod f4 [1, 8]
0.13011271 0.74794614 -0.5131286 0.19337676 0.5025153 0.6348571 0.2580736 -0.007354273
00000000: 443c 053e 6679 3f3f 655c 03bf 8f04 463e
00000010: d8a4 003f ff85 223f 3922 843e 1dfc f0bb

encoder.lstm_cells.0.b_i.inj f4 [1, 8]
0.39440686 -0.6144375 -0.014485021 -0.3311146 -0.3760198 0.6327729 0.68689626 0.08137592
00000000: b2ef c93e c74b 1dbf 9552 6dbc da87 a9be
00000010: ab85 c0be 68fd 213f 6fd8 2f3f 6ba8 a63d

encoder.lstm_cells.0.b_i.prod f4 [1, 8]
0.3648301 -0.27040017 0.20479783 -0.18796766 -0.3359188 -0.1469179 0.9000302 0.51471025
00000000: 03cb ba3e e471 8abe 86b6 513e 987a 40be
00000010: 8dfd abbe a571 16be 6168 663f 0dc4 033f

encoder.lstm_cells.0.conv_f.convs.<inj___-___prod>.att_src f4 [1, 1, 8]
0.5516859 -0.6306146 -0.1329958 0.2881362 0.44321027 -0.45182744 0.44642636 -0.22550468
00000000: 4a3b 0d3f f56f 21bf 0d30 08be 9786 933e
00000010: 75ec e23e ed55 e7be ff91 e43e b3ea 66be

encoder.lstm_cells.0.conv_f.convs.<inj___-___prod>.att_dst f4 [1, 1, 8]
-0.4485928 0.23295991 -0.7007134 -0.820889 0.18345942 0.279261 0.32697058 -0.18994759
00000000: f5ad e5be 0b8d 6e3e f461 33bf c825 52bf
00000010: c9dc 3b3e 4cfb 8e3e b068 a73e 9f81 42be

encoder.lstm_cells.0.conv_f.convs.<inj___-___prod>.bias f4 [8]
0.1336377 -0.03633714 0.050667454 -0.005850126 0.16033548 0.22327489 0.116676025 0.39411414
00000000: 52d8 083e 41d6 14bd ad88 4f3d 6ab2 bfbb
00000010: fc2e 243e 2ca2 643e d7f3 ee3d 54c9 c93e

encoder.lstm_cells.0.conv_f.convs.<inj___-___prod>.lin_src.weight f4 [8, 8]
-0.41526616 0.48166433 0.38038105 -0.44959548 -0.004449775 0.15069617 -0.5189432 0.25143778
0.40572327 0.59516627 0.2119997 -0.20707165 -0.2468718 -0.3299613 0.10919098 -0.15280819
0.32126114 -0.6855743 0.3024241 -0.31330362 0.1716223 0.4973826 0.12822631 -0.23080748
-0.30294847 -0.6741104 -0.50153977 0.1370603 -0.22564013 0.14585875 -0.053195126 0.040542506
0.48117492 0.13564973 0.31351513 0.5513641 -0.22478394 0.47648734 -0.55681187 0.5841786
-0.07076043 0.13440572 0.2831579 0.16702516 0.4121344 -0.18660244 -0.4696019 0.64963543
-0.3461628 0.45258895 0.7227223 0.44120052 -0.26767877 0.054607138 -0.6086085 -0.30996123
0.17416522 -0.30027518 0.08729401 0.6428067 -0.4929832 0.0672231 0.28269842 0.25068712
00000000: c49d d4be b59c f63e 4ec1 c23e 6131 e6be
00000010: 6bcf 91bb 1950 1a3e 76d9 04bf 74bc 803e
00000020: f6ba cf3e d15c 183f 7316 593e 970a 54be
00000030: f6cb 7cbe b0f0 a8be 859f df3d c079 1cbe
00000040: 577c a43e cc81 2fbf 55d7 9a3e 5569 a0be
00000050: c2bd 2f3e efa8 fe3e c24d 033e cc58 6cbe
00000060: 101c 9bbe 8092 2cbf e964 00bf 8959 0c3e
00000070: 350e 67be ff5b 153e 22e3 59bd e60f 263d
00000080: 8f5c f63e c3e7 0a3e 0e85 a03e 3326 0d3f
00000090: c32d 66be 26f6 f33e 398b 0ebf bb8c 153f
000000a0: d8ea 90bd a7a1 093e 13fa 903e a508 2b3e
000000b0: 4803 d33e b614 3fbe a96f f0be 824e 263f
000000c0: 403c b1be bdb9 e73e 5404 393f 09e5 e13e
000000d0: 310d 89be bcab 5f3d c4cd 1bbf 3db3 9ebe
000000e0: 5e58 323e abbd 99be 34c7 b23d fb8e 243f
000000f0: 4b68 fcbe 44ac 893d d9bd 903e 105a 803e

encoder.lstm_cells.0.conv_f.convs.<inj___-___prod>.lin_dst.weight f4 [8, 8]
0.47731414 0.63098264 -0.27841422 -0.52555925 0.63115233 -0.25507587 0.49630275 -0.40026358
0.1608095 0.110281914 -0.07502159 0.41262066 -0.6199823 -0.33475155 0.0015306246 0.48029593
0.23999524 0.45860985 0.19920048 0.61062753 -0.09201013 -0.11413569 -0.17464462 0.23108384
-0.22363645 0.28995222 0.10314838 0.20422028 0.55972576 0.17286201 0.31532308 -0.18045339
-0.5138333 0.31623143 0.31273136 0.4604725 0.17819983 -0.05684136 -0.35953236 -0.5737872
0.1659286 0.4350828 0.016664878 -0.2587337 0.24627122 -0.3712103 0.30675316 -0.48714978
-0.51266104 -0.4207588 -0.041533798 0.14769998 0.25031263 -0.46131906 -0.036948666 0.21195424
-0.18920942 0.08444833 0.32295287 -0.10759398 0.38391608 0.58181685 0.10078492 -0.1196904
00000000: 8562 f43e 1488 213f 4f8c 8ebe 0d8b 06bf
00000010: 3393 213f 4e99 82be 651b fe3e 59ef ccbe
00000020: 3fab 243e 7cdb e13d eba4 99bd 0443 d33e
00000030: 29b7 1ebf 8e64 abbe 3d9f c83a 59e9 f53e
00000040: 50c1 753e e9ce ea3e 36fb 4b3e 1652 1c3f
00000050: cf6f bcbd f9bf e9bd 0ad6 32be 3ea1 6c3e
00000060: f400 65be 9e74 943e 753f d33d 1f1f 513e
00000070: 304a 0f3f bd02 313e 0772 a13e c6c8 38be
00000080: 948a 03bf 16e9 a13e 531e a03e 0dc3 eb3e
00000090: 047a 363e 7cd2 68bd a014 b8be b8e3 12bf
000000a0: 30e9 293e 2cc3 de3e c884 883c be78 84be
000000b0: 862e 7c3e 470f bebe c00e 9d3e b26b f9be
000000c0: c13d 03bf b36d d7be 581f 2abd aa3e 173e
000000d0: fa28 803e 0332 ecbe 7c57 17bd 880a 593e
000000e0: 1dc0 41be 3ff3 ac3d 145a a53e 3c5a dcbd
000000f0: a690 c43e f3f1 143f 5368 ce3d 3e20 f5bd

encoder.lstm_cells.0.conv_f.convs.<prod___-___prod>.att_src f4 [1, 1, 8]
-0.4997392 -0.5113414 0.60132575 -0.63950896 0.33891904 0.682351 0.8011833 -0.63711613
00000000: d1dd ffbe 45e7 02bf 7cf0 193f dcb6 23bf
00000010: cc86 ad3e 8eae 2e3f 591a 4d3f 0b1a 23bf

encoder.lstm_cells.0.conv_f.convs.<prod___-___prod>.att_dst f4 [1, 1, 8]
-0.24221961 -0.61719364 0.62299335 -0.7117224 -0.6890067 -0.58694655 0.74620533 0.6155666
00000000: 6b08 78be 6700 1ebf 7e7c 1f3f 7033 36bf
00000010: be62 30bf 2142 16bf 5007 3f3f c695 1d3f

encoder.lstm_cells.0.conv_f.convs.<prod___-___prod>.bias f4 [8]
0.1336377 -0.03633714 0.050667454 -0.005850126 0.16033548 0.22327489 0.116676025 0.39411414
00000000: 52d8 083e 41d6 14bd ad88 4f3d 6ab2 bfbb
00000010: fc2e 243e 2ca2 643e d7f3 ee3d 54c9 c93e

encoder.lstm_cells.0.conv_f.convs.<prod___-___prod>.lin_src.weight f4 [8, 8]
-0.49277595 -0.2729495 -0.23991266 0.2580705 0.511466 0.038175393 0.38089266 -0.13439716
-0.034546852 -0.4039528 0.19158652 0.52696496 0.27756187 0.14237246 -0.38179374 -0.6206686
-0.44933182 -0.68113863 0.37269774 -0.13557732 -0.11115846 -0.4888835 -0.13102365 0.4696688
-0.029870952 -0.25565925 0.39387175 0.49979565 0.30410996 -0.46630952 0.13278627 -0.7090292
-0.41335052 0.3870138 -0.5626361 -0.21849063 0.30339423 0.5615381 -0.42704588 -0.5680891
-0.21373686 0.61145306 0.14572866 0.5965654 0.5483004 -0.081791654 0.5393977 -0.107801
0.13016154 -0.18717413 0.1504453 0.36710924 -0.041010838 0.5360642 0.056929294 -0.14284271
0.4923692 0.6398805 -0.35495266 -0.18160394 0.17738299 -0.17455171 0.39032167 0.02256469
00000000: 214d fcbe 09c0 8bbe aaab 75be d121 843e
00000010: 70ef 023f cd5d 1c3d 5d04 c33e 699f 09be
00000020: 0081 0dbd e7d2 cebe 422f 443e 2de7 063f
00000030: 971c 8e3e 16ca 113e 787a c3be 23e4 1ebf
00000040: d20e e6be 1a5f 2ebf 3dd2 be3e c8d4 0abe
00000050: 0ca7 e3bd f04e fabe 102b 06be 6e78 f03e
00000060: edb3 f4bc c5e5 82be 8fa9 c93e 37e5 ff3e
00000070: 4db4 9b3e 1fc0 eebe 20f9 073e f082 35bf
00000080: aea2 d3be ac26 c63e eb08 10bf 02bc 5fbe
00000090: 7d56 9b3e f6c0 0f3f c2a5 dabe 4a6e 11bf
000000a0: d6dd 5abe 3088 1c3f e539 153e 83b8 183f
000000b0: 6a5d 0c3f 6282 a7bd f815 0a3f c5c6 dcbd
000000c0: 1149 053e 93aa 3fbe 550e 1a3e bef5 bb3e
000000d0: fbfa 27bd 813b 093f b12e 693d 5c45 12be
000000e0: d117 fc3e 35cf 233f 5bbc b5be 62f6 39be
000000f0: e3a3 353e afbd 32be 3ed8 c73e 96d9 b83c

encoder.lstm_cells.0.conv_f.convs.<prod___-___prod>.lin_dst.weight f4 [8, 8]
0.29962313 -0.37703276 -0.40687284 0.51292413 -0.10357147 -0.30575937 -0.5140781 0.6433687
0.39496717 -0.42200953 -0.43371403 0.464572 0.22615503 -0.15686756 -0.57463074 0.42608675
-0.50911254 0.33140603 -0.6817639 -0.4741618 -0.54307765 0.6305154 0.62781465 -0.58282083
0.5577577 -0.40651986 -0.47460532 0.22812915 0.3107388 0.28130108 0.042687472 0.64147484
-0.44456315 0.2483251 -0.09953507 -0.035652984 0.3860807 -0.5044384 0.2040295 -0.06839792
0.48445088 -0.048650134 0.40228817 0.518548 -0.2610545 -0.67684925 0.51075375 -0.28054783
0.0479565 0.413205 -0.19470741 0.55015886 0.44003564 -0.049034934 0.22971746 -0.011785483
0.50675684 0.45611575 -0.5081015 0.1310217 0.37413684 0.5432632 0.27886605 0.2014852
00000000: 3468 993e 700a c1be a351 d0be ff4e 033f
00000010: 471d d4bd 7e8c 9cbe 9f9a 03bf d0b3 243f
00000020: 2339 ca3e a211 d8be c40f debe 62dc ed3e
00000030: 2f95 673e e4a1 20be 001b 13bf 0b28 da3e
00000040: 3355 02bf 0dae a93e 1488 2ebf 56c5 f2be
00000050: 2307 0bbf 7569 213f 76b8 203f bf33 15bf
00000060: 35c9 0e3f 5f23 d0be 78ff f2be b09a 693e
00000070: 2819 9f3e b206 903e 0fd9 2e3d b237 243f
00000080: c89d e3be ef48 7e3e 0bd9 cbbd dd08 12bd
00000090: 5fac c53e e022 01bf 1ced 503e 3514 8cbd
000000a0: f209 f83e 5d45 47bd b7f8 cd3e 90bf 043f
000000b0: efa8 85be fe45 2dbf c2c0 023f f7a3 8fbe
000000c0: 096e 443d 9b8f d33e 6161 47be 36d7 0c3f
000000d0: 5a4c e13e dbd8 48bd 0e3b 6b3e e617 41bc
000000e0: d1ba 013f 0188 e93e f112 02bf 8d2a 063e
000000f0: dd8e bf3e 4c13 0b3f 88c7 8e3e 2352 4e3e

encoder.lstm_cells.0.conv_f.convs.<inj___-___inj>.att_src f4 [1, 1, 8]
0.7075477 0.5526225 -0.25040033 -0.3029572 -0.44757706 0.39175966 0.39581123 0.29466754
00000000: d921 353f ab78 0d3f 7934 80be 351d 9bbe
00000010: d228 e5be b994 c83e c5a7 ca3e aade 963e

encoder.lstm_cells.0.conv_f.convs.<inj___-___inj>.att_dst f4 [1, 1, 8]
-0.65084976 0.09258409 -0.4158374 -0.18425667 -0.14708152 0.059003223 -0.6927135 0.677076
00000000: 179e 26bf ba9c bd3d a4e8 d4be c8ad 3cbe
00000010: 8a9c 16be 5dad 713d ac55 31bf da54 2d3f

encoder.lstm_cells.0.conv_f.convs.<inj___-___inj>.bias f4 [8]
0.15070799 0.046290644 0.26659974 0.18742071 0.14612107 0.07769705 0.056487735 0.21130958
00000000: 3253 1a3e 429b 3d3d c37f 883e 37eb 3f3e
00000010: c3a0 153e a21f 9f3d af5f 673d 8a61 583e

encoder.lstm_cells.0.conv_f.convs.<inj___-___inj>.lin_src.weight f4 [8, 8]
-0.0773428 0.11060583 -0.43423638 0.55793995 0.41092974 -0.272 -0.5984841 0.5520209
-0.6072981 0.3605649 -0.56673855 -0.31179208 -0.28826725 0.59124285 -0.12242317 0.52178437
0.3096457 0.671908 0.20109393 0.60580516 0.37534606 -0.027504278 -0.3052466 0.36497557
0.66843855 -0.25389725 -0.675835 -0.28620225 -0.46130514 0.25316823 -0.16936256 0.025802199
-0.3215773 0.12075461 -0.5435983 0.63397986 -0.14434968 0.16705063 0.16220063 -0.18908134
0.49239135 0.0483613 0.12247583 -0.56747043 0.06269048 0.219201 0.059775636 -0.06815487
0.38540405 0.45221698 0.61121607 -0.18635127 0.17350937 -0.4958349 -0.41581213 -0.2009864
0.137883 -0.31884357 -0.5835355 0.36999062 0.11801766 -0.30716288 0.29695567 -0.3670429
00000000: e765 9ebd 4f85 e23d 3b54 debe 27d5 0e3f
00000010: 6265 d23e 9643 8bbe 4136 19bf 3e51 0d3f
00000020: e377 1bbf f69b b83e c715 11bf 36a3 9fbe
00000030: c497 93be b15b 173f 00b9 fabd a993 053f
00000040: e289 9e3e 2a02 2c3f 91eb 4d3e 0c16 1b3f
00000050: 5c2d c03e a750 e1bc 4849 9cbe 14de ba3e
00000060: ca1e 2b3f d2fe 81be 8603 2dbf 1a89 92be
00000070: 3030 ecbe 449f 813e 616d 2dbe 225f d33c
00000080: c8a5 a4be 314e f73d 4229 0bbf 814c 223f
00000090: 67d0 13be 520f 2b3e ec17 263e 8a9e 41be
000000a0: b81a fc3e 8016 463d 9cd4 fa3d be45 11bf
000000b0: de63 803d 3a76 603e 4cd7 743d c894 8bbd
000000c0: ae53 c53e fc88 e73e a878 1c3f ded2 3ebe
000000d0: 71ac 313e 12de fdbe 54e5 d4be 61cf 4dbe
000000e0: 3331 0d3e 773f a3be 9562 15bf 696f bd3e
000000f0: 3eb3 f13d 7444 9dbe 930a 983e 0ced bbbe

encoder.lstm_cells.0.conv_f.convs.<inj___-___inj>.lin_dst.weight f4 [8, 8]
0.48590776 0.3508754 -0.19892848 0.6047147 -0.3635783 -0.25917503 0.46640152 -0.13702485
-0.26924494 0.076678894 -0.10761744 0.36472222 0.5196871 0.25246105 0.15387674 0.13409552
0.038208585 0.09621036 0.01912806 0.43890366 0.32299575 -0.041363943 0.20990965 0.054272275
0.23879306 0.52451384 -0.41084585 0.10849578 -0.1471695 -0.578337 -0.61667776 -0.059815034
0.46054843 -0.38309425 0.204762 0.37430176 -0.46609434 0.28321066 0.09401126 -0.5373042
-0.032777 -0.58937484 0.53244007 0.26672962 0.25407723 0.45093268 0.48923984 0.5892448
0.27510768 -0.41668522 0.57694995 0.19160604 -0.26095718 -0.20753698 0.5515454 0.15663914
0.4226452 0.022358892 0.55754334 -0.4695896 0.16550827 0.12575874 0.014410942 0.5241529
00000000: e7c8 f83e f1a5 b33e e8b3 4bbe 95ce 1a3f
00000010: ef26 babe 97b2 84be 2ecc ee3e 3e50 0cbe
00000020: 79da 89be d309 9d3d 8866 dcbd dfbc ba3e
00000030: 370a 053f 9342 813e dd91 1d3e 5650 093e
00000040: 9b80 1c3d f009 c53d 73b2 9c3c fbb7 e03e
00000050: b35f a53e 3d6d 29bd 8ef2 563e 9b4c 5e3d
00000060: 2b86 743e 8a46 063f 635a d2be 0933 de3d
00000070: 9ab3 16be e50d 14bf 98de 1dbf 9c00 75bd
00000080: 01cd eb3e ee24 c4be 21ad 513e 7ba4 bf3e
00000090: eba3 eebe fd00 913e fa88 c03d c58c 09bf
000000a0: 2d41 06bd 45e1 16bf fe4d 083f c990 883e
000000b0: 6916 823e a6e0 e63e a57d fa3e bfd8 163f
000000c0: eada 8c3e c457 d5be feb2 133f 6034 443e
000000d0: 2e9c 85be 9384 54be 1432 0d3f 0366 203e
000000e0: f464 d83e ff29 b73c 29bb 0e3f 0c6e f0be
000000f0: 007b 293e e6c6 003e df1b 6c3c e22e 063f

encoder.lstm_cells.0.W_f.inj f4 [1, 8]
0.4226868 -0.33202618 -0.21430245 0.8117532 0.7527018 -0.63421977 0.7223176 0.14714774
00000000: 676a d83e 56ff a9be 1a72 5bbe 0fcf 4f3f
00000010: 11b1 403f 3a5c 22bf cee9 383f e6ad 163e

encoder.lstm_cells.0.W_f.prod f4 [1, 8]
0.4033886 0.7565725 -0.1419066 -0.46137315 0.65218437 0.026657568 -0.08946557 -0.5656631
00000000: f388 ce3e bcae 413f f74f 11be 1a39 ecbe
00000010: 8ef5 263f f960 da3c ba39 b7bd 4ccf 10bf

encoder.lstm_cells.0.b_f.inj f4 [1, 8]
-0.29579854 0.13897662 -0.5479813 0.1946231 0.77290857 0.17187358 0.25102672 -0.55780447
00000000: e872 97be e34f 0e3e 8148 0cbf 474b 473e
00000010: 56dd 453f a1ff 2f3e 9386 803e 46cc 0ebf

encoder.lstm_cells.0.b_f.prod f4 [1, 8]
-0.019936128 0.4454652 -0.547988 -0.38781452 0.71212924 0.4577556 0.49836603 -0.36728227
00000000: 1751 a3bc 0414 e43e f148 0cbf a08f c6be
00000010: 1a4e 363f f15e ea3e d529 ff3e 6c0c bcbe

encoder.lstm_cells.0.conv_c.convs.<inj___-___prod>.att_src f4 [1, 1, 8]
-0.6037142 0.34322876 0.71769947 0.02923248 0.4255262 0.732978 0.85851485 -0.07393105
00000000: 048d 1abf aebb af3e 27bb 373f f478 ef3c
00000010: 92de d93e 72a4 3b3f a1c7 5b3f 2a69 97bd

encoder.lstm_cells.0.conv_c.convs.<inj___-___prod>.att_dst f4 [1, 1, 8]
0.47951722 -0.44528788 -0.4152551 0.39663494 0.21806166 -0.09175044 -0.7097309 0.28252107
00000000: 4883 f53e c6fc e3be 519c d4be bc13 cb3e
00000010: 8e4b 5f3e a8e7 bbbd edb0 35bf 9aa6 903e

encoder.lstm_cells.0.conv_c.convs.<inj___-___prod>.bias f4 [8]
-0.08098391 0.092660554 -0.11399869 0.12448739 0.14179274 0.10521268 0.007767171 0.016704408
00000000: e4da a5bd d1c4 bd3d 2578 e9bd 3ff3 fe3d
00000010: 1e32 113e bf79 d73d c183 fe3b afd7 883c

encoder.lstm_cells.0.conv_c.convs.<inj___-___prod>.lin_src.weight f4 [8, 8]
0.18688451 0.011224476 0.2886282 0.020670699 -0.13042957 -0.41035998 -0.076858945 -0.16550326
0.47490245 0.59024304 -0.6579447 -0.22384454 0.4505823 -0.14717148 0.41407663 0.7568131
-0.13056509 -0.6296143 0.07061068 0.34518564 0.47484505 0.18226516 0.33529085 -0.41773182
0.20083663 0.16429584 0.2666755 -0.23282608 -0.14248303 -0.29953763 -0.47958803 0.34101477
0.10523764 0.2560694 0.11887173 -0.007188348 -0.022865549 0.3257818 -0.43433756 0.11441509
0.20219563 0.24872547 -0.124506116 0.37154576 -0.29530084 0.3290703 0.6269709 -0.08444199
0.25361872 -0.47164136 -0.3828794 -0.18103968 -0.6412493 -0.09639771 0.3527046 -0.0030438947
0.44310257 -0.6858879 0.41874152 0.37527174 0.72813696 -0.31083503 -0.40483305 -0.37561655
00000000: a75e 3f3e dde6 373c 13c7 933e 9955 a93c
00000010: 548f 05be b41a d2be 3968 9dbd b079 29be
00000020: 6a26 f33e 2b1a 173f 106f 28bf 8137 65be
00000030: b9b2 e63e 1fb4 16be da01 d43e 81be 413f
00000040: dbb2 05be 672e 21bf 559c 903d 2cbc b03e
00000050: e41e f33e b8a3 3a3e 3eab ab3e f2e0 d5be
00000060: 1ea8 4d3e 2b3d 283e b189 883e f669 6ebe
00000070: 12e7 11be ff5c 99be 908c f5be 7d99 ae3e
00000080: d586 d73d 871b 833e 0673 f33d 3c8c ebbb
00000090: 8850 bbbc dfcc a63e 7e61 debe 7552 ea3d
000000a0: 5f0c 4f3e e4b1 7e3e 10fd febd 3f3b be3e
000000b0: ac31 97be e77b a83e 2a81 203f ecef acbd
000000c0: 50da 813e fa7a f1be c508 c4be 7762 39be
000000d0: ea28 24bf 2a6c c5bd b395 b43e 147c 47bb
000000e0: 57de e23e 5996 2fbf 4a65 d63e 9e23 c03e
000000f0: 2f67 3a3f c525 9fbe 4746 cfbe d050 c0be

encoder.lstm_cells.0.conv_c.convs.<inj___-___prod>.lin_dst.weight f4 [8, 8]
0.4625905 0.055007733 0.51330054 -0.38679278 -0.31338933 0.37297797 0.20148547 -0.42838418
0.559634 -0.2403667 -0.4334539 0.10421621 -0.41690052 -0.35574287 -0.3366685 0.20299377
0.28022915 0.411088 -0.27404845 -0.20415938 0.5009991 -0.37623215 -0.21032949 -0.09053685
-0.5353104 -0.45111072 0.47215107 0.17551458 0.18605575 0.305419 0.3617827 0.38319758
0.45115197 0.24971008 0.38891867 0.46135086 -0.031463925 0.116451144 -0.32507446 -0.49845597
0.5772161 -0.46164176 -0.2959927 -0.673858 -0.55590814 0.061036646 0.30929747 -0.4832498
0.03937255 -0.45471913 0.18968774 0.30291978 -0.30702052 -0.331717 0.40722382 -0.36302453
-0.1182485 -0.5082887 0.35530332 0.2583147 -0.17124102 0.49872234 0.5697241 0.22089125
00000000: a9d8 ec3e ca4f 613d aa67 033f b409 c6be
00000010: 9174 a0be f8f6 be3e 3552 4e3e 2c55 dbbe
00000020: 2c44 0f3f b022 76be abed ddbe 4f6f d53d
00000030: fc73 d5be ee23 b6be d05f acbe 99dd 4f3e
00000040: 327a 8f3e 207a d23e 1450 8cbe 280f 51be
00000050: 7a41 003f 80a1 c0be 9d60 57be 626b b9bd
00000060: 1a0a 09bf fcf7 e6be c9bd f13e 18ba 333e
00000070: 6685 3e3e e15f 9c3e 953b b93e 7932 c43e
00000080: 64fd e63e 00b4 7f3e 5920 c73e 2e36 ec3e
00000090: 51e0 00bd f07d ee3d 2970 a6be 9f35 ffbe
000000a0: 6fc4 133f 4f5c ecbe 5b8c 97be f581 2cbf
000000b0: ff4f 0ebf 9001 7a3d 3d5c 9e3e 856c f7be
000000c0: 1c45 213d f2d0 e8be 813d 423e 4d18 9b3e
000000d0: cb31 9dbe d0d6 a9be a47f d03e 5ade b9be
000000e0: 452c f2bd 351f 02bf 51ea b53e d341 843e
000000f0: ce59 2fbe 8958 ff3e 70d9 113f 5131 623e

encoder.lstm_cells.0.conv_c.convs.<prod___-___prod>.att_src f4 [1, 1, 8]
0.7157619 0.044031736 0.3326775 0.19332197 -0.67616063 -0.23479827 -0.4508795 -0.25068223
00000000: 2c3c 373f 9f5a 343d b554 aa3e 32f6 453e
00000010: dd18 2dbf f56e 70be aed9 e6be 6c59 80be

encoder.lstm_cells.0.conv_c.convs.<prod___-___prod>.att_dst f4 [1, 1, 8]
0.5254456 0.9159613 0.12503372 0.54620904 -0.62744206 0.1287666 -0.044306066 -0.49857163
00000000: 9a83 063f 717c 6a3f d708 003e 5bd4 0b3f
00000010: 0ba0 20bf 64db 033e 477a 35bd c844 ffbe

encoder.lstm_cells.0.conv_c.convs.<prod___-___prod>.bias f4 [8]
-0.08098391 0.092660554 -0.11399869 0.12448739 0.14179274 0.10521268 0.007767171 0.016704408
00000000: e4da a5bd d1c4 bd3d 2578 e9bd 3ff3 fe3d
00000010: 1e32 113e bf79 d73d c183 fe3b afd7 883c

encoder.lstm_cells.0.conv_c.convs.<prod___-___prod>.lin_src.weight f4 [8, 8]
-0.50763214 -0.18070953 0.49355596 0.42688093 -0.16202478 0.4953047 -0.3023348 0.023518566
0.55635697 0.16209118 -0.4988455 0.17181697 0.46830127 0.40928003 -0.43037936 -0.03592081
0.15187065 -0.048225503 -0.019780679 -0.36839634 0.12627767 0.17550965 -0.0774376 0.35021242
-0.2732569 0.11120059 -0.024092956 0.0042429985 0.17286947 0.1150951 0.41303992 -0.50743777
-0.40019998 -0.49589413 -0.39844102 0.35990295 0.56516063 -0.4804996 -0.050359182 0.12548883
-0.5858635 0.31934676 0.072497636 -0.53430283 0.31835434 -0.28418905 -0.09807711 -0.37066054
0.36025336 -0.12803023 0.20890328 -0.20999342 -0.27190363 0.50471586 0.1354194 0.08749122
-0.22324055 -0.23878944 -0.47710502 0.21362548 -0.014461168 0.51998675 0.46976188 -0.15585162
00000000: 2ef4 01bf eb0b 39be 5eb3 fc3e 2390 da3e
00000010: d3e9 25be 9498 fd3e a0cb 9abe 02aa c03c
00000020: 696d 0e3f 3bfb 253e ad68 ffbe caf0 2f3e
00000030: 2fc5 ef3e 278d d13e af5a dcbe b321 13bd
00000040: fb83 1b3e 1b88 45bd 170b a2bc 729e bcbe
00000050: ef4e 013e cdb8 333e 9b97 9ebd 0b4f b33e
00000060: 54e8 8bbe 23bd e33d 975e c5bc da08 8b3b
00000070: b204 313e fbb6 eb3d f879 d33e 71e7 01bf
00000080: 03e7 ccbe d6e5 fdbe 7600 ccbe 3345 b83e
00000090: 5eae 103f 0b04 f6be 6e45 4ebd 2580 003e
000000a0: 26fb 15bf 6b81 a33e a479 943d 12c8 08bf
000000b0: 57ff a23e 3a81 91be a7dc c8bd 38c7 bdbe
000000c0: 2173 b83e 5b1a 03be beea 553e 8408 57be
000000d0: f436 8bbe 0f35 013f 62ab 0a3e 992e b33d
000000e0: 2c99 64be 3885 74be 1c47 f4be a3c0 5a3e
000000f0: 89ee 6cbc da1d 053f a184 f03e 9197 1fbe

encoder.lstm_cells.0.conv_c.convs.<prod___-___prod>.lin_dst.weight f4 [8, 8]
0.4725433 0.39767075 0.11875181 -0.64254737 -0.41108552 0.25334305 0.4712084 0.28688008
0.04450309 -0.40144163 -0.5133659 -0.39447683 0.0169432 0.063552365 0.4853542 -0.48225048
0.31470257 0.49227825 -0.5292252 -0.36597604 -0.15494616 0.101435326 0.5677672 0.08716987
0.39991328 0.46722722 0.50695795 -0.6017494 -0.38689408 -0.051357266 0.010136955 0.01188068
0.5307259 0.5844448 -0.20393883 -0.23956394 0.03870178 0.09254468 0.3634831 0.25823975
0.18105888 0.17448466 0.48715448 0.32131997 -0.043560296 -0.44517252 0.42103216 -0.07564177
-0.41824853 -0.07001693 0.4226144 -0.24602084 -0.06795707 0.22515155 0.43764713 -0.066006795
-0.42401487 -0.22626251 -0.22422688 0.109905384 -0.4278193 0.5538914 0.15001191 -0.40297434
00000000: 32f1 f13e 809b cb3e 2634 f33d fc7d 24bf
00000010: cd79 d2be 2eb6 813e 3a42 f13e f2e1 923e
00000020: df48 363d c289 cdbe f36b 03bf def8 c9be
00000030: 77cc 8a3c be27 823d 5880 f83e 89e9 f6be
00000040: b220 a13e e50b fc3e 4d7b 07bf 3661 bbbe
00000050: 35aa 1ebe 53bd cf3d 3159 113f 1e86 b23d
00000060: 6fc1 cc3e 6838 ef3e ffc7 013f 400c 1abf
00000070: fb16 c6be ff5b 52bd 7915 263c 2fa7 423c
00000080: a7dd 073f 2d9e 153f 57d5 50be 4050 75be
00000090: c285 1e3d 1188 bd3d 751a ba3e 0038 843e
000000a0: 8067 393e 1bac 323e 506c f93e 0d84 a43e
000000b0: 486c 32bd a7ed e3be 8791 d73e 13ea 9abd
000000c0: ac24 d6be 0965 8fbd ea60 d83e e3ec 7bbe
000000d0: 142d 8bbd 218e 663e 4913 e03e 922e 87bd
000000e0: 7a18 d9be 5cb1 67be bb9b 65be 1316 e13d
000000f0: 220b dbbe d4cb 0d3f b99c 193e a752 cebe

encoder.lstm_cells.0.conv_c.convs.<inj___-___inj>.att_src f4 [1, 1, 8]
0.2725168 0.3424815 -0.14633249 0.47330186 0.52001005 0.8522906 0.18115477 0.14077443
00000000: 5287 8b3e bc59 af3e 2fd8 15be 9f54 f23e
00000010: 611f 053f b72f 5a3f a380 393e 2c27 103e

encoder.lstm_cells.0.conv_c.convs.<inj___-___inj>.att_dst f4 [1, 1, 8]
-0.030496437 0.13196741 -0.5495261 -0.080837466 -0.68701696 -0.5533314 -0.67593616 0.62022746
00000000: aad3 f9bc 7722 073e bead 0cbf 1d8e a5bd
00000010: 58e0 2fbf 20a7 0dbf 270a 2dbf 3ac7 1e3f

encoder.lstm_cells.0.conv_c.convs.<inj___-___inj>.bias f4 [8]
0.18590802 0.097965404 -0.24514683 0.16563027 -0.1361864 0.054349024 -0.044649467 0.17667879
00000000: ac5e 3e3e 16a2 c83d c507 7bbe fb9a 293e
00000010: 7374 0bbe 159d 5e3d 5ce2 36bd 49eb 343e

encoder.lstm_cells.0.conv_c.convs.<inj___-___inj>.lin_src.weight f4 [8, 8]
0.46332112 -0.02293358 0.4319419 0.1564314 -0.16141827 -0.44557744 -0.6185666 0.16239302
0.53819007 -0.40368938 0.18615355 -0.4117475 -0.47435695 -0.21265104 -0.41941863 -0.5011876
-0.30897737 -0.052075375 0.48934993 0.10965226 0.16494885 -0.3147756 0.0022800495 -0.7012533
0.52530545 0.5187836 -0.72895116 -0.42832956 -0.6986472 0.0023130716 -0.08600078 -0.26810727
0.35186878 0.066771865 -0.27159923 -0.61909485 0.51133794 0.5742718 0.081475206 -0.3288378
0.4140766 0.3828886 -0.03338952 0.61283535 -0.48210722 -0.04167614 0.4909995 -0.3541683
-0.07684122 -0.170465 -0.46911478 0.64561826 0.3010242 -0.47047088 -0.4236528 0.113660425
-0.119827345 -0.29246575 -0.692993 0.5530423 0.24529992 0.2730197 -0.22191 -0.48550794
00000000: 6d38 ed3e 34df bbbc 7d27 dd3e 8e2f 203e
00000010: d54a 25be ba22 e4be 615a 1ebf 5b4a 263e
00000020: d3c6 093f 60b0 cebe 099f 3e3e 91d0 d2be
00000030: eade f2be 32c1 59be 0abe d6be d54d 00bf
00000040: 4832 9ebe fd4c 55bd 138c fa3e 5d91 e03d
00000050: 5ae8 283e 442a a1be e26c 153b 5685 33bf
00000060: 6b7a 063f 01cf 043f 8b9c 3abf 034e dbbe
00000070: 8bda 32bf e796 173b 2d21 b0bd 5b45 89be
00000080: 2528 b43e b0bf 883d 0e0f 8bbe 007d 1ebf
00000090: 0be7 023f 7a03 133f 79dc a63d 6e5d a8be
000000a0: d901 d43e f909 c43e 73c3 08bd c7e2 1c3f
000000b0: c2d6 f6be 9ab4 2abd 4964 fb3e 8c55 b5be
000000c0: ee5e 9dbd 618e 2ebe d02f f0be 3d47 253f
000000d0: d81f 9a3e 8fe1 f0be 05e9 d8be ccc6 e83d
000000e0: 0a68 f5bd 12be 95be fd67 31bf 2e94 0d3f
000000f0: e72f 7b3e 3dc9 8b3e 603c 63be 7f94 f8be

encoder.lstm_cells.0.conv_c.convs.<inj___-___inj>.lin_dst.weight f4 [8, 8]
-0.06222108 0.2094644 -0.15655325 0.4580809 0.16156472 -0.02643174 0.26610872 0.3389818
-0.4286545 0.20779933 -0.5793507 -0.10772194 -0.21685554 0.4660351 -0.61050636 0.20027329
-0.5780029 0.24438 0.17312652 -0.26107097 0.19873464 0.5889588 0.39297587 -0.54188585
-0.17759378 0.5355836 0.11549246 0.05649952 0.060597323 -0.21481733 -0.14111315 0.056404807
0.44116777 -0.19348684 -0.13719817 0.09667084 -0.20646013 0.5352473 0.4806251 0.042426117
-0.41568428 0.15061966 0.54216033 0.18195252 0.27426043 -0.32312533 -0.5834049 -0.2136813
-0.00013935604 0.5232789 0.15077795 -0.13207537 -0.13627084 -0.11605539 -0.3094157 -0.2397536
0.1337093 0.4357407 0.49701098 0.25587308 -0.44094616 0.5649261 0.5712052 -0.19881706
00000000: 88db 7ebd d67d 563e 7f4f 20be 9489 ea3e
00000010: 3971 253e 6087 d8bc 673f 883e 068f ad3e
00000020: 9a78 dbbe 59c9 543e 5450 14bf 529d dcbd
00000030: 610f 5ebe 279c ee3e 254a 1cbf 7114 4d3e
00000040: 00f8 13bf c03e 7a3e 1448 313e 18ab 85be
00000050: 1881 4b3e 01c6 163f 2234 c93e 08b9 0abf
00000060: 25db 35be 021c 093f 5087 ec3d 0a6c 673d
00000070: e634 783d 13f9 5bbe f77f 10be ba08 673d
00000080: bee0 e13e 6a21 46be ad7d 0cbe 5dfb c53d
00000090: 496a 53be f805 093f 7e14 f63e 02c7 2d3d
000000a0: 92d4 d4be 0a3c 1a3e 05cb 0a3f c351 3a3e
000000b0: dd6b 8c3e af70 a5be 065a 15bf 45cf 5abe
000000c0: 1a20 12b9 9bf5 053f 8965 1a3e c43e 07be
000000d0: 958a 0bbe 73ae edbd bc6b 9ebe f881 75be
000000e0: 17eb 083e 6819 df3e 3978 fe3e cc01 833e
000000f0: b2c3 e1be ff9e 103f 813a 123f b396 4bbe

encoder.lstm_cells.0.W_c.inj f4 [1, 8]
0.5883828 0.43857294 -0.29379398 0.010495868 0.054774035 -0.44189832 0.18672909 -0.43383572
00000000: 41a0 163f a28c e03e 2a6c 96be dcf6 2b3c
00000010: bd5a 603d 7f40 e2be e935 3f3e b71f debe

encoder.lstm_cells.0.W_c.prod f4 [1, 8]
-0.21846518 -0.014634235 -0.36831692 0.5659979 0.31400204 0.5720171 -0.6598208 0.4594232
00000000: 56b5 5fbe 6ec4 6fbc 0994 bcbe 3de5 103f
00000010: e0c4 a03e b66f 123f 04ea 28bf 8539 eb3e

encoder.lstm_cells.0.b_c.inj f4 [1, 8]
0.70556396 -0.080122784 -0.07354744 0.8256055 -0.8886363 0.28795812 -0.7827807 0.781163
00000000: d79f 343f 6a17 a4bd 0aa0 96bd e25a 533f
00000010: ab7d 63bf 3f6f 933e 5164 48bf 4cfa 473f

encoder.lstm_cells.0.b_c.prod f4 [1, 8]
0.15876585 0.18351156 -0.44109675 0.4323354 -0.28201365 0.261292 0.6934464 -0.5961606
00000000: 8493 223e 74ea 3b3e 6fd7 e1be 115b dd3e
00000010: 1864 90be 11c8 853e b485 313f fb9d 18bf

encoder.lstm_cells.0.conv_o.convs.<inj___-___prod>.att_src f4 [1, 1, 8]
-0.5537986 0.06854169 -0.088862054 0.6859367 0.5539509 -0.38181207 0.88492614 -0.98219764
00000000: bfc5 0dbf 965f 8c3d 4ffd b5bd 8c99 2f3f
00000010: bacf 0d3f df7c c3be 858a 623f 4e71 7bbf

encoder.lstm_cells.0.conv_o.convs.<inj___-___prod>.att_dst f4 [1, 1, 8]
0.03166042 0.78851825 0.6642902 -0.22520426 -0.56884575 0.2816007 0.71434426 -0.39074007
00000000: 5bae 013d 55dc 493f ec0e 2a3f f29b 66be
00000010: e09f 11bf f82d 903e 44df 363f 150f c8be

encoder.lstm_cells.0.conv_o.convs.<inj___-___prod>.bias f4 [8]
0.11527808 0.030090556 0.04567379 0.12577471 0.1696414 0.05446908 0.14448161 0.2952159
00000000: ea16 ec3d 7880 f63c 7114 3b3d 16cb 003e
00000010: 7ab6 2d3e f81a 5f3d fdf2 133e 8a26 973e

encoder.lstm_cells.0.conv_o.convs.<inj___-___prod>.lin_src.weight f4 [8, 8]
0.2275296 0.7199621 -0.33648252 0.49260163 -0.12346318 0.43673518 -0.020209527 0.8193827
0.48378932 -0.39596048 0.44832686 -0.17023127 -0.25381383 -0.030033937 -0.056903027 -0.4981115
-0.6655309 -0.45524755 0.31261635 0.2536476 0.4840919 0.10582094 0.69448364 -0.65083843
-0.33400357 0.41641465 -0.6238567 0.59514445 0.106860854 -0.32890785 0.529588 0.21287854
0.68452734 0.6487441 -0.26127797 0.7023178 -0.06711914 0.13734056 0.055724483 -0.33015355
-0.28801635 0.7060782 -0.5204859 0.42765105 0.2630713 -0.39971468 -0.17664623 0.087276116
0.48946905 -0.04529055 0.6868533 -0.54105705 0.27135512 0.17345697 -0.2927071 -0.32327825
-0.5384283 -0.0023675018 0.46377966 -0.30704597 0.47780836 0.030309098 0.010410319 0.5798628
00000000: 85fd 683e 704f 383f 7047 acbe 4836 fc3e
00000010: 44da fcbd c19b df3e 738e a5bc 11c3 513f
00000020: 3cb3 f73e 55bb cabe 198b e53e 1b51 2ebe
00000030: e3f3 81be bb09 f6bc 2613 69bd 7808 ffbe
00000040: 3c60 2abf 3516 e9be 400f a03e 19de 813e
00000050: e5da f73e a6b8 d83d aec9 313f 599d 26bf
00000060: 8402 abbe 4d34 d53e 13b5 1fbf 635b 183f
00000070: ddd9 da3d 9c66 a8be 1493 073f d5fc 593e
00000080: 2f3d 2f3f 1814 263f 3ac6 85be 19cb 333f
00000090: c275 89bd 01a3 0c3e 5b3f 643d e309 a9be
000000a0: e176 93be 8ac1 343f 903e 05bf 14f5 da3e
000000b0: 48b1 863e 67a7 ccbe c0e2 34be d2bd b23d
000000c0: b09b fa3e 9582 39bd 9ed5 2f3f b782 0abf
000000d0: 0fef 8a3e b49e 313e b4dd 95be ba84 a5be
000000e0: 70d6 09bf 1728 1bbb 8774 ed3e 2135 9dbe
000000f0: 4ca3 f43e c94a f83c 0b90 2a3c e371 143f

encoder.lstm_cells.0.conv_o.convs.<inj___-___prod>.lin_dst.weight f4 [8, 8]
0.05779452 0.31009305 0.3026331 -0.36683586 0.036237247 0.56768143 -0.31696764 0.036775295
0.38748887 0.043919805 -0.21159822 0.2723762 -0.4537888 0.53892094 0.56444657 -0.23808645
-0.2867433 -0.14283958 0.53687394 -0.1862727 0.23533805 -0.5465644 0.26588455 0.30762956
0.26722568 -0.0056433976 0.11952195 0.47852847 0.21364303 -0.17708194 -0.57700795 0.5155444
-0.16079178 0.40608627 -0.04804932 -0.041444965 -0.53648186 -0.26989728 -0.033014663 -0.52647424
-0.18817829 0.33420786 0.3613946 0.49624264 -0.13678648 0.08088062 -0.41461727 0.2572859
0.040069032 0.4880353 -0.17115103 0.6383512 0.357283 0.5595356 0.045020055 -0.54753405
-0.41600218 -0.5541871 0.17402872 -0.5219961 -0.2521761 0.2761755 0.47679338 -0.092057034
00000000: f2b9 6c3d 84c4 9e3e baf2 9a3e e9d1 bbbe
00000010: 826d 143d 9253 113f 9549 a2be b1a1 163d
00000020: f164 c63e 41e5 333d 34ad 58be e574 8b3e
00000030: 0157 e8be b9f6 093f 927f 103f efcc 73be
00000040: 05d0 92be 8a44 12be 9270 093f 45be 3ebe
00000050: 75fc 703e a5eb 0bbf 0522 883e 9f81 9d3e
00000060: ced1 883e 40ec b8bb edc7 f43d af01 f53e
00000070: 3dc5 5a3e f854 35be cbb6 13bf b8fa 033f
00000080: 9aa6 24be 8aea cf3e 5dcf 44bd 32c2 29bd
00000090: e056 09bf fa2f 8abe 623a 07bd 04c7 06bf
000000a0: cfb1 40be 4b1d ab3e b708 b93e 8413 fe3e
000000b0: c111 0cbe bda4 a53d b748 d4be faba 833e
000000c0: 6d1f 243d c3df f93e 3742 2fbe fc6a 233f
000000d0: cced b63e ba3d 0f3f f366 383d 312b 0cbf
000000e0: 3dfe d4be 35df 0dbf 9634 323e 89a1 05bf
000000f0: 3a1d 81be e066 8d3e 431e f43e 6688 bcbd

encoder.lstm_cells.0.conv_o.convs.<prod___-___prod>.att_src f4 [1, 1, 8]
-0.21281232 -0.6115849 0.4489685 0.20449974 0.49176502 -0.26103237 -0.66243255 -0.37777355
00000000: 79eb 59be d490 1cbf 33df e53e 6168 513e
00000010: a0c8 fb3e 09a6 85be 2e95 29bf 896b c1be

encoder.lstm_cells.0.conv_o.convs.<prod___-___prod>.att_dst f4 [1, 1, 8]
-0.7325495 -0.2359332 0.39086744 -0.6227552 -0.18810591 -0.72672564 -0.5723974 -0.5696201
00000000: 5d88 3bbf 7998 71be c71f c83e e36c 1fbf
00000010: d69e 40be b10a 3abf a388 12bf 9fd2 11bf

encoder.lstm_cells.0.conv_o.convs.<prod___-___prod>.bias f4 [8]
0.11527808 0.030090556 0.04567379 0.12577471 0.1696414 0.05446908 0.14448161 0.2952159
00000000: ea16 ec3d 7880 f63c 7114 3b3d 16cb 003e
00000010: 7ab6 2d3e f81a 5f3d fdf2 133e 8a26 973e

encoder.lstm_cells.0.conv_o.convs.<prod___-___prod>.lin_src.weight f4 [8, 8]
0.28414232 -0.22323924 -0.21169995 -0.033605073 -0.16780593 0.08863514 0.28768507 -0.41811746
0.11549324 -0.25597465 -0.42775428 0.25749835 0.14042413 -0.24011132 -0.65103287 0.095908485
-0.4311857 0.22127207 -0.118449815 0.41952637 0.23035555 0.07054666 -0.069830485 -0.21548328
-0.028658962 -0.48602408 -0.39434612 0.6265619 -0.16149446 0.59642255 0.45614943 -0.37617794
-0.6342834 0.62015605 -0.11288375 0.7446946 -0.38537696 0.29075575 -0.58957356 0.103637956
-0.85868466 -0.39082128 -0.038153432 0.6409401 0.3005629 0.11431365 0.28120893 0.47151884
-0.13921988 0.16918944 0.33423647 0.6251388 0.25575873 0.38108045 0.029698612 -0.23371473
-0.41273007 -0.13796085 0.34379026 -0.3276953 0.29503798 -0.5990574 0.28915182 -0.43298095
00000000: 1a7b 913e d498 64be dfc7 58be 79a5 09bd
00000010: 51d5 2bbe 5786 b53d 754b 933e 7e13 d6be
00000020: b887 ec3d 1c0f 83be 9c02 dbbe d3d6 833e
00000030: 58cb 0f3e bedf 75be 17aa 26bf ab6b c43d
00000040: 5fc4 dcbe 2595 623e d195 f2bd 29cc d63e
00000050: 53e2 6b3e c47a 903d 4903 8fbd a6a7 5cbe
00000060: 33c6 eabc 26d8 f8be bce7 c9be 5c66 203f
00000070: ce5e 25be 26af 183f 6b8c e93e 659a c0be
00000080: 6660 22bf 8cc2 1e3f 982f e7bd 4ea4 3e3f
00000090: 2150 c5be f0dd 943e 4bee 16bf 2340 d43d
000000a0: c2d2 5bbf ba19 c8be c646 1cbd a714 243f
000000b0: 61e3 993e 461d ea3d 9efa 8f3e eb6a f13e
000000c0: a88f 0ebe ff3f 2d3e 0b21 ab3e 1909 203f
000000d0: cff2 823e fa1c c33e 814a f33c ea52 6fbe
000000e0: 5b51 d3be 9c45 0dbe 4705 b03e aec7 a7be
000000f0: 380f 973e d35b 19bf b50b 943e aeaf ddbe

encoder.lstm_cells.0.conv_o.convs.<prod___-___prod>.lin_dst.weight f4 [8, 8]
-0.4419518 0.077731274 -0.39711854 0.61652094 -0.19460775 0.46418515 -0.1857033 -0.43991554
0.3074354 -0.14204971 -0.3424874 0.11014861 0.022159327 0.25183117 -0.19097307 -0.13434444
0.50325596 0.25554678 0.6307562 0.0025350875 -0.18751872 -0.21007484 -0.08417366 -0.23668645
-0.37108758 -0.14973041 0.10072984 0.30046096 0.49188063 -0.5231374 0.43774477 -0.082779996
-0.78505784 0.42541444 -0.44741204 -0.19814527 0.23590644 0.19218484 0.37778103 -0.38234407
0.17064512 0.3427906 0.29574564 -0.14641547 0.12912525 0.25241965 0.54005176 -0.3320142
-0.7256838 -0.5304326 -0.0035230708 -0.40638506 -0.08745375 -0.2125823 0.07352374 -0.39277735
0.21394977 -0.57811093 -0.42110652 0.18655775 -0.5757477 0.22571097 -0.26744476 -0.2674564
00000000: 8247 e2be 9331 9f3d 1f53 cbbe 51d4 1d3f
00000010: 4147 47be ada9 ed3e 0229 3ebe 9c3c e1be
00000020: 2c68 9d3e 7b75 11be 825a afbe 9895 e13d
00000030: 7a87 b53c 04f0 803e 728e 43be 9791 09be
00000040: 62d5 003f 07d7 823e 3d79 213f b623 263b
00000050: e804 40be dc1d 57be 3d63 acbd ef5d 72be
00000060: 31ff bdbe ee52 19be 724b ce3d 05d6 993e
00000070: c7d7 fb3e 55ec 05bf 1520 e03e 8f88 a9bd
00000080: 8df9 48bf eccf d93e 3113 e5be 98e6 4abe
00000090: 7591 713e 1acc 443e 846c c13e 9ac2 c3be
000000a0: 98bd 2e3e 4082 af3e f96b 973e f0ed 15be
000000b0: 6939 043e 263d 813e d540 0a3f c4fd a9be
000000c0: 6ac6 39bf 6eca 07bf 52e3 66bb b411 d0be
000000d0: f41a b3bd 2daf 59be 9d93 963d 1d1a c9be
000000e0: a615 5b3e 14ff 13bf 469b d7be ff08 3f3e
000000f0: 3464 13bf c720 673e 85ee 88be 0cf0 88be

encoder.lstm_cells.0.conv_o.convs.<inj___-___inj>.att_src f4 [1, 1, 8]
-0.07214049 -0.6474022 -0.08306871 0.75187826 0.55217284 0.009283314 -0.22641358 0.073391214
00000000: 65be 93bd 27bc 25bf ee1f aabd 187b 403f
00000010: 335b 0d3f 0b19 183c f6d8 67be 224e 963d

encoder.lstm_cells.0.conv_o.convs.<inj___-___inj>.att_dst f4 [1, 1, 8]
0.58433527 -0.5175491 0.5364199 -0.7380914 -0.6487797 0.23269378 -0.40118253 0.09087302
00000000: ff96 153f 197e 04bf d152 093f 8ff3 3cbf
00000010: 6d16 26bf 4747 6e3e cc67 cdbe a21b ba3d

encoder.lstm_cells.0.conv_o.convs.<inj___-___inj>.bias f4 [8]
0.13304622 0.03947824 0.25464067 0.19860484 0.16239318 0.045368508 0.04994202 0.17959224
00000000: 453d 083e efb3 213d 4360 823e 115f 4b3e
00000010: 664a 263e 54d4 393d 0190 4c3d 07e7 373e

encoder.lstm_cells.0.conv_o.convs.<inj___-___inj>.lin_src.weight f4 [8, 8]
0.48234728 -0.0727691 0.14000148 -0.19184025 0.22994603 0.5994932 0.51939243 -0.30918384
-0.6709255 -0.47158828 0.17939547 0.26794824 0.27835122 0.2918192 0.5671563 -0.4576041
-0.33535326 -0.04010408 0.2859492 -0.32130316 0.31771183 0.23602629 0.24959056 0.76411605
0.7551977 0.55369234 -0.36905545 -0.039903853 0.051901393 0.70355916 -0.10824494 0.06630503
-0.0021059602 -0.1143352 0.18482544 -0.534214 0.45516083 0.0455201 -0.45167795 -0.15201673
-0.32136625 -0.4932884 0.0830415 -0.09253536 -0.30289593 -0.077627756 -0.11518563 0.29549497
-0.54943883 -0.003051449 0.16114534 -0.5687026 0.6303711 -0.35544378 0.5245655 0.38357615
0.07177992 0.43159777 -0.51065737 0.013964711 -0.6010382 -0.28222135 0.09602166 0.5383971
00000000: 39f6 f63e f707 95bd 8c5c 0f3e c571 44be
00000010: f976 6b3e 6378 193f e7f6 043f 584d 9ebe
00000020: c6c1 2bbf 0574 f1be 72b3 373e 8330 893e
00000030: 0d84 8e3e 5469 953e 2831 113f 164b eabe
00000040: 6cb3 abbe 2d44 24bd ef67 923e d981 a4be
00000050: 20ab a23e e0b0 713e ab94 7f3e 1c9d 433f
00000060: a354 413f c8be 0d3f d6f4 bcbe 3972 23bd
00000070: 8e96 543d 741c 343f 86af ddbd eeca 873d
00000080: 2604 0abb 9328 eabd e142 3d3e 40c2 08bf
00000090: d70a e93e 4973 3a3d 5542 e7be 46aa 1bbe
000000a0: 1e8a a4be 4c90 fcbe a911 aa3d 2e83 bdbd
000000b0: 2d15 9bbe 4dfb 9ebd 72e6 ebbd 1e4b 973e
000000c0: 06a8 0cbf d2fa 47bb 4903 253e 7e96 11bf
000000d0: 0060 213f bafc b5be ed49 063f 1864 c43e
000000e0: 5a01 933d 62fa dc3e 71ba 02bf 3ecc 643c
000000f0: a4dd 19bf 517f 90be 01a7 c43d 64d4 093f

encoder.lstm_cells.0.conv_o.convs.<inj___-___inj>.lin_dst.weight f4 [8, 8]
-0.31737235 -0.2079143 -0.40916997 0.0048091765 -0.57391673 -0.46475396 -0.1848933 0.58619857
0.05892865 -0.2949759 0.4745231 0.39371577 0.48391294 -0.013856796 -0.014256443 0.4007726
0.37456834 0.503815 0.3760556 -0.1168345 0.45467827 0.13856122 0.5588337 0.6063079
0.46795782 0.3679421 0.547159 -0.3451698 -0.17401539 -0.161638 -0.26233044 0.45290843
0.0108332 -0.19521704 -0.20823161 -0.6033297 0.10916307 0.5189268 0.4545676 0.48858327
0.46491623 0.29772335 -0.07763617 -0.39561558 0.38591507 -0.41216817 -0.4200668 0.24213357
0.28952986 -0.35866806 0.45132768 -0.63150376 0.2115785 0.25036436 0.16606483 -0.34187233
-0.37084338 0.5269922 0.08229638 -0.21044783 0.53084224 -0.112030186 -0.16094057 0.15463343
00000000: a17e a2be 7ce7 54be ba7e d1be 4c96 9d3b
00000010: 35ec 12bf 3bf4 edbe ab54 3dbe 1c11 163f
00000020: 2b5f 713d 1507 97be b1f4 f23e 1d95 c93e
00000030: 70c3 f73e 9d07 63bc db93 69bc 1132 cd3e
00000040: 6cc7 bf3e 05fa 003f 5c8a c03e ed46 efbd
00000050: 97cb e83e fee2 0d3e ba0f 0f3f ff36 1b3f
00000060: 2b98 ef3e e862 bc3e 9d12 0c3f 19ba b0be
00000070: 1731 32be 6f84 25be 2d50 86be 9de3 e73e
00000080: bc7d 313c fae6 47be ab3a 55be d173 1abf
00000090: e390 df3d 63d8 043f 16bd e83e 9627 fa3e
000000a0: 8009 ee3e 326f 983e b6ff 9ebd 208e cabe
000000b0: a996 c53e b507 d3be ff12 d7be ddf1 773e
000000c0: 423d 943e 57a3 b7be 6c14 e73e 3baa 21bf
000000d0: 09a8 583e c22f 803e e60c 2a3e e409 afbe
000000e0: 2fdf bdbe f6e8 063f 018b a83d a37f 57be
000000f0: 47e5 073f 1570 e5bd 9bcd 24be 3a58 1e3e

encoder.lstm_cells.0.W_o.inj f4 [1, 8]
0.32104895 0.45609733 0.052869856 -0.063450366 -0.47141546 0.46696082 0.656525 0.3164343
00000000: 8760 a43e 9785 e93e 108e 583d 44f2 81bd
00000010: 5e5d f1be 7d15 ef3e 0612 283f ad03 a23e

encoder.lstm_cells.0.W_o.prod f4 [1, 8]
0.39744645 0.44586316 0.7934907 0.295802 0.5054248 0.24929976 -0.42601854 0.018074708
00000000: 1a7e cb3e 2d48 e43e 3522 4b3f 5c73 973e
00000010: 8563 013f 7048 7f3e 1a1f dabe 6911 943c

encoder.lstm_cells.0.b_o.inj f4 [1, 8]
-0.09992015 0.23018567 0.3963664 0.20983319 0.8648408 -0.16680956 0.26055846 0.61230606
00000000: f0a2 ccbd cbb5 6b3e 89f0 ca3e 83de 563e
00000010: 3566 5d3f 20d0 2abe eb67 853e 17c0 1c3f

encoder.lstm_cells.0.b_o.prod f4 [1, 8]
-0.04303376 0.5636141 0.5789278 0.48935956 -0.029557485 0.76368564 -0.32730788 0.54756683
00000000: 2b44 30bd 0349 103f 9d34 143f 568d fa3e
00000010: 8a22 f2bc e780 433f e694 a7be 572d 0c3f

decoder.lstm_cells.0.conv_i.convs.<inj___-___prod>.att_src f4 [1, 1, 8]
0.18254296 0.57283485 -0.84517944 0.30777082 -0.5109086 0.6068255 0.11937486 -0.82046366
00000000: 8bec 3a3e 4ea5 123f ae5d 58bf 2394 9d3e
00000010: e8ca 02bf ea58 1b3f ce7a f43d e809 52bf

decoder.lstm_cells.0.conv_i.convs.<inj___-___prod>.att_dst f4 [1, 1, 8]
-0.051116284 0.22840391 0.34782195 0.7263865 0.36668405 0.15571445 0.43554837 -0.7726058
00000000: 4f5f 51bd b7e2 693e b815 b23e 77f4 393f
00000010: 03be bb3e 9c73 1f3e 3200 df3e 7ec9 45bf

decoder.lstm_cells.0.conv_i.convs.<inj___-___prod>.bias f4 [8]
0.02615552 0.16610669 -0.0061011272 0.07345355 0.009907184 0.06069404 0.13884665 0.1745986
00000000: 1a44 d63c df17 2a3e f7eb c7bb d16e 963d
00000010: be51 223c 509a 783d d12d 0e3e fac9 323e

decoder.lstm_cells.0.conv_i.convs.<inj___-___prod>.lin_src.weight f4 [8, 8]
0.50946385 -0.24009457 0.15049121 -0.275703 -0.26367906 -0.09077894 -0.0042269016 0.29096073
-0.26090783 0.48818552 0.25794628 0.13639063 -0.28364015 0.3234334 -0.77130634 0.69911253
-0.051123925 0.06339785 -2.0472595e-05 0.3211602 -0.34797335 -0.4010479 -0.62510186 -0.40337396
0.123708256 -0.23826285 -0.4375985 -0.08045823 0.10461388 0.595143 0.29039216 -0.1351909
-0.42813936 0.21200083 -0.26885995 0.47944933 -0.586358 0.6183864 -0.4356324 -0.43268326
-0.0160023 -0.1884645 -0.54449266 0.38737422 0.42711002 0.31800735 0.02569418 -0.032196708
-0.24717213 0.62350845 -0.24363981 -0.4221011 0.33916947 0.01727146 0.22702804 -0.073072106
0.8680674 -0.07302759 -0.11688603 0.88659525 -0.41114196 0.6895509 -0.36031756 -0.16153869
00000000: 396c 023f 5adb 75be 5e1a 1a3e f228 8dbe
00000010: f100 87be 4fea b9bd d281 8abb cef8 943e
00000020: b695 85be 74f3 f93e 8911 843e fca9 0b3e
00000030: 4839 91be 1099 a53e 5574 45bf 0af9 323f
00000040: 5267 51bd bbd6 813d 90bc abb7 1c6f a43e
00000050: 9029 b2be 2656 cdbe ad06 20bf 0887 cebe
00000060: c15a fd3d 2dfb 73be e90c e0be 49c7 a4bd
00000070: cd3f d63d 4b5b 183f 48ae 943e 7c6f 0abe
00000080: 1535 dbbe bf16 593e 03a8 89be 627a f53e
00000090: 8f1b 16bf 924e 1e3f 360b dfbe a988 ddbe
000000a0: 4117 83bc d6fc 40be df63 0bbf ea55 c63e
000000b0: 2aae da3e dcd1 a23e 9a7c d23c b2e0 03bd
000000c0: b11a 7dbe 409e 1f3f b77c 79be a31d d8be
000000d0: 9fa7 ad3e e07c 8d3c 0a7a 683e d4a6 95bd
000000e0: aa39 5e3f 7d8f 95bd f161 efbd e8f7 623f
000000f0: 3381 d2be 6886 303f 8b7b b8be 666a 25be
