fitted_models/model_seq2seq_GAT_RN_no_water.pth (torch, 77858 bytes, 155 tensors)

encoder.lstm_cells.0.conv_i.convs.<inj___-___prod>.att_src f4 [1, 1, 8]
000000 c7 6b f5 3e 3a a3 0c 3f fe 35 9e bd c7 46 2a 3f
       0.4793379 0.54936564 -0.07725142 0.6651425
000010 3b 28 7e bd 2d 9e a2 3e 5a 0b 0d bf 68 ff 28 3f
       -0.062050086 0.31761304 -0.55095446 0.6601472

encoder.lstm_cells.0.conv_i.convs.<inj___-___prod>.att_dst f4 [1, 1, 8]
000000 c9 36 25 3f 1b 1b 2f bf 78 1f 1c 3f 64 fb c0 3d
       0.6453672 -0.68400735 0.6098552 0.09422949
000010 56 b1 24 3f f3 68 45 3e 40 02 c3 3e 95 a9 4a be
       0.64333093 0.19278316 0.38087654 -0.19791253

encoder.lstm_cells.0.conv_i.convs.<inj___-___prod>.bias f4 [8]
000000 85 c2 6d 3e d1 71 8a be ad 9b 84 3e ca 13 7c 3e
       0.23218735 -0.2703996 0.2590002 0.24616924
000010 01 6f 2a 3e d5 05 d4 3e d1 c9 00 be b3 c7 b6 bb
       0.16643907 0.414107 -0.12576987 -0.005578005

encoder.lstm_cells.0.conv_i.convs.<inj___-___prod>.lin_src.weight f4 [8, 8]
000000 8d 28 83 3e f0 7a dd 3d 7a 18 02 bf e3 13 92 be
       0.25616875 0.10814464 -0.508186 -0.28530797
000010 ee 19 5a 3d 90 ba ee 3e 27 9c 56 3e ad cc ae be
       0.053247385 0.4662671 0.20958005 -0.3414053
000020 45 e4 e1 3d 54 85 1e 3e 74 12 e5 be 1f d9 72 be
       0.11029867 0.15480548 -0.4474064 -0.23715638
000030 70 cc 41 3e 95 c0 24 3f a7 3e c7 3e a1 d2 2c bf
       0.18925643 0.64356357 0.38914987 -0.67508894
000040 d2 fa 02 3f 41 dd fa be 91 9a 18 3f 24 2e 4d bf
       0.5116397 -0.48996928 0.5961085 -0.8014853
000050 6f 64 03 bf d5 bc e6 be 18 20 83 be ef dc b8 3e
       -0.51325125 -0.45065942 -0.25610423 0.3610606
000060 01 2f ef 3e 74 a7 82 3e 2c 18 02 3f 79 ae 46 3e
       0.4671555 0.25518382 0.50818133 0.19402494
000070 52 16 b2 3e 0c 38 85 3e 4d e4 0d 3f 79 67 b6 be
       0.34782654 0.26019323 0.55426484 -0.35625818
000080 a6 59 6a 3f b1 56 6c 3d 7a 5b b9 be 9b e6 25 bf
       0.9154304 0.057699863 -0.36202604 -0.64805
000090 ae b6 5a bf fc 59 be 3e ed 6b ed be f6 ea 60 3e
       -0.85435 0.37178028 -0.46371403 0.2196463
0000a0 a3 68 0e 3f ad cb 5a bf d3 60 5d 3e 57 0e bb be
       0.5562841 -0.85467035 0.21618967 -0.36534378
0000b0 3f 49 91 bc 4c b6 00 3e da 28 41 bf ef 98 39 3f
       -0.017735122 0.1256954 -0.7545296 0.72498983
0000c0 f0 34 1e 3e 25 06 f5 3e 94 ac 66 bf 47 6c e9 3d
       0.15449882 0.4785625 -0.90107083 0.113976054
0000d0 49 5e 0d 3e 04 be 0c bc db 55 34 3f 60 48 20 be
       0.13805498 -0.008590225 0.70443505 -0.15652609
0000e0 7f eb 5a 3e 62 14 59 bd ad 5b 71 3e 77 c7 e0 3e
       0.21378897 -0.052997954 0.23570128 0.4390218
0000f0 80 91 aa be 4d bf 20 bf 32 9f e4 be ca 5a 01 3f
       -0.33314133 -0.627919 -0.44652706 0.5052916

encoder.lstm_cells.0.conv_i.convs.<inj___-___prod>.lin_dst.weight f4 [8, 8]
000000 33 78 1c bf 4b f1 19 bf bc bc 8a 3e 06 63 75 3e
       -0.6112091 -0.6013381 0.27097118 0.23963556
000010 c7 75 c6 3e 10 df c4 be 0f 93 e0 be 43 89 a0 3e
       0.38761732 -0.38451433 -0.43862197 0.31354722
000020 7e 90 11 3f 0f 39 e1 3e fd 00 31 3e 4b cf 97 3e
       0.568611 0.43988845 0.17285533 0.2965034
000030 8e 49 34 3f 67 8b f5 be 2d 8f 92 be fb 19 da 3e
       0.70424736 -0.47957918 -0.2862486 0.42597947
000040 98 db e7 be e2 a9 cf be 41 2c c0 3e 5b ab d3 3d
       -0.45284724 -0.40559298 0.37533763 0.10335418
000050 b1 04 a7 3d 3c 2e 3a be 9a 43 6e 3a 48 8f 0f 3f
       0.08155192 -0.181817 0.0009089053 0.56078005
000060 15 b1 cd be f6 28 60 bd 46 95 69 3e f1 f2 01 bf
       -0.40174165 -0.054726563 0.2281085 -0.50761324
000070 58 d2 ff 3e f3 49 75 be 61 06 09 be 89 45 35 be
       0.49965167 -0.2395399 -0.1338134 -0.17702307
000080 88 19 de be 9d 3f 2c bf f4 29 8a 3e 3f 91 8e 3d
       -0.43378854 -0.67284566 0.26985133 0.06961297
000090 cd fe 31 bf 43 67 9f be 22 10 1d 3f 75 8e 72 3e
       -0.6952942 -0.3113347 0.6135274 0.23687156
0000a0 a1 d7 54 3e 60 95 e5 be 1c ee b4 be b9 9e 43 be
       0.20785381 -0.44840527 -0.35337913 -0.19103517
0000b0 02 35 76 be 23 e6 a6 be b0 8b 6d 3d 1b a0 84 3d
       -0.24043658 -0.32597455 0.057994545 0.0647585
0000c0 96 11 e5 bd 2f 47 81 3c 92 84 a1 be f8 b2 8b 3d
       -0.11184995 0.015781013 -0.31546456 0.06821245
0000d0 2e 36 e7 3d 1c 00 79 be e8 46 19 bf 2c 9b a4 3e
       0.11289631 -0.24316448 -0.5987382 0.32149637
0000e0 7a f7 3e 3e 8f 88 68 be 9f 7e 2d 3f 23 0f 35 be
       0.18649092 -0.22708343 0.67771333 -0.17681555
0000f0 61 1e 0b 3f 38 ab 5b 3e 0f 76 05 bf 6c c8 c8 3e
       0.5434323 0.21452034 -0.5213327 0.3921541

encoder.lstm_cells.0.conv_i.convs.<prod___-___prod>.att_src f4 [1, 1, 8]
000000 63 92 be 3e fa bd 67 3e 16 82 62 be a5 dc 00 3e
       0.3722106 0.22631064 -0.22119936 0.12584169
000010 89 de 01 bf 49 28 20 be 66 72 73 be 47 d8 1d 3f
       -0.50730187 -0.15640368 -0.23774108 0.6165814

encoder.lstm_cells.0.conv_i.convs.<prod___-___prod>.att_dst f4 [1, 1, 8]
000000 e8 c1 25 bf e6 d5 fa be 60 19 91 be f4 93 2a bf
       -0.64749 -0.48991317 -0.28339672 -0.6663201
000010 3a db 98 3e 58 19 26 bf fa 10 19 3f bc f2 31 bf
       0.29854757 -0.6488242 0.5979153 -0.6951101

encoder.lstm_cells.0.conv_i.convs.<prod___-___prod>.bias f4 [8]
000000 85 c2 6d 3e d1 71 8a be ad 9b 84 3e ca 13 7c 3e
       0.23218735 -0.2703996 0.2590002 0.24616924
000010 01 6f 2a 3e d5 05 d4 3e d1 c9 00 be b3 c7 b6 bb
       0.16643907 0.414107 -0.12576987 -0.005578005

encoder.lstm_cells.0.conv_i.convs.<prod___-___prod>.lin_src.weight f4 [8, 8]
000000 5e 84 53 bf 9e 5f 1e be 1b 64 01 3d 91 ec 68 bd
       -0.8262385 -0.15466163 0.03158961 -0.056866232
000010 9d a4 37 3f 4b 30 b9 be 7c fa 87 3e 8f 34 52 bf
       0.71735555 -0.36169657 0.26558292 -0.8211145
000020 b1 24 3a 3f 00 5c 76 be fa 5f 2f bd 6a e5 89 be
       0.72712237 -0.24058533 -0.04281614 -0.26932842
000030 2c 26 ed bc b8 be 23 3f 22 f5 3a bf 55 9c 0a 3d
       -0.028948866 0.6396289 -0.73030293 0.033840496
000040 68 ca 34 be f3 2e 27 3e dd bd 83 3d 22 b8 be 3e
       -0.17655337 0.16326503 0.06432698 0.37249857
000050 48 a9 95 3d 7c 13 8a 3e 08 ab 1d 3f de d2 92 be
       0.073076785 0.2696799 0.615891 -0.28676504
000060 e3 6e 66 3e 04 3f 05 3f 22 48 fa 3e a2 4a 68 be
       0.22503237 0.5204928 0.48883158 -0.2268472
000070 a3 d4 51 3d cb 84 e9 be 94 c1 74 3e f3 7b 42 3e
       0.051228177 -0.45609125 0.23901969 0.18992595
000080 67 db f0 be fd fb 67 3e a7 95 bc be 31 44 93 3e
       -0.4704239 0.2265472 -0.36832926 0.28762963
000090 22 eb bb 3d 19 5e e6 be e3 ef 58 be c6 59 02 bf
       0.091757074 -0.44993666 -0.2118526 -0.50918233
0000a0 c1 b5 36 be ee 20 49 be 4a c9 ec be 1a 50 22 3f
       -0.17842771 -0.19641468 -0.4624732 0.63403475
0000b0 2a a2 9f bd fb c5 12 be c9 40 f7 be 0c 83 52 bf
       -0.07794602 -0.14333336 -0.48291615 -0.8223121
0000c0 3b 40 df be 2d 18 49 be 97 42 3c be 42 a6 2b bd
       -0.4360369 -0.19638129 -0.18384777 -0.041906603
0000d0 e0 5e f7 be 02 6a 82 3e 33 bd 4c 3f 51 52 dc 3e
       -0.4831457 0.25471503 0.79976195 0.43031552
0000e0 c8 5c a7 be 75 fc f4 be 84 34 96 3e 17 e8 48 be
       -0.32687974 -0.4784886 0.2933694 -0.19619785
0000f0 6a a8 af 3d b0 c3 8d 3e c1 d1 07 3d d5 6e 1c 3f
       0.08577044 0.2768836 0.03315902 0.61106616

encoder.lstm_cells.0.conv_i.convs.<prod___-___prod>.lin_dst.weight f4 [8, 8]
000000 2d 28 57 3f 66 7e 74 3d 31 d3 88 be a4 39 8f 3e
       0.8404568 0.059690855 -0.26723626 0.27973664
000010 50 db 83 be eb 7b f1 bd f3 cf e3 3e 8b 8b 18 3f
       -0.2575326 -0.117912136 0.4449459 0.59587926
000020 a0 e1 e4 3e 2f 42 13 bd 60 77 ac be b6 6b ab be
       0.44703388 -0.03595179 -0.33684826 -0.33480614
000030 49 81 21 3f 7b 0b aa 3e ab fb 96 bc c8 8d 44 bb
       0.630879 0.33211884 -0.018430552 -0.0029991735
000040 00 df 59 3d 55 5c 94 3e 74 cc 5f 3e 80 54 fe 3d
       0.053191185 0.28976694 0.21855336 0.12418461
000050 46 5a 7c bd d5 06 e6 3e 9e c6 37 3e f7 e3 64 3e
       -0.06160953 0.44927087 0.1794686 0.22352587
000060 99 a4 25 3f e5 03 a0 3e da 94 40 3f 9b ab 4e 3e
       0.6470428 0.3125297 0.7522713 0.2018265
000070 fe 1c 02 be 97 a7 b0 be cf 68 46 3d cd 85 f5 3d
       -0.12706372 -0.3450286 0.048439797 0.11988411
000080 53 66 e2 be fd ed 84 bb ef 0a 2a be b1 37 3a 3f
       -0.44218692 -0.0040566907 -0.16605733 0.7274123
000090 31 fc 22 3e 90 45 d7 be fc 53 44 be f0 a2 98 be
       0.15916516 -0.4204526 -0.19172662 -0.2981181
0000a0 dc a8 56 3c 4c df fa 3e ec b2 00 3f 31 36 97 3e
       0.013101783 0.48998487 0.50273013 0.29533532
0000b0 ef 4c ca 3c 93 c8 91 3e 65 27 1b 3e c8 49 ed be
       0.024694888 0.28473338 0.15151747 -0.46345353
0000c0 45 4b 48 be 5c 88 a9 3c c9 f8 05 bf 3d 9d 5e be
       -0.19559963 0.020694904 -0.5233274 -0.21739669
0000d0 96 e5 05 3f 73 25 ac 3e 40 c1 af 3e 5f 32 ef 3e
       0.52303445 0.3362232 0.34327126 0.46718118
0000e0 e6 44 c3 3b bd c8 2e be c8 dd d3 3e dc fa b9 be
       0.005959141 -0.17068763 0.41380143 -0.36324203
0000f0 7b c3 c7 bd 8a 48 ae be 62 79 d4 3d ef 05 80 be
       -0.09754082 -0.34039718 0.103747144 -0.25004527

encoder.lstm_cells.0.conv_i.convs.<inj___-___inj>.att_src f4 [1, 1, 8]
000000 4f 0c 17 3f 0a 7d 8c 3e 54 78 6b be dc 50 30 3f
       0.59003156 0.27439147 -0.2299512 0.6887338
000010 7b 66 fa 3c 0d d1 f5 3e 91 b8 97 3d 2e cf d9 be
       0.030566445 0.48011056 0.0740825 -0.42540878

encoder.lstm_cells.0.conv_i.convs.<inj___-___inj>.att_dst f4 [1, 1, 8]
000000 6a dc 84 3e f8 e9 0c be d0 d8 d6 3e 2c ce 2e 3f
       0.25949413 -0.13761127 0.4196229 0.68283343
000010 6b 08 0c 3f 93 19 8d be b6 01 e4 3e 19 80 50 3e
       0.54700345 -0.27558574 0.44532555 0.20361365

encoder.lstm_cells.0.conv_i.convs.<inj___-___inj>.bias f4 [8]
000000 5f f1 86 3e 12 68 e8 3d 5c c3 5e be d9 29 d4 3e
       0.26356027 0.11347975 -0.21754211 0.41438177
000010 30 39 37 3e e1 4f 06 be 7f 7f 9c 3e c2 ea 5b 3d
       0.17892909 -0.13116409 0.30566022 0.05369068

encoder.lstm_cells.0.conv_i.convs.<inj___-___inj>.lin_src.weight f4 [8, 8]
000000 65 5f 95 3e 8c 12 a0 3e a1 d1 ba be 2d d4 ed be
       0.29174343 0.3126415 -0.3648806 -0.4645094
000010 8e cc 07 3e e2 a2 2c 3d df 4f 15 be 32 4d dc 3e
       0.13261625 0.042147525 -0.1458125 0.43027645
000020 06 06 a8 be 5b 6d d8 be df 8d ce be 1f 18 d7 bd
       -0.32817096 -0.42270932 -0.40342614 -0.105026476
000030 13 a4 6d be 6c 8f 16 bf 55 f5 e1 3e 43 db ac 3c
       -0.2320712 -0.58812594 0.44132486 0.021100646
000040 bc 09 d6 be 0f 29 82 be 13 9b d5 bc 2a 0d 18 bd
       -0.41804302 -0.2542195 -0.026074922 -0.03712193
000050 45 b1 0a bc b0 51 49 bf f9 47 9e 3e 2f f8 89 be
       -0.008465116 -0.7864027 0.30914286 -0.26947162
000060 20 46 66 be 9e d3 3f bf 09 61 e5 3d 2c fa 1d bf
       -0.22487688 -0.7493228 0.112001486 -0.61709857
000070 d8 e4 eb be b1 47 0f 3f b9 ca 78 3e b7 f4 6a 3e
       -0.4607303 0.5596877 0.24296083 0.22944914
000080 c1 bb 88 be bd 1b 34 bf 93 0b af be cc ad 3a 3e
       -0.26705745 -0.70354825 -0.34188518 0.18230361
000090 23 49 55 be 8f 73 b3 be b5 1d 0a be aa 12 02 bf
       -0.2082868 -0.35049102 -0.13487895 -0.5080973
0000a0 e0 f0 59 3e bb f7 a2 be 3b d8 0c 3f 68 1a e0 bc
       0.21283293 -0.31829628 0.5501744 -0.027356341
0000b0 ab 9f 9a be 00 16 f4 3e 5f 3f 92 be 3e a3 bd 3e
       -0.30199942 0.47673035 -0.28563973 0.37038606
0000c0 c1 30 ab 3e 2f be dd 3d d9 c2 38 be ed 25 eb 3e
       0.33435634 0.1082729 -0.18043078 0.45927373
0000d0 38 1f 39 be 86 1a a4 be 87 23 c3 3d 38 b1 db 3e
       -0.18078315 -0.32051486 0.09528261 0.42908645
0000e0 45 89 9e 3e 13 12 ce 3e d7 70 98 bd 6d 7c 21 3f
       0.30964103 0.40248165 -0.074433975 0.63080484
0000f0 b5 24 4e 3f 40 e7 28 bf d2 12 a2 3d 3b 83 c7 be
       0.8052476 -0.6597786 0.07913746 -0.38967308

encoder.lstm_cells.0.conv_i.convs.<inj___-___inj>.lin_dst.weight f4 [8, 8]
000000 d5 a0 be 3d c6 a0 65 3e 71 ca 07 be c9 79 c3 bd
       0.0930802 0.22424611 -0.13260819 -0.09544713
000010 43 e2 56 3e f1 58 10 be f8 32 14 bf bc 0a fe 3e
       0.2098475 -0.14096428 -0.5789027 0.49617565
000020 ef d0 95 be 69 66 26 bd b0 cc 8b 3d d1 85 6c 3a
       -0.29260966 -0.04062501 0.068261504 0.0009022626
000030 6f 79 04 bf 75 58 a0 3e 96 75 61 be 1d 26 a3 be
       -0.5174779 0.31317487 -0.22017512 -0.31865016
000040 e3 00 fc 3d a0 2e b6 be ae 6f 96 be a4 a2 85 be
       0.12304857 -0.35582447 -0.2938208 -0.26100647
000050 b1 95 9b be 5f 9a 9b be 75 43 73 be 9e c3 25 3e
       -0.30387643 -0.30391213 -0.23756202 0.16187903
000060 0f af 04 bf 34 6d d3 be 02 f3 bc bb 07 95 b2 3c
       -0.5182962 -0.41294253 -0.0057662735 0.021799577
000070 31 21 85 3e 4e 1e f9 be 86 51 f2 3d 57 27 b1 3e
       0.26001886 -0.48655933 0.118319556 0.34600326
000080 8c f8 a1 3e 41 23 1c bf d8 29 7c be 23 00 16 bf
       0.3163494 -0.60991293 -0.24625337 -0.5859396
000090 67 c3 ed be a0 8f 93 3e 49 e8 2a be da 96 85 3e
       -0.46438143 0.28820515 -0.16690172 0.26091653
0000a0 6c 1a ae be c4 a0 01 3e 6b 5b b7 be 5a d9 b5 3e
       -0.34004533 0.12658983 -0.35811934 0.3551739
0000b0 1c 68 4c be fd d5 e2 bd 60 8a ed be 6f a2 d9 3a
       -0.1996159 -0.11075971 -0.46394634 0.0016604195
0000c0 64 32 0f 3f fb 72 84 3e d1 58 ae be 03 b8 48 bd
       0.55936265 0.25868973 -0.34052137 -0.049003612
0000d0 18 32 11 be 8a 2f 0b bf 00 3b d0 3e 1a 9b 18 3c
       -0.14179265 -0.54369414 0.40670013 0.009314323
0000e0 75 bd de 3d 20 6c 8b be 2c 89 94 be d1 b4 7f 3d
       0.1087598 -0.2723093 -0.29010904 0.0624283
0000f0 b0 1f 29 3e 72 3d d6 3d 31 07 b6 be 61 43 1a 3f
       0.16515994 0.104609385 -0.35552362 0.6025906

encoder.lstm_cells.0.W_i.inj f4 [1, 8]
000000 5f 29 07 3f 8a 4c 0b 3f bf 56 89 3d cb 05 a0 bd
       0.527975 0.54413664 0.06705999 -0.07813605
000010 39 ae 69 3e 21 0b 8d be ff a4 b2 3e 7a fe 05 3f
       0.22820367 -0.27547553 0.34891507 0.52341425

encoder.lstm_cells.0.W_i.prod f4 [1, 8]
000000 31 2d 98 be 38 80 11 bf e6 c8 fa 3e b7 c5 fe 3e
       -0.29721978 -0.5683627 0.48981398 0.4976022
000010 e4 e6 61 be 82 b3 58 bd 2e a7 08 bf 41 51 65 bf
       -0.22060734 -0.052905567 -0.53380096 -0.8957711

encoder.lstm_cells.0.b_i.inj f4 [1, 8]
000000 f7 6a 38 3f b4 f1 e8 be c2 78 45 3e dd ee 48 3f
       0.72038215 -0.45496905 0.19284347 0.78489476
000010 6f 23 43 3f c3 e8 41 bf e7 93 64 3f 7c 24 aa be
       0.7622594 -0.7574579 0.8928818 -0.3323096

encoder.lstm_cells.0.b_i.prod f4 [1, 8]
000000 75 00 09 3f f7 25 fe 3e d3 4c 13 3e 7f 9c 75 3e
       0.5351632 0.4963834 0.14384775 0.2398548
000010 74 7b b0 bc 12 0a 89 be 15 3a 88 3e d9 ed 50 bf
       -0.021543242 -0.26765496 0.26606813 -0.81612927

encoder.lstm_cells.0.conv_f.convs.<inj___-___prod>.att_src f4 [1, 1, 8]
000000 32 fe 31 3f c2 4d 83 bf 11 b9 92 bf 8a 73 58 bd
       0.69528496 -1.0258105 -1.1462728 -0.05284456
000010 87 e0 78 bf 7e 5a 4a 3f 70 dc 33 3e cc ce 28 3f
       -0.972176 0.7904433 0.17564559 0.65940547

encoder.lstm_cells.0.conv_f.convs.<inj___-___prod>.att_dst f4 [1, 1, 8]
000000 26 cc be 3e c5 3f 49 bd 33 e8 41 3f 69 1e ef be
       0.37265128 -0.04913308 0.7574493 -0.4670289
000010 c7 86 3f 3e 93 d3 27 bf 1e 35 89 3e 95 59 b1 be
       0.18703757 -0.6555721 0.26798338 -0.34638658

encoder.lstm_cells.0.conv_f.convs.<inj___-___prod>.bias f4 [8]
000000 41 67 52 3e 12 eb 27 be b1 4a a7 3e 0e 78 9f 3e
       0.205472 -0.16398266 0.32674173 0.31146282
000010 24 81 3c 3e c8 56 4f 3e 88 7a 3e be 15 72 ef bb
       0.18408638 0.20247948 -0.1860143 -0.007307301

encoder.lstm_cells.0.conv_f.convs.<inj___-___prod>.lin_src.weight f4 [8, 8]
000000 7b c6 c6 3d 32 45 14 bf 56 7a ee be 96 39 f1 3e
       0.09705826 -0.57918084 -0.4657771 0.47114247
000010 55 e5 1c be 16 3a ac be 4f 75 65 be 27 b8 b3 be
       -0.15321858 -0.33638066 -0.22408031 -0.35101435
000020 94 18 45 bf fe e4 72 be 24 70 f0 3e 28 fd 49 3f
       -0.7699063 -0.23720166 0.46960557 0.7890191
000030 44 23 52 3f 6c 4d 19 bf 11 18 e1 3e 85 45 98 be
       0.8208506 -0.5988376 0.43963674 -0.2974054
000040 da 07 3d 3f e7 a8 1d 3e 93 94 34 3f 7f 58 e5 3d
       0.73840106 0.15396462 0.70539206 0.1119852
000050 fd ae 40 3d 2c e7 ab bc ba 63 3f 3e 20 f0 cd 3d
       0.04704188 -0.020984255 0.18690386 0.10055566
000060 48 5f b9 3e 3d f5 7d be 3f 39 66 be 84 77 10 bf
       0.36205506 -0.24800582 -0.22482775 -0.56432366
000070 09 ee 81 be d8 94 36 bf 59 7e 17 ba cd 06 1d bf
       -0.2537692 -0.7132087 -0.000577902 -0.613385
000080 39 d7 a3 be 99 4b ff bd 8d 5e b5 3e 6d 77 ca 3e
       -0.3200014 -0.12465591 0.354237 0.3954424
000090 34 b4 0f 3e 85 30 6a be c1 f2 d5 be 00 98 c6 3e
       0.14033586 -0.22870071 -0.4178677 0.38787842
0000a0 b7 d4 fe 3e 56 b4 2e bf c8 20 a9 3d 17 25 e4 3e
       0.49771664 -0.6824392 0.08258206 0.44559547
0000b0 22 3b 60 bd f4 8c 4a bf e9 61 1b 3f 3c c3 2c 3e
       -0.054743893 -0.7912133 0.60696274 0.16871351
0000c0 1c a6 d1 bd 71 80 83 3d e4 31 c9 3e 45 42 9f 3d
       -0.10236761 0.06420983 0.39295876 0.07776312
0000d0 bd 19 85 3f bf b2 07 bf 4a e6 2b 3e 4b 56 24 be
       1.039848 -0.5300712 0.16787067 -0.16048543
0000e0 e7 53 4a 3e 03 e4 22 be d9 a2 44 3e 41 f8 8e be
       0.19758569 -0.15907292 0.19202746 -0.27923778
0000f0 8b b4 05 bf 4c 4c 4a be 90 17 05 3f d8 65 bc be
       -0.5222861 -0.19755667 0.5198908 -0.3679645

encoder.lstm_cells.0.conv_f.convs.<inj___-___prod>.lin_dst.weight f4 [8, 8]
000000 f0 e1 c0 3d 26 a7 33 be 2f 76 ff 3e 70 da 17 3f
       0.09418094 -0.17544231 0.49894854 0.59317684
000010 04 2c de 3d a2 0c ca be 4a 60 15 bf 29 7b 6f be
       0.10848239 -0.39462763 -0.5835005 -0.23386826
000020 a1 1b 90 be 6a db db 3e 49 dc 27 bf 4e c4 27 3d
       -0.2814608 0.42940837 -0.65570503 0.040958695
000030 46 d0 3c 3f 96 47 d3 3e 5d a1 a0 3e 7d 1e b4 be
       0.737553 0.41265553 0.3137311 -0.3517951
000040 4b 67 f6 3e 6d f2 80 bd a8 37 0b bf 0a 67 54 3f
       0.4812568 -0.06296239 -0.543818 0.82969725
000050 90 63 b3 be b6 e8 e7 bd c3 24 fa 3e 18 8b 2e bf
       -0.35036898 -0.11323683 0.48856172 -0.6818099
000060 94 ae ae be 8a 39 33 3d 81 8e 02 be fa fd 94 bd
       -0.34117568 0.043756045 -0.12749673 -0.07275005
000070 a4 81 d0 be 13 6b d3 3d 8f ab 3e be be 5d 73 bd
       -0.40723908 0.10323157 -0.18620132 -0.05941557
000080 f5 fe 26 bf ef 3b c8 3e 50 0b 31 3e 15 d7 96 be
       -0.65232784 0.39108226 0.17289472 -0.2946097
000090 39 d0 c8 3e 1c 44 bc 3d f6 cb cf 3c 35 bb 20 bf
       0.3922136 0.09192678 0.02536581 -0.62785655
0000a0 59 a6 4d 3e c8 95 0c 3f b6 00 c9 3e d4 d6 33 bf
       0.20082988 0.5491605 0.39258355 -0.70249677
0000b0 51 f9 28 3f 69 cb ee 3d cc 41 bb 3e c4 a9 3b 3f
       0.66005427 0.11659891 0.36573637 0.73305917
0000c0 04 73 dd 3e 40 1f d7 be 49 5e 15 3f d2 5d 48 be
       0.43251812 -0.4201603 0.5834699 -0.1956704
0000d0 26 09 88 bd a0 16 04 bf e2 75 65 be 97 ad 8b be
       -0.0664237 -0.51597023 -0.2240825 -0.27280876
0000e0 11 21 a6 3c be e0 1a be ec f4 94 3b 6e 25 c3 3e
       0.02027944 -0.15124795 0.0045457985 0.38114494
0000f0 93 61 ee 3e 95 e7 da 3e 61 cb a9 3e d2 7c 39 3f
       0.46558818 0.42754808 0.33162978 0.72456086

encoder.lstm_cells.0.conv_f.convs.<prod___-___prod>.att_src f4 [1, 1, 8]
000000 92 2f 58 be 01 07 08 bf c2 02 8d 3f 79 fe 47 bd
       -0.21111897 -0.5313569 1.1016467 -0.04882667
000010 22 e1 d0 be 6b f0 71 be bb 50 94 3f f4 b7 5f 3e
       -0.40796763 -0.23626868 1.1587137 0.21847516

encoder.lstm_cells.0.conv_f.convs.<prod___-___prod>.att_dst f4 [1, 1, 8]
000000 c3 71 20 3f 9a 74 1f bf 29 fa 57 bf 14 32 20 bf
       0.62673587 -0.62287295 -0.8436609 -0.62576413
000010 e5 e9 31 bf e4 7e f9 3e 6c bb a3 3e a2 f4 10 3f
       -0.6949752 0.48729622 0.3197893 0.5662328

encoder.lstm_cells.0.conv_f.convs.<prod___-___prod>.bias f4 [8]
000000 41 67 52 3e 12 eb 27 be b1 4a a7 3e 0e 78 9f 3e
       0.205472 -0.16398266 0.32674173 0.31146282
000010 24 81 3c 3e c8 56 4f 3e 88 7a 3e be 15 72 ef bb
       0.18408638 0.20247948 -0.1860143 -0.007307301

encoder.lstm_cells.0.conv_f.convs.<prod___-___prod>.lin_src.weight f4 [8, 8]
000000 cc 90 96 be 8d fb 92 3e dc 5a 1d 3e b8 78 1e be
       -0.29407346 0.28707543 0.15366691 -0.15475738
000010 c2 5e b8 be e0 7b 7e be 8f 4d 41 be a3 d4 90 be
       -0.36009794 -0.24851942 -0.18877243 -0.2828723
000020 d5 5d e4 3d ac 43 51 3e 4c 6f 42 3f 12 bb dd be
       0.111507095 0.20435971 0.75951076 -0.43306786
000030 3f 64 69 3e 9f 65 c2 3e 45 46 4d bf 09 7e 40 be
       0.22792147 0.37968156 -0.8018535 -0.18798079
000040 8b 47 60 bf 38 69 c2 be 20 40 13 bf e8 08 ba 3c
       -0.87609166 -0.379709 -0.5751972 0.022709325
000050 e9 40 b0 3d 3b 11 9a be b4 42 36 3c 75 e2 fb be
       0.08606131 -0.3009127 0.011124302 -0.4919621
000060 04 84 9d 3e a4 63 69 ba 7b e5 18 bf 17 a6 f3 3e
       0.30764782 -0.0008903092 -0.5972516 0.47587654
000070 78 71 bd 3e f2 a5 47 3e 34 db 1e 3f 33 93 90 3e
       0.37000632 0.19496897 0.6205323 0.28237304
000080 05 a5 fa be 48 42 93 3e 61 12 a3 3e 18 41 f0 be
       -0.48954025 0.28761506 0.3184996 -0.46924663
000090 7f 88 3d 3f 79 34 19 3f 55 3e 24 3e 18 82 48 3e
       0.740364 0.5984569 0.16039403 0.19580877
0000a0 42 f5 d0 be da 45 38 be cb 74 4e bd 27 e2 dc 3e
       -0.40812117 -0.17995396 -0.05040435 0.4314129
0000b0 d7 13 a8 3a 61 da 58 be 3b 91 27 bf 0b c5 b8 3e
       0.0012823296 -0.21177055 -0.6545598 0.36087832
0000c0 d7 6d 9d 3e 7a db 80 3d e9 ab 37 bf d8 5e 59 3e
       0.30747864 0.06291862 -0.7174669 0.21227586
0000d0 49 04 60 3c 24 07 39 3e f9 e9 b8 3e d1 29 15 3f
       0.013672897 0.1806913 0.36116007 0.5826693
0000e0 ce 60 bf be 8d 5d 7d bd 7e b2 f0 3d 9e d7 0f 3e
       -0.37378544 -0.061856795 0.11752795 0.14047095
0000f0 c9 a0 bf 3e 7e 4f ee be b6 ea 36 be 45 45 e5 3c
       0.37427357 -0.46545023 -0.17862973 0.027987132

encoder.lstm_cells.0.conv_f.convs.<prod___-___prod>.lin_dst.weight f4 [8, 8]
000000 09 99 96 be f0 c6 9b 3e 40 dd 14 3d 99 3e c2 be
       -0.29413632 0.30425215 0.036343813 -0.37938383
000010 d3 1f e8 bd 41 38 28 be fb d9 35 3e df 56 46 be
       -0.11334195 -0.16427709 0.17758934 -0.19369076
000020 8d 88 f2 be c9 bc b3 3b 49 65 e9 bc d3 fc bd be
       -0.47369805 0.0054851514 -0.02849068 -0.37106952
000030 4f d1 1c 3f 0f 1b 7f be 0a 6a 8b 3e e7 25 8e 3e
       0.6125688 -0.24912666 0.2722934 0.27763292
000040 2c da c2 be 4e c7 87 3e 58 d7 0b 3f 63 5c 17 bf
       -0.38057077 0.26519245 0.54625463 -0.59125346
000050 63 f4 b6 be 6f 66 f4 3e 66 ff bb 3e a4 89 59 be
       -0.35733327 0.477344 0.3671829 -0.21243912
000060 fc 17 01 3f de d7 24 3d 68 d5 12 bf 67 12 16 be
       0.5042722 0.04024493 -0.5735688 -0.14655457
000070 91 4e 7f 3e 0c f7 98 be 07 23 ba 3d 0f d8 ca be
       0.24932314 -0.29875982 0.09088712 -0.39617965
000080 a0 9a 10 3f 8b eb 25 3f f7 cc c1 3e 5e 90 ba bd
       0.5648594 0.64812535 0.37851688 -0.09109567
000090 8b 08 76 3e f4 36 11 bf a1 1e 90 be 7a dc 99 3d
       0.24026696 -0.56724477 -0.28148368 0.07512756
0000a0 21 7b f8 be ea ce 14 bf fe 67 c0 3e 40 f2 1d 3f
       -0.4853144 -0.58128226 0.3757934 0.6169777
0000b0 39 05 1b bf 8e e0 a1 3e 0c 49 c2 3e 09 00 e4 3e
       -0.60554844 0.31616634 0.37946355 0.44531277
0000c0 db 26 5e 3e fb 84 e1 3e 88 90 75 be 0d d4 1e 3f
       0.2169451 0.4404677 -0.23980916 0.62042314
0000d0 e4 51 eb 3e 15 17 e9 be 14 19 bb be 09 95 d0 bb
       0.45960915 -0.45525423 -0.3654257 -0.0063654226
0000e0 5c 4d 4f 3e 09 5b d6 be 3f ad 1c 3d 47 91 3f 3e
       0.20244354 -0.4186633 0.038251158 0.18707763
0000f0 50 60 d8 3d 8a 07 5c be c6 e0 ed 3e 59 57 91 3e
       0.10565245 -0.21487251 0.4646055 0.28386953

encoder.lstm_cells.0.conv_f.convs.<inj___-___inj>.att_src f4 [1, 1, 8]
000000 8a 48 06 bf ae 46 c1 be e5 e9 aa 3e d3 13 dc be
       -0.52454436 -0.37749237 0.33381572 -0.42983875
000010 d4 6b 1f 3f a0 47 c7 be c6 ce 2f 3f 0a e3 68 bf
       0.6227391 -0.38921833 0.68674886 -0.90971434

encoder.lstm_cells.0.conv_f.convs.<inj___-___inj>.att_dst f4 [1, 1, 8]
000000 f6 c4 08 bf 0c c9 1f 3e 9b 4c 3e 3e 85 ff b7 bd
       -0.5342554 0.15604037 0.1858391 -0.08984283
000010 c8 e4 02 3f 08 74 12 3f b0 36 fe be 57 f2 0d bf
       0.5113034 0.572083 -0.49651098 -0.55447906

encoder.lstm_cells.0.conv_f.convs.<inj___-___inj>.bias f4 [8]
000000 01 c8 9a 3e 01 69 3e 3d 5f e2 09 be 66 f2 f4 3e
       0.30230716 0.04648686 -0.1346526 0.47841185
000010 7b 71 4c 3e 63 75 3d bd 2c 1e bd 3e cd 4e 88 3e
       0.19965164 -0.046254527 0.36937082 0.2662262

encoder.lstm_cells.0.conv_f.convs.<inj___-___inj>.lin_src.weight f4 [8, 8]
000000 0c b1 08 be c5 33 a6 be 7a d4 47 be ef 8e ba bd
       -0.13348788 -0.32461372 -0.19514647 -0.09109294
000010 be 5f 9b 3e 27 6c ed 3e e7 1b 96 be ff 0b d2 3e
       0.30346483 0.46371576 -0.29318163 0.41024777
000020 89 a7 b5 be 16 ac 0a be 75 a9 b8 bc af 24 c0 be
       -0.35479382 -0.13542208 -0.02254174 -0.37527987
000030 38 1b 10 3e c8 53 28 bf 60 9c 9c 3e 79 b0 e4 bc
       0.14072883 -0.6575284 0.30588055 -0.02791618
000040 66 69 a1 bd 7c e6 b4 be 56 7b ee be 7c 2b e3 3e
       -0.07881431 -0.35332096 -0.46578473 0.44369113
000050 f2 84 29 3f 2e 24 35 bf 56 a5 c6 3e 26 f1 a8 be
       0.66218483 -0.7075833 0.38798016 -0.32996482
000060 74 cc a5 3e 31 fb 86 3e f5 21 92 3e 03 a3 3b bf
       0.32382548 0.2636352 0.28541532 -0.7329561
000070 0b 48 fc 3d 70 68 d8 3e eb 5c f4 bd 05 e8 cc 3e
       0.123184286 0.4226718 -0.11931785 0.40020767
000080 8e 0a a6 3d 1d 90 de be 65 63 e7 be ba 16 72 be
       0.08107482 -0.43469325 -0.4519302 -0.23641482
000090 34 92 f6 bd 10 52 05 3e 94 7c fb be 97 38 b1 be
       -0.12039605 0.13019586 -0.49118483 -0.34613487
0000a0 f0 a0 1e 3f 34 4e 41 bf cd fe f2 bd 5a b7 aa be
       0.6196432 -0.75509953 -0.11865006 -0.3334301
0000b0 2c c3 02 bf 39 ab 23 3f fb 60 a1 bd 4e 2b 08 3f
       -0.5107906 0.6393314 -0.07879826 0.5319108
0000c0 33 ca d0 3d 5a df 01 bf 1e 9d f2 3e 36 50 57 bd
       0.101948164 -0.5073143 0.47385496 -0.05256673
0000d0 58 46 ab be dc 02 ec be 0d 03 22 be 65 37 20 bf
       -0.33452106 -0.46095932 -0.15821476 -0.62584525
0000e0 66 95 01 be 46 de fb 3e 35 52 f4 be 88 4c d6 bd
       -0.12654647 0.4919302 -0.4771897 -0.10463816
0000f0 82 34 30 be ba 78 08 3f 8e 60 34 3f cf 16 21 3d
       -0.1720753 0.53309214 0.7045983 0.039328393

encoder.lstm_cells.0.conv_f.convs.<inj___-___inj>.lin_dst.weight f4 [8, 8]
000000 50 55 25 3f 27 63 53 be 1d a2 2a bf 1e 79 8b 3e
       0.645833 -0.20643292 -0.66653615 0.27240843
000010 19 5e a2 3e 08 5d 43 3f 2f 09 00 3e f1 52 c3 3e
       0.31712416 0.7631383 0.12503503 0.38149217
000020 9c 78 9f 3e fd 7a e5 3e e5 85 0a bf c5 04 e6 3e
       0.31146705 0.44820395 -0.54110557 0.44925514
000030 75 70 1d bf 59 cd d1 3e 8b 79 10 be 4a 99 ed be
       -0.6149972 0.4097698 -0.14108865 -0.46406013
000040 4d 7d f3 3d 52 24 07 be 27 17 f9 be d4 88 92 be
       0.118891336 -0.13197449 -0.48650476 -0.28620017
000050 dc 57 12 bd 3c 91 a7 3e 58 e3 9d be f6 64 e3 3e
       -0.03572832 0.32727993 -0.30837512 0.44412965
000060 86 a8 18 3e 82 ec 9e 3b 0a 33 46 3d bd 15 bc be
       0.14908037 0.0048499713 0.04838852 -0.36735335
000070 ac 1d dc be 15 95 96 bd b1 da ee be c9 14 b8 be
       -0.42991388 -0.07352654 -0.46651223 -0.35953358
000080 fd 00 1a bd 89 85 ce be 9c c7 3d be 5d 97 2d be
       -0.0375986 -0.40336254 -0.18533176 -0.16952272
000090 ba 06 2d be 39 95 fe be 9b c7 bc bd ca 1d 02 bb
       -0.16897097 -0.49723223 -0.09217759 -0.0019854181
0000a0 70 21 de 3d 66 0a e9 3c e9 4e 72 be 33 20 8a be
       0.108462214 0.028447341 -0.23662914 -0.2697769
0000b0 fc 8f d7 bd 36 aa 0a bf fc aa 96 bd a7 b9 27 3d
       -0.1052551 -0.5416597 -0.073568314 0.040948536
0000c0 bd 8f 9e 3e d0 21 0e 3e 21 ee c6 3e 12 3a 03 3d
       0.3096904 0.13880086 0.38853553 0.032037802
0000d0 ab da b7 be f8 50 da 3e 99 c7 97 be cd dd 29 be
       -0.35909018 0.426399 -0.29644468 -0.16588517
0000e0 be 6b 04 be de 95 6e be 28 e0 98 be bf 8f 1f 3f
       -0.12931725 -0.23299357 -0.29858518 0.62328714
0000f0 f7 8f e7 3e 9f 93 aa 3e 99 92 33 3f ea bf 24 bf
       0.45227024 0.3331575 0.70145565 -0.6435534

encoder.lstm_cells.0.W_f.inj f4 [1, 8]
000000 67 73 62 be e0 fb c5 3d ee 0d 24 3f e5 6b 07 3f
       -0.22114335 0.09667182 0.64083755 0.5289901
000010 2f 9f 0a bf 6f 2b 2e bf 85 c9 7e 3d 78 ec 8f 3f
       -0.54149145 -0.68035024 0.062203903 1.124404

encoder.lstm_cells.0.W_f.prod f4 [1, 8]
000000 74 9c 14 3f d9 36 9b be 57 e6 93 3e 72 a0 24 3d
       0.5805123 -0.30315283 0.28886673 0.040192075
000010 12 b3 55 bf 92 3c 51 3f 12 3f 67 be d5 72 9d be
       -0.83476365 0.8173305 -0.22582653 -0.30751672

encoder.lstm_cells.0.b_f.inj f4 [1, 8]
000000 e0 26 4f 3f ff 4b 28 3f 25 34 23 3f ae 56 92 3e
       0.80918694 0.6574096 0.6375144 0.28581756
000010 1f 43 f1 be 49 9d 0c 3e 82 07 52 3f 90 e3 0b bf
       -0.47121522 0.13731875 0.82042706 -0.5464411

encoder.lstm_cells.0.b_f.prod f4 [1, 8]
000000 48 fe a4 3c 91 47 27 bf 54 ba 82 3e f8 31 b9 bd
       0.020140782 -0.65343577 0.25532782 -0.09042734
000010 63 43 19 be 76 57 68 bd 37 41 76 bf 5f a2 29 3f
       -0.14967112 -0.056724034 -0.9619326 0.66263384

encoder.lstm_cells.0.conv_c.convs.<inj___-___prod>.att_src f4 [1, 1, 8]
000000 de 34 ea 3e cd e3 1d bf 43 24 11 bf 6b ee 84 bf
       0.4574346 -0.6167572 -0.56695956 -1.0385259
000010 14 39 bd be 4d fb ec 3e 37 f6 66 3e 94 f1 20 bf
       -0.3695761 0.46285477 0.22554861 -0.6286862

encoder.lstm_cells.0.conv_c.convs.<inj___-___prod>.att_dst f4 [1, 1, 8]
000000 10 80 ca bc bc 64 13 bf ba 66 6b bf cd ca cf be
       -0.024719268 -0.57575583 -0.91953623 -0.40584412
000010 02 94 5c bf 46 3d 30 bf 3a 35 75 3f 6a d2 80 3e
       -0.8616334 -0.68843496 0.9578434 0.25160533

encoder.lstm_cells.0.conv_c.convs.<inj___-___prod>.bias f4 [8]
000000 33 cc f6 bd 7f 8a eb ba 7b 10 48 be 80 49 9b 3e
       -0.12050667 -0.0017970352 -0.19537537 0.30329514
000010 3d 54 ae 3c d1 5d 9b 3e e1 c3 a8 3e d2 f6 35 be
       0.021280402 0.30345014 0.32961944 -0.17769936

encoder.lstm_cells.0.conv_c.convs.<inj___-___prod>.lin_src.weight f4 [8, 8]
000000 eb 71 2a 3d 5e b0 ea 3e b6 52 a1 3e e6 48 06 bf
       0.041612547 0.45837682 0.31508416 -0.52454984
000010 27 8f 9b 3e 82 5d 7f 3d 61 4b c8 3d 43 bd 3b be
       0.30382654 0.062345035 0.097800024 -0.18333916
000020 2f 9e 57 bf 49 05 a9 be a2 ab f0 be 97 fb 27 3f
       -0.84225744 -0.33011845 -0.47005945 0.6561827
000030 4d 56 10 3f 9d 85 1b bf 7c a7 55 3c 83 06 b2 bc
       0.56381685 -0.6075075 0.01304042 -0.02173162
000040 a6 55 ed be a9 41 6e 3e 74 b5 66 3e ba 9d 82 b9
       -0.46354407 0.23267235 0.22530156 -0.00024913048
000050 46 23 05 bf 84 e9 fe 3d 00 d9 ea 3e f8 05 f0 3d
       -0.5200695 0.12446883 0.45868683 0.117198884
000060 d3 c2 b3 be c7 5f 10 bf 0f cd 70 3d 12 1d 53 3d
       -0.35109577 -0.56396145 0.05878931 0.051541395
000070 34 75 2a be 9d 9e d0 be 17 12 d8 bd 50 9d cb 3e
       -0.16646272 -0.40746012 -0.10550325 0.39768457
000080 8f 80 6d 3d 70 3c 02 3f a9 3c 49 3f 5f e9 6b bc
       0.05798393 0.5087347 0.78608185 -0.014398902
000090 28 e3 59 bd d0 f0 00 be 24 e9 5e 3e 44 fd 9a be
       -0.05319515 -0.12591863 0.21768624 -0.3027135
0000a0 a8 74 92 3e aa cb 1b be e0 53 dd 3e 11 43 99 bd
       0.28604627 -0.1521441 0.43228054 -0.07483495
0000b0 7e b7 97 be 93 dc 2c 3e 85 c5 f7 3d b7 92 65 be
       -0.2963218 0.16881017 0.12098221 -0.22419249
0000c0 fb c9 58 bc 06 85 06 bf 4a 17 01 bf 7f 78 27 be
       -0.01323175 -0.5254673 -0.5042616 -0.1635456
0000d0 14 0e 06 3d 08 54 6b 3e fd 70 35 3f c9 87 19 bf
       0.03272827 0.22981274 0.7087553 -0.59972817
0000e0 94 f2 07 bf 9d 3a a1 bc 39 3a e9 be 41 e1 92 be
       -0.5310452 -0.01968127 -0.45552233 -0.2868748
0000f0 84 7a f7 be f7 c7 0f bf ef 04 67 3e a2 78 8d 3e
       -0.4833566 -0.561645 0.22560476 0.27631098

encoder.lstm_cells.0.conv_c.convs.<inj___-___prod>.lin_dst.weight f4 [8, 8]
000000 ad 01 0e 3f 0a f9 e2 3e 15 a2 1c 3e 3d 31 89 3d
       0.5547131 0.44330627 0.15296204 0.066988446
000010 42 cc 08 bf b9 b7 e1 3e 8b 2c cf be 46 4e 97 3e
       -0.5343667 0.44085482 -0.4046367 0.29551905
000020 50 1a b7 3d d6 dd 19 3e e6 5f e9 3e 8e 52 7b be
       0.089405656 0.1502603 0.45580977 -0.24543211
000030 f0 f8 b1 3e 51 30 d8 3e f6 6b 11 3f 84 9c cf bb
       0.34760237 0.42224362 0.5680536 -0.006335797
000040 4c 2a b6 3e 22 f7 bc 3e b9 e7 02 3f 94 09 02 3f
       0.35579145 0.36907297 0.5113483 0.50795865
000050 e4 f4 96 be 84 e9 09 3f 35 c2 a0 3e 6f 64 8c 3e
       -0.29483712 0.5387194 0.31398168 0.27420375
000060 e1 f0 13 3f f3 3c d6 3d d9 1f 32 3b 99 bf f2 bc
       0.5778943 0.10460844 0.0027179627 -0.029632377
000070 47 54 2e bb 63 d9 6a 3e 25 88 a3 bb 01 b9 cb 3e
       -0.0026600526 0.22934489 -0.004990595 0.39789584
000080 e6 b9 ae 3e 0c b3 d7 be 1f 1f 39 3e c6 23 9b bc
       0.34126204 -0.4212879 0.18078278 -0.018937957
000090 7d 9d 10 bf 32 02 63 3e b8 5e 97 bc cd ab d1 be
       -0.5649031 0.22168806 -0.018477783 -0.40951386
0000a0 4e a4 6c be 88 b3 87 be fc 5f 52 3f 82 0c 90 3e
       -0.23109552 -0.2650416 0.8217771 0.28134543
0000b0 8a 1a d7 3e 26 f4 9c 3e 87 91 9e 3e 13 a8 1b 3e
       0.42012435 0.3065502 0.30970404 0.15200834
0000c0 a5 fc 09 3e 4b 02 e1 be e4 54 18 bf 7f db 43 be
       0.13475282 -0.43947062 -0.5950453 -0.191267
0000d0 78 d6 42 3e 4d 1d ca 3d da 3e 88 3d bc 73 14 3f
       0.19027126 0.0986887 0.06652613 0.57989097
0000e0 03 f0 30 3e a6 78 21 be 82 e6 31 bf 50 3a 02 bf
       0.17279057 -0.1576868 -0.6949235 -0.5087023
0000f0 b3 27 38 be 03 fc 39 3d 49 f2 21 3e 06 8a 25 3f
       -0.17983894 0.045406353 0.1581508 0.6466373

encoder.lstm_cells.0.conv_c.convs.<prod___-___prod>.att_src f4 [1, 1, 8]
000000 b8 35 c4 3d e9 19 83 bf e9 1b f6 be 31 ef e9 bc
       0.095805585 -1.0242282 -0.4806817 -0.028556438
000010 2d b0 e2 bd 77 81 d7 be 39 55 30 bf c0 0c 0c bf
       -0.11068759 -0.4209096 -0.6888004 -0.54706955

encoder.lstm_cells.0.conv_c.convs.<prod___-___prod>.att_dst f4 [1, 1, 8]
000000 b2 b4 36 3e 99 b5 67 be 74 8e f2 3d 1e a8 ee be
       0.17842367 -0.22627868 0.11843577 -0.46612638
000010 e2 f8 e1 be ff f2 23 bf 22 43 15 be 5c ec 59 bf
       -0.44135195 -0.6404266 -0.1457639 -0.8512628

encoder.lstm_cells.0.conv_c.convs.<prod___-___prod>.bias f4 [8]
000000 33 cc f6 bd 7f 8a eb ba 7b 10 48 be 80 49 9b 3e
       -0.12050667 -0.0017970352 -0.19537537 0.30329514
000010 3d 54 ae 3c d1 5d 9b 3e e1 c3 a8 3e d2 f6 35 be
       0.021280402 0.30345014 0.32961944 -0.17769936

encoder.lstm_cells.0.conv_c.convs.<prod___-___prod>.lin_src.weight f4 [8, 8]
000000 25 64 11 bd d7 d6 5e be 3b 4a 9a be 2e e5 8c be
       -0.035495896 -0.21761642 -0.30134758 -0.275186
000010 aa 6a 91 3e c1 3a 53 3e b7 3b ff 3d c7 a1 69 3e
       0.2840169 0.20627882 0.124625616 0.2281562
000020 bb 67 b7 3e bc 63 d2 bd 86 dd e6 be 9d f4 14 3e
       0.35821328 -0.10272929 -0.45090884 0.14546438
000030 0c b9 cf 3a bb 34 d9 be ee dc 76 3e e3 af b9 3d
       0.0015847995 -0.42423043 0.24107715 0.09066751
000040 e8 34 17 3e 4d 97 88 be 68 dd 99 bc 4c 86 0d bf
       0.14766276 -0.26677933 -0.018782333 -0.55283046
000050 75 c0 6d 3d 4d 58 dd bd 77 20 84 3e df 9e cd 3c
       0.05804487 -0.10807858 0.2580602 0.02510017
000060 5d 40 62 be d5 f3 85 3e 99 3d 04 3f 6a 41 cd bd
       -0.22094865 0.26162592 0.5165649 -0.10022242
000070 fe b8 12 3f 18 71 98 3d e1 b4 bd be fa fd d0 bd
       0.57313526 0.07443446 -0.37052062 -0.10204692
000080 56 a4 97 be 5b 2e 2d be 2d d5 c3 be a9 b6 15 bf
       -0.29617566 -0.16912214 -0.38248578 -0.5848184
000090 28 5b dc 3e d5 30 0f bf 58 70 82 3e 35 80 e7 be
       0.43038297 -0.55933887 0.25476336 -0.45215002
0000a0 f8 de ee be 89 16 7b 3e f5 32 a9 3e cf 4e 1a 3d
       -0.46654487 0.24520315 0.3304669 0.037672814
0000b0 36 91 8f 3e c9 8e ce 3d 8c 87 d1 3e 6b d6 83 be
       0.28040475 0.10085828 0.40923727 -0.25749525
0000c0 85 37 7c be 25 f5 fe be 0b 66 4d bf 42 9d 46 3f
       -0.24630554 -0.49796405 -0.8023383 0.77583706
0000d0 45 86 73 be 20 fa 37 be f5 0b 84 3e e8 80 a5 3e
       -0.23781689 -0.17966509 0.25790372 0.3232491
0000e0 76 d6 30 3d 23 73 f1 be 24 3c b3 bd f1 86 c4 3e
       0.043173276 -0.47158155 -0.08751705 0.38384202
0000f0 b0 d0 ef 3c c6 07 00 3f b2 ba 97 be 2a 0d 92 3e
       0.029274315 0.5001186 -0.29634625 0.28525668

encoder.lstm_cells.0.conv_c.convs.<prod___-___prod>.lin_dst.weight f4 [8, 8]
000000 de ef 41 bf d0 89 c5 3e 75 f7 76 3d 76 48 27 3f
       -0.75756633 0.38581705 0.060294587 0.6534494
000010 47 1d c4 be 5f a1 d3 be d1 cc a2 3e 98 b3 1e bf
       -0.38303587 -0.41334054 0.31796888 -0.6199279
000020 1d 95 a4 be 09 b5 1e bf af f8 60 3e 8c 78 77 3e
       -0.32145014 -0.6199499 0.21969865 0.24167079
000030 64 c4 ab 3d 09 0c 8f 3d 5d 1d a4 3d 8e e9 8e be
       0.08387068 0.069847174 0.08013413 -0.27912563
000040 2a 4d af 3c fd 0b 86 bd 8e d4 d5 be 03 49 20 3f
       0.0213991 -0.06545255 -0.4176373 0.6261141
000050 78 50 13 bf 13 6c 0c be e7 6f fb be ad 09 89 bd
       -0.5754466 -0.13713102 -0.49108812 -0.06691299
000060 01 cd cc bd 29 f8 26 3e 8d 9f 18 be d1 3e 7e 3e
       -0.10000039 0.16305603 -0.14904614 0.2482865
000070 24 e1 12 bf f6 d1 d0 3e 45 7a 1a bf 0b 81 e0 3e
       -0.5737479 0.40785187 -0.6034282 0.43848452
000080 15 af b0 bd fe 23 19 bd 39 4c a4 3d e5 e9 81 3e
       -0.08627144 -0.03738784 0.08022351 0.2537376
000090 b8 10 ff 3d ba c6 00 bf 35 70 ac bd 7c 3e a0 be
       0.12454361 -0.5030323 -0.08419839 -0.31297672
0000a0 73 1f 26 3f 40 39 35 3d e9 7f 72 3d 24 4e f4 be
       0.6489174 0.04424405 0.059204016 -0.47715867
0000b0 72 a5 06 3e 89 fa a0 be 0a 04 e4 3d 90 e9 eb 3e
       0.1314905 -0.31441143 0.11133583 0.46076632
0000c0 ec fa 08 3f 13 d4 08 3e a4 c6 b8 be fc 0e 9f 3e
       0.53507876 0.1336215 -0.3608905 0.3106612
0000d0 11 56 8d be 84 88 27 be f4 d7 40 be 75 44 0d 3f
       -0.27604726 -0.1636067 -0.1883238 0.5518258
0000e0 49 d6 28 3f 46 50 24 3d 4e c3 01 3f c2 48 3b bf
       0.65951973 0.040115617 0.50688636 -0.73157895
0000f0 c1 1d a0 bd 48 8a fa be 33 ef 0b 3d e4 f0 9f be
       -0.07818175 -0.48933625 0.034163665 -0.31238472

encoder.lstm_cells.0.conv_c.convs.<inj___-___inj>.att_src f4 [1, 1, 8]
000000 7c 67 2b 3f 83 ea 88 be c2 1d 3e 3f a1 26 2a 3e
       0.6695478 -0.26741418 0.74264157 0.16616298
000010 35 2b 15 bf 9f f0 27 3f 01 d3 ad be 60 1b db be
       -0.58269054 0.65601534 -0.33950046 -0.42794323

encoder.lstm_cells.0.conv_c.convs.<inj___-___inj>.att_dst f4 [1, 1, 8]
000000 b7 af 34 bf a8 b5 44 bf 95 23 38 3e 94 ca 56 be
       -0.7058062 -0.76839685 0.17982323 -0.20975715
000010 74 d5 80 3e 01 78 3b bf a9 16 0e 3f 39 61 0a bf
       0.25162852 -0.73229986 0.55503327 -0.540546

encoder.lstm_cells.0.conv_c.convs.<inj___-___inj>.bias f4 [8]
000000 c2 6c 8b 3e 87 fc a1 bd 8f 7d d4 3d f9 e8 97 be
       0.27231413 -0.07909494 0.10375511 -0.29669932
000010 1c 91 27 be 6b 96 a9 3e 7d 64 c7 be c6 8f ba 3e
       -0.16363949 0.33122572 -0.38943854 0.36437815

encoder.lstm_cells.0.conv_c.convs.<inj___-___inj>.lin_src.weight f4 [8, 8]
000000 be e9 b6 3c d3 44 44 3e eb e8 d9 3e ef 32 1c bf
       0.022328254 0.1916688 0.42560515 -0.6101522
000010 ce f7 09 bf 0c 13 17 3e 75 dd a1 3d 73 6e 6e be
       -0.53893745 0.1475336 0.07903568 -0.2328432
000020 3b e5 e1 3c 9f 38 f6 be 27 c4 80 3e 95 86 e5 3e
       0.027575126 -0.48090073 0.25149652 0.4482924
000030 82 d6 ce be 15 26 16 3f 62 b5 55 3e 8a da f6 3e
       -0.4039803 0.5865186 0.20869973 0.48213607
000040 97 1e 0e 3e ed 80 50 be af 56 d0 3e b1 37 3b 3e
       0.13878857 -0.20361681 0.40691134 0.18282963
000050 df 64 bf 3e 52 6f 45 bc cf 2a 32 bd ba 4d de 3e
       0.37381646 -0.012050467 -0.043497857 0.43418676
000060 07 ab 11 bf f5 eb 99 3e a0 ee 8d bc ba 8c 0f 3f
       -0.5690159 0.30062833 -0.0173257 0.56074107
000070 47 1c 05 be f3 c9 05 bd 63 99 a2 3e c6 32 e7 be
       -0.12999068 -0.032663297 0.3175765 -0.45155925
000080 65 ab 3c bf cb d9 d6 bd f7 01 00 3f 75 42 23 3f
       -0.7369903 -0.104907595 0.50003 0.6377328
000090 28 e7 72 be a6 5a 48 3e 77 d5 40 be db 43 86 be
       -0.23720992 0.1956583 -0.1883143 -0.26223645
0000a0 58 a5 7a 3f 00 a7 89 bd a2 a0 6e be 25 66 c0 be
       0.97908545 -0.06721306 -0.23303464 -0.3757793
0000b0 d5 75 99 be 6c f2 e0 3e 30 3e 04 bf f7 be a7 be
       -0.2997271 0.43934953 -0.5165739 -0.32762882
0000c0 b1 94 f8 3d 5c ce ba 3e 05 81 e1 3e 2d 64 a1 3d
       0.12137736 0.36485565 0.44043747 0.07880435
0000d0 23 61 12 3f e7 65 92 3e 3b 8b 06 3f c0 d2 8b 3e
       0.5717947 0.2859337 0.525562 0.27309227
0000e0 b5 82 33 3f 87 f8 51 be c1 2d 4a bc 52 d4 e9 3e
       0.7012132 -0.20504962 -0.01234001 0.456698
0000f0 32 ff d5 3e 01 6e d9 bd 5a 90 b2 3e 44 ac 06 3e
       0.4179626 -0.10616685 0.34875757 0.13151652

encoder.lstm_cells.0.conv_c.convs.<inj___-___inj>.lin_dst.weight f4 [8, 8]
000000 67 a5 a7 bd 5f dc 03 3f 8d 77 c4 be ff 40 ad 3e
       -0.08185845 0.51508135 -0.3837246 0.3383865
000010 71 2f 0b 3f 2e 20 f6 be 4d 47 d6 be cb a4 26 bf
       0.54369265 -0.48071426 -0.41851273 -0.65095204
000020 7c e3 fd bd 83 41 13 bf 4b ca 8a be 4e eb 01 3e
       -0.12396905 -0.5752184 -0.27107462 0.12687418
000030 36 ad bd 3e 98 09 91 3e cc 1d 91 3e 00 81 57 3e
       0.37046212 0.28327632 0.28343046 0.21045303
000040 f4 72 bc be ca 80 ef be cf 34 b1 3d ed 92 22 3f
       -0.36806452 -0.46777946 0.086526506 0.6350544
000050 b2 11 be 3d dd 68 85 ba f8 27 ba be 81 53 86 be
       0.09280719 -0.0010178346 -0.3635862 -0.26235583
000060 e5 bf f6 be 04 32 f0 3e 08 43 27 be 0f d0 18 bf
       -0.4819328 0.4691316 -0.16334164 -0.5969247
000070 06 c5 8f 3b ae be 1d bc 50 94 05 be 19 b0 33 3e
       0.0043875007 -0.009627981 -0.13044858 0.17547645
000080 93 29 af 3e 3c c2 0e bf e3 3f d0 be e3 58 d2 3c
       0.34211406 -0.5576513 -0.40673742 0.02567715
000090 66 27 02 bf 21 bb 00 bf 7b 08 18 3f 66 0c 9b bb
       -0.5084137 -0.50285536 0.5938794 -0.0047317026
0000a0 cd af a1 be 44 84 6b be 2c 7d 0b bf 4c 0a d6 3e
       -0.31579438 -0.22999674 -0.5448787 0.4180473
0000b0 e0 ed 48 be cd 4a ce be 34 98 05 bf 42 82 a0 3e
       -0.19621992 -0.40291443 -0.5218537 0.3134938
0000c0 df b0 91 bd 5c 25 3a bd 17 56 c1 bd 4e 11 73 be
       -0.071138136 -0.045445785 -0.094402485 -0.2373707
0000d0 ad ce 2e 3e 80 2b 07 3f c8 26 99 be c3 bb 94 3d
       0.17071028 0.5280075 -0.299124 0.07262375
0000e0 7a 5f f5 be 46 ab 9c be c1 e5 f1 3e af a1 53 bd
       -0.47924405 -0.3059942 0.472456 -0.051667865
0000f0 77 3c 07 3f 6e f0 27 be bb 63 c7 be 2c 74 d1 be
       0.5282664 -0.1640031 -0.38943276 -0.40908945

encoder.lstm_cells.0.W_c.inj f4 [1, 8]
000000 ef 4c fd be 4c ce ad 3e d1 5c 2f 3f ec c7 1d 3e
       -0.49472758 0.33946455 0.68501 0.15408295
000010 cf 77 ef be cb c6 43 bf 2b 7f 1b bf 7a f3 47 3f
       -0.46771094 -0.7647521 -0.6074092 0.7810589

encoder.lstm_cells.0.W_c.prod f4 [1, 8]
000000 ea d9 ad bb 52 0a d1 3e c2 e7 12 3f ed b1 a5 3e
       -0.0053055184 0.40828186 0.57384884 0.3236231
000010 49 b7 b6 be 05 c4 38 bf 16 ba a3 be 57 dc 01 bf
       -0.3568671 -0.721741 -0.3197791 -0.50726837

encoder.lstm_cells.0.b_c.inj f4 [1, 8]
000000 4b f1 74 3f 88 26 54 be e1 76 30 3c f2 42 21 bf
       0.95680684 -0.20717824 0.01077053 -0.62992775
000010 1b a7 66 bf 57 3b ed be f0 16 b0 bd ac dc ab bd
       -0.9009873 -0.46334335 -0.08598125 -0.08391699

encoder.lstm_cells.0.b_c.prod f4 [1, 8]
000000 e8 39 25 bf 35 26 86 bd 03 3f ef be de 52 20 3d
       -0.6454148 -0.06550256 -0.46727762 0.03914153
000010 66 9f 42 3d f2 62 05 3e 00 9d 46 3d ac 92 11 bf
       0.047515295 0.13026026 0.04848957 -0.5686443

encoder.lstm_cells.0.conv_o.convs.<inj___-___prod>.att_src f4 [1, 1, 8]
000000 0f 7f e0 3d 51 d8 a2 3e 9a 16 43 3e d6 da 64 3f
       0.109617345 0.3180566 0.1905159 0.8939642
000010 e8 7b 6d 3f b1 fa 67 bf 04 51 17 bd 5f 71 38 be
       0.9276719 -0.906169 -0.036942497 -0.18011998

encoder.lstm_cells.0.conv_o.convs.<inj___-___prod>.att_dst f4 [1, 1, 8]
000000 f6 a6 2e be 43 ca 16 bf 60 7d 1a 3f 85 21 68 bf
       -0.17055878 -0.58902377 0.6034756 -0.90676147
000010 4e 5b 1e 3f 10 6d dc 3d 64 b1 8c 3e 1a 04 0f bf
       0.6185807 0.107629895 0.27479088 -0.55865633

encoder.lstm_cells.0.conv_o.convs.<inj___-___prod>.bias f4 [8]
000000 b7 66 d5 3e 7c af 9f bb 75 46 79 3d df e1 b5 3e
       0.41679928 -0.0048732143 0.06085821 0.35523888
000010 13 d7 46 3e 24 62 89 3e d3 b4 a6 3e 77 dc 49 3e
       0.19417982 0.26832688 0.32559833 0.19713007

encoder.lstm_cells.0.conv_o.convs.<inj___-___prod>.lin_src.weight f4 [8, 8]
000000 b0 90 5e 3f 92 40 4e bf 1e 42 9d 3e d9 ae f3 bd
       0.86939526 -0.80567276 0.30714506 -0.11898584
000010 c3 a6 ca bd b4 e1 1f 3e 2e 5a 8a be 99 ab 0b 3f
       -0.098950885 0.15613443 -0.27021927 0.5455871
000020 8a 2f 01 bf 93 8a 06 be 4a d3 0b 3f 18 81 54 3e
       -0.50463164 -0.131388 0.54619277 0.2075237
000030 13 6d 06 be b9 89 eb be 42 90 24 bf bf 5e 9c 3e
       -0.13127546 -0.46003512 -0.6428262 0.30541036
000040 45 b0 22 bd 4b 36 40 3e 67 66 82 3e f9 b0 17 3f
       -0.039718885 0.18770711 0.25468752 0.59254414
000050 6e 57 52 be 6a 12 1d bf 5d 29 e8 3e 8f 7c 89 3e
       -0.20541164 -0.6135622 0.45344058 0.26852843
000060 4a 16 74 bd 0e 0e 5e bf 9b 6a c5 3e c4 a1 c6 ba
       -0.05959157 -0.86740196 0.38557896 -0.0015154411
000070 9f e8 55 be be 95 33 3e 73 88 4c bf 2c 53 2d 3f
       -0.20889519 0.17537591 -0.79895705 0.67705035
000080 4f cc 32 be 8b e4 3f 3e c2 91 98 3e e2 c0 8b bc
       -0.1746075 0.18739526 0.29798704 -0.017059747
000090 03 57 a2 3e 70 8d c0 be e3 8d 12 bf 1e 15 50 bf
       0.3170701 -0.37607908 -0.5724775 -0.8128222
0000a0 16 9c 14 3f 86 e5 eb 3d 95 27 7b be 32 d8 02 bd
       0.5805067 0.115183875 -0.24526818 -0.03194446
0000b0 01 8a 87 3e 61 77 0e bf 88 49 45 3e 2b 77 9f 3e
       0.26472476 -0.5565091 0.19266331 0.31145605
0000c0 cd 32 60 3e ee 26 d9 3e 48 0e fc 3e ad 00 c8 3d
       0.21894379 0.42412513 0.49229646 0.09765754
0000d0 c8 fa a4 3e df b7 ae 3e a8 14 a0 3d 13 8c 2a bf
       0.3222258 0.34124658 0.0781644 -0.66619986
0000e0 01 93 b0 3e e0 d2 1f bf 54 7e 01 3f f4 37 8b bd
       0.34487155 -0.62431145 0.50583386 -0.067977816
0000f0 89 40 23 be 0d ca eb be 4f cf 33 bf 52 61 44 3f
       -0.15942587 -0.4605259 -0.702382 0.76711

encoder.lstm_cells.0.conv_o.convs.<inj___-___prod>.lin_dst.weight f4 [8, 8]
000000 d2 84 88 3e 24 ab c0 3d cb ae b3 be d7 da 17 be
       0.26663834 0.094076425 -0.35094294 -0.14829575
000010 b4 1e 1d be c9 5f 34 3f 72 9f 9e be fe ee 97 3e
       -0.15343744 0.70458657 -0.30981022 0.29674524
000020 6a 90 c4 3e 49 4c 42 bf dd f2 19 be fa b8 01 be
       0.3839143 -0.7589765 -0.15034051 -0.12668219
000030 36 c9 aa be 22 27 05 3f 96 d8 ef bd c5 60 d7 3e
       -0.33356637 0.52012837 -0.11711232 0.42066017
000040 7a 43 b1 be d9 45 f1 3e 09 e4 c0 be ac 39 9c be
       -0.34621793 0.47123602 -0.37673977 -0.3051275
000050 0d 22 22 3d 61 1a 75 3e 29 b2 bc 3e 5a 3b c5 be
       0.039583255 0.23935844 0.36854675 -0.38521844
000060 04 1a c1 3c b4 12 12 bf 98 18 0a be 33 06 04 bf
       0.023571976 -0.5705979 -0.13485944 -0.5157196
000070 37 05 2a be 63 4a 2f 3f 93 d6 19 bf 36 d2 34 bf
       -0.16603552 0.6847288 -0.6009304 -0.70633256
000080 96 30 26 3e d7 d8 95 3e 39 28 54 3d cb 6d 0a 3f
       0.16229472 0.29266998 0.05179617 0.5407378
000090 46 fe c8 be ee 46 23 bf d5 6e db be e6 b4 93 3c
       -0.39256495 -0.63780105 -0.42857996 0.018030595
0000a0 09 f8 f6 bd 8b d6 0b 3f c2 b1 cd 3d 3d 2b 57 3e
       -0.12059028 0.5462424 0.1004367 0.21012588
0000b0 dd 3f 82 be 35 b6 86 3e 59 b3 0e 3f f2 27 df be
       -0.2543935 0.26310888 0.5574241 -0.43585163
0000c0 16 32 d9 bd 8b 09 b3 be 1c 2f cd 3e 40 30 0f bf
       -0.10605256 -0.34968218 0.40075004 -0.55933
0000d0 a0 2e a2 be f1 65 c3 3e 64 f4 0c bf 47 45 19 3f
       -0.31676197 0.38163713 -0.5506041 0.59871334
0000e0 2d f9 3a bb ad 7c 97 3e 6c 45 ef be 41 8b d3 3e
       -0.0028529868 0.29587308 -0.46732652 0.4131718
0000f0 ae 42 d3 3d 77 8a 98 3e 0f 8e c7 3e 02 c9 39 bf
       0.103154525 0.2979314 0.3897557 -0.7257234

encoder.lstm_cells.0.conv_o.convs.<prod___-___prod>.att_src f4 [1, 1, 8]
000000 6e 0a a1 3f 4b 76 3d 3f 42 43 10 3f e3 18 01 be
       1.2581308 0.74008626 0.5635263 -0.1260715
000010 cc 13 28 3e 86 eb 32 bb d7 9f 51 bf f6 a9 a5 3f
       0.16413802 -0.0027301027 -0.8188452 1.2942493

encoder.lstm_cells.0.conv_o.convs.<prod___-___prod>.att_dst f4 [1, 1, 8]
000000 be c1 9f 3d 1f b1 e2 be 1e 94 4c be 93 2d 10 3d
       0.07800625 -0.44275758 -0.19978377 0.035199713
000010 83 10 17 3f 0e cf ea be 69 c1 12 bf 8a 2b 87 be
       0.5900957 -0.45861095 -0.5732637 -0.26400405

encoder.lstm_cells.0.conv_o.convs.<prod___-___prod>.bias f4 [8]
000000 b7 66 d5 3e 7c af 9f bb 75 46 79 3d df e1 b5 3e
       0.41679928 -0.0048732143 0.06085821 0.35523888
000010 13 d7 46 3e 24 62 89 3e d3 b4 a6 3e 77 dc 49 3e
       0.19417982 0.26832688 0.32559833 0.19713007

encoder.lstm_cells.0.conv_o.convs.<prod___-___prod>.lin_src.weight f4 [8, 8]
000000 cd 73 6b bf 40 32 5c 3f d6 f8 16 bf ff ae 3b 3d
       -0.9197357 0.86014175 -0.58973444 0.045821186
000010 80 5f 9a 3e 49 fd 0a bf ea 5f 4c 3e f3 86 4c bf
       0.30150986 -0.5429273 0.19958463 -0.79893416
000020 83 9f 9d 3e ac ad b7 be 31 8c 15 3d df 65 82 3e
       0.3078576 -0.3587469 0.03651065 0.25468346
000030 43 d8 bc 3c fd 29 83 be ca 85 35 bd 80 d2 df bd
       0.02305234 -0.25617972 -0.044317044 -0.109288216
000040 1f 81 85 be c5 9c af be 61 25 1e bf b6 4f dc be
       -0.26075074 -0.34299293 -0.61775786 -0.43029565
000050 9d 00 53 3f 8f b7 78 3e 53 70 7e 3e 37 1b a3 3e
       0.8242281 0.24288772 0.24847536 0.318567
000060 c8 44 ef be 92 d3 ee bd 4c 73 2f bf ba df 81 3e
       -0.46732163 -0.116614476 -0.68535304 0.25366002
000070 42 b6 f9 3e db 66 31 bf 38 79 69 3e a6 7e 56 be
       0.48771864 -0.6929757 0.22800148 -0.2094675
000080 7b b7 b8 3e f7 fd 9e bd 3b 88 d9 bd 6e 61 34 3e
       0.36077484 -0.07763284 -0.10621687 0.17615291
000090 97 19 ee 3e 8a bf 24 3f c5 9e 1f 3d fd fe 04 bf
       0.46503899 0.64354765 0.038969774 -0.5195158
0000a0 b8 88 a8 be 93 a9 dd bd 4e 09 14 be a7 60 aa 3d
       -0.32916808 -0.10823359 -0.14456674 0.08319216
0000b0 97 a6 9a 3e 77 5c 38 3e e4 4c fd bd b8 de 41 bf
       0.30205223 0.18004023 -0.12368181 -0.75730467
0000c0 d1 f9 2a bf f5 81 b3 be 2e bd 0d 3d 4e 10 bc be
       -0.6678744 -0.35060087 0.034604244 -0.3673119
0000d0 1b 63 9b 3d 06 bd 81 bc 0f 38 55 bd d0 44 41 3e
       0.07587262 -0.015837204 -0.052055415 0.18873906
0000e0 97 ff 14 bf 96 fb ea 3c 4b 77 64 bf af 69 4c 3e
       -0.582025 0.028684419 -0.89244527 0.1996219
0000f0 5c cb 78 3e f8 70 5b be ef a2 95 bd d5 40 9b bd
       0.24296325 -0.21429813 -0.07306468 -0.07580725

encoder.lstm_cells.0.conv_o.convs.<prod___-___prod>.lin_dst.weight f4 [8, 8]
000000 1e 71 7e be 61 26 87 be 37 52 eb be 5b b5 91 3d
       -0.24847838 -0.26396468 -0.45961162 0.07114669
000010 ba 9e 0d bf 35 77 bf 3e 64 b0 b5 be e1 43 ab be
       -0.5532032 0.37395635 -0.35486138 -0.33450225
000020 c0 53 48 3e 0a ae 75 3d 3e 02 32 bb 69 18 28 3e
       0.19563198 0.05998043 -0.002716198 0.16415562
000030 fc 0b d5 be bb 77 d6 3e 9e 63 23 3d e8 f4 b5 be
       -0.41610706 0.41888222 0.039889924 -0.3553841
000040 88 f0 ee bd e3 50 74 3d ab cb 1b 3e 2b 81 57 3e
       -0.116669714 0.059647452 0.15214412 0.21045367
000050 65 5a bf 3e d7 c7 18 be 85 1a 54 be d1 13 4d bc
       0.37373653 -0.14919983 -0.20713241 -0.012516932
000060 6f 6f b9 be 30 55 a4 be a1 1d 0c bf e0 a1 cd 3c
       -0.3621783 -0.32096243 -0.5473271 0.025101602
000070 e0 c0 f2 3e 4e c3 83 3e e9 de b6 be 94 f4 a7 be
       0.47412777 0.25734943 -0.35716942 -0.32803786
000080 35 10 c5 be d0 3f 8c 3e 28 87 4f bd ae 04 c0 3e
       -0.38488927 0.27392435 -0.050666004 0.3750357
000090 3d 8d 26 3f 0b 82 ab 3d da ad cd 3d d2 43 8d be
       0.6505926 0.08374413 0.10042925 -0.27590805
0000a0 22 de e2 3e 72 42 dc 3d 07 67 fc be 41 a0 24 bf
       0.443101 0.10754861 -0.49297354 -0.6430703
0000b0 fb 18 47 bd 3f e0 e6 3e 0d f0 ab 3e 87 b3 3c be
       -0.048607808 0.4509296 0.33581582 -0.18427859
0000c0 63 ec ed be 91 a4 0e be 3b 6d 83 bc df 9c b1 bd
       -0.4646941 -0.13929965 -0.016043296 -0.08672499
0000d0 db d8 68 be 05 f8 2c 3f bd 62 aa 3d d1 6a 1a 3f
       -0.22738974 0.6756595 0.08319614 0.6031924
0000e0 fe 02 98 be 81 ce 0e 3e 90 b5 e1 3d a7 c8 0e bf
       -0.29689783 0.13945962 0.110209584 -0.5577492
0000f0 ed 46 84 3e a1 82 d0 be 82 4a 0d 3f d7 d4 40 3e
       0.25835362 -0.40724662 0.55191815 0.18831192

encoder.lstm_cells.0.conv_o.convs.<inj___-___inj>.att_src f4 [1, 1, 8]
000000 d0 66 a2 be 71 e1 2a bb 44 6f 83 3f 92 cc bd be
       -0.31719065 -0.0026074315 1.026833 -0.37070137
000010 fd 1b 04 3f 7c 52 3a 3f 67 b5 05 3f 75 c0 2c bf
       0.51605207 0.7278211 0.52229923 -0.67481166

encoder.lstm_cells.0.conv_o.convs.<inj___-___inj>.att_dst f4 [1, 1, 8]
000000 5a 00 be 3e 4c 2a eb 3e c5 62 8e 3e 20 b9 23 be
       0.37109643 0.45930707 0.2780973 -0.15988588
000010 04 07 12 be 6e 67 29 3e 83 ce 7d bd 4b 79 a1 be
       -0.14260489 0.16543362 -0.061964523 -0.31537852

encoder.lstm_cells.0.conv_o.convs.<inj___-___inj>.bias f4 [8]
000000 ee a9 8e 3e 37 2d b8 3d 58 5e 09 3e d7 53 e8 3e
       0.2786402 0.08992999 0.13414896 0.45376465
000010 5c 73 3f 3e 2e 53 62 3d 92 94 f6 3e cb b3 4d 3e
       0.1869635 0.055255108 0.48160225 0.20088117

encoder.lstm_cells.0.conv_o.convs.<inj___-___inj>.lin_src.weight f4 [8, 8]
000000 f8 70 d4 3e 27 86 e5 bd 2d 07 13 be c8 05 90 bd
       0.41492438 -0.11207228 -0.14358206 -0.07032353
000010 2c 2d 94 3d d2 6c 39 be f8 03 3f 3e b8 bc 62 be
       0.07235178 -0.18107918 0.18653858 -0.22142303
000020 b2 93 54 bc c3 05 80 bd 11 7a 9f 3e 3e ac eb be
       -0.012974666 -0.06251099 0.31147817 -0.46029848
000030 8f 96 07 bf 09 d3 86 3e e0 c0 57 be 06 e9 16 3d
       -0.5296411 0.26332882 -0.2106967 0.036843322
000040 9f fa fa bd e8 74 33 3e 14 64 dd 3e dd 70 9d be
       -0.122548334 0.17525065 0.43240416 -0.3075017
000050 7a 0a 93 be 6a 90 95 3e 59 bb 5f 3e 8e d2 52 bd
       -0.2871893 0.29211742 0.21848811 -0.05147033
000060 ee 73 dd bd 35 cb 22 3e 01 3a f0 bd db d9 0b bf
       -0.108131275 0.1589783 -0.11729813 -0.54629296
000070 f9 7f 24 bf e8 71 04 3e 02 e1 04 3e 09 d0 01 bd
       -0.6425777 0.12934077 0.12976459 -0.03169254
000080 ec de 59 3f f9 95 b7 be 47 e5 85 be 2a a8 42 bb
       0.85105777 -0.35856608 -0.26151487 -0.0029702284
000090 7e a4 a0 be 05 b5 93 3d 21 a9 d4 3d 2a 4f cc 3e
       -0.31375498 0.07212261 0.10383821 0.39904147
0000a0 01 f1 21 3f fb 2f 62 3d e7 4b 33 3e ed bd 91 be
       0.6325837 0.05522154 0.17509423 -0.28465214
0000b0 23 c4 ee bd b5 99 2c 3f ed ba b1 3b 63 99 d3 3e
       -0.11658504 0.6742204 0.0054238946 0.41327962
0000c0 f5 41 4c 3f 9e 57 7c 3d b1 6d ff 3c 0a d1 9b 3e
       0.7978814 0.061606996 0.031180235 0.30432922
0000d0 1c 3f 31 bf a3 68 1b 3f 93 35 04 3d 5d ec 07 3f
       -0.6923692 0.6070654 0.032277655 0.53095037
0000e0 c2 cd 89 be 29 d8 85 be 68 05 19 3f fc ac f4 bc
       -0.26914793 -0.2614148 0.59773874 -0.029867642
0000f0 24 50 c1 3e 0b 21 77 3e 8e 33 19 bf 15 91 94 3d
       0.37756455 0.24133699 -0.5984429 0.07254235
