fitted_models/model_seq2seq_GAT_RN_one_step_GRU_no_water.pth (torch, 65782 bytes, 117 tensors)

encoder.lstm_cells.0.conv_z.convs.<inj___-___prod>.att_src f4 [1, 1, 8]
0.956698 0.7974977 -0.10859359 0.82734275 -0.30182382 0.027647408 -0.59087926 0.7145302
00000000: 29ea 743f cf28 4c3f 5166 debd bccc 533f
00000010: a788 9abe d17c e23c dd43 17bf 74eb 363f

encoder.lstm_cells.0.conv_z.convs.<inj___-___prod>.att_dst f4 [1, 1, 8]
0.6856404 -0.54433656 0.7486688 0.11834326 0.5745181 0.081806004 0.42650586 -0.152422
00000000: 2186 2f3f a459 0bbf c2a8 3f3f f35d f23d
00000010: 9e13 133f e889 a73d fa5e da3e 8314 1cbe

encoder.lstm_cells.0.conv_z.convs.<inj___-___prod>.bias f4 [8]
-0.26736355 -0.03311937 0.24543357 0.0994584 -0.3450305 -0.2934638 0.35298225 -0.17371112
00000000: e0e3 88be 2da8 07bd f052 7b3e d8b0 cb3d
00000010: d6a7 b0be e340 96be 17ba b43e 54e1 31be

encoder.lstm_cells.0.conv_z.convs.<inj___-___prod>.lin_src.weight f4 [8, 8]
-0.16496268 -0.3318866 -0.24216977 0.21902157 -0.7666836 0.089963935 -0.68634576 -0.3067501
-0.3671546 0.35788423 -0.69681734 0.6246201 -0.27800402 -0.26402467 0.08281268 0.042068433
0.2255171 0.62140864 -0.42295778 0.28882325 -0.08219555 -0.07214012 -0.10149425 0.38355225
-0.58054405 0.20519918 0.88117343 0.2743838 -0.29967123 -0.85550845 -0.25254664 -0.3053729
0.54980314 -0.374474 -0.05923553 -0.26295274 0.4417591 0.9106593 0.36978287 0.2303954
0.57690823 0.37499553 -0.2873705 -0.078918666 0.37097067 -0.10145302 0.36939386 -0.18746357
-0.5466802 0.38718054 0.24129911 0.06364871 0.613545 0.45171463 0.56704587 -0.072855815
-0.62550867 -0.3656932 -0.32465297 -0.51093566 -0.5945986 -0.8499548 -0.9113002 -0.2753093
00000000: faeb 28be 0aed a9be 5afb 77be 3147 603e
00000010: 6045 44bf 033f b83d 5bb4 2fbf 590e 9dbe
00000020: b0fb bbbe 9a3c b73e 9f62 32bf 1ae7 1f3f
00000030: 8b56 8ebe 3e2e 87be b299 a93d f34f 2c3d
00000040: f4ed 663e a314 1f3f ec8d d8be a4e0 933e
00000050: 2456 a8bd 33be 93bd 38dc cfbd f660 c43e
00000060: 899e 14bf bc1f 523e 9594 613f 097c 8c3e
00000070: 826e 99be 9a02 5bbf cb4d 81be d659 9cbe
00000080: e6bf 0c3f 0ebb bfbe f5a0 72bd bea1 86be
00000090: 402e e23e f820 693f 2e54 bd3e c6ec 6b3e
000000a0: 42b0 133f 6aff bf3e 3a22 93be 1ca0 a1bd
000000b0: deef bd3e 9ac6 cfbd 3121 bd3e 73f6 3fbe
000000c0: 3cf3 0bbf 873c c63e 1d17 773e 415a 823d
000000d0: 4911 1d3f 2447 e73e eb29 113f 6e35 95bd
000000e0: 5621 20bf 243c bbbe ea38 a6be aecc 02bf
000000f0: 9d37 18bf a396 59bf f84a 69bf 57f5 8cbe

encoder.lstm_cells.0.conv_z.convs.<inj___-___prod>.lin_dst.weight f4 [8, 8]
-0.5715299 -0.3435489 0.26480052 0.4750692 -0.14072372 -0.20154586 0.2957281 -0.33169475
-0.3214535 0.3452304 -0.56461954 0.110242866 0.5001066 0.12829953 0.1975297 -0.32728976
0.02466329 0.06694368 0.182441 0.20120709 0.5750491 -0.4914439 -0.0138013335 -0.33637142
-0.45410606 -0.01854334 -0.50948524 0.39376792 0.10892478 -0.35226065 0.29053748 -0.6074985
-0.20472485 -0.08699544 -0.48909533 -0.4250549 -0.05855408 0.44125223 0.5601171 0.36008847
-0.3356967 -0.37048402 0.5636087 0.18339422 0.053505223 0.06091205 -0.52129656 -0.23207578
0.6228647 -0.11748781 0.0016478823 -0.54549193 -0.29928896 -0.036698196 -0.4127994 -0.1065933
0.21390478 -0.6344626 0.14790758 -0.36579263 -0.34466672 0.26048034 0.52117306 -0.13499786
00000000: c94f 12bf a4e5 afbe ef93 873e 453c f33e
00000010: e119 10be 0a62 4ebe ac69 973e e5d3 a9be
00000020: 8e95 a4be 0ac2 b03e e88a 10bf 03c7 e13d
00000030: fc06 003f f460 033e 3a45 4a3e 8692 a7be
00000040: ab0a ca3c c519 893d d0d1 3a3e 3b09 4e3e
00000050: 6b36 133f 899e fbbe fd1e 62bc e038 acbe
00000060: 9780 e8be 34e8 97bc a06d 02bf f39b c93e
00000070: f413 df3d 825b b4be 54c1 943e 0685 1bbf
00000080: 64a3 51be aa2a b2bd b46a fabe cca0 d9be
00000090: 67d6 6fbd d0eb e13e d663 0f3f 845d b83e
000000a0: 70e0 abbe 15b0 bdbe a948 103f b2cb 3b3e
000000b0: 4b28 5b3d ea7e 793d b173 05bf 46a5 6dbe
000000c0: 1074 1f3f 739d f0bd c1fd d73a 5ca5 0bbf
000000d0: 673c 99be d950 16bd 715a d3be 974d dabd
000000e0: db09 5b3e 246c 22bf 1675 173e 2c49 bbbe
000000f0: 2878 b0be ae5d 853e 996b 053f e13c 0abe

encoder.lstm_cells.0.conv_z.convs.<prod___-___prod>.att_src f4 [1, 1, 8]
0.9905747 0.51976395 -0.6018376 0.4592475 -0.56846535 0.15616615 -0.047672905 0.62877566
00000000: 4e96 7d3f 400f 053f 0712 1abf 7d22 eb3e
00000010: f286 11bf 05ea 1f3e aa44 43bd 71f7 203f

encoder.lstm_cells.0.conv_z.convs.<prod___-___prod>.att_dst f4 [1, 1, 8]
-0.59920794 -0.32631668 -0.17443284 -0.46302912 0.020069256 -0.88968897 0.73704034 -0.7675227
00000000: b165 19bf fb12 a7be 869e 32be 2712 edbe
00000010: 4868 a43c a8c2 63bf adae 3c3f 5e7c 44bf

encoder.lstm_cells.0.conv_z.convs.<prod___-___prod>.bias f4 [8]
-0.26736355 -0.03311937 0.24543357 0.0994584 -0.3450305 -0.2934638 0.35298225 -0.17371112
00000000: e0e3 88be 2da8 07bd f052 7b3e d8b0 cb3d
00000010: d6a7 b0be e340 96be 17ba b43e 54e1 31be

encoder.lstm_cells.0.conv_z.convs.<prod___-___prod>.lin_src.weight f4 [8, 8]
-0.0720923 -0.8063308 -0.51880497 -0.72566 -0.55230767 0.1953041 -0.2770142 0.90567595
0.43198973 -0.77072567 -0.34822363 0.13207532 -0.28015435 -0.20560558 -0.16671321 0.73123175
-0.61619234 0.5448434 0.24582724 0.2981763 0.6954992 -0.1872486 -0.5289077 -0.12400156
0.8315685 -0.14783758 0.3488542 -0.9429377 0.6218066 0.017014876 -0.18064101 -0.018868366
-0.25009558 0.09172295 -0.64503086 0.18143994 -0.015731974 0.897825 0.47549596 -0.1841469
0.31467214 -0.3841472 -0.3330334 -0.3976417 -0.389513 0.5112742 0.3288271 -0.07479097
0.62848854 0.129453 0.7369254 -0.9389511 0.13227521 -0.87331444 -0.4699432 -0.12435202
0.8802985 0.2986746 0.63509315 -0.2318863 0.53711003 0.7966943 0.5806229 -0.40233904
00000000: 21a5 93bd b26b 4ebf 67d0 04bf dbc4 39bf
00000010: 0964 0dbf ccfd 473e ced4 8dbe 61da 673f
00000020: c22d dd3e 474e 45bf 5e4a b2be c13e 073e
00000030: 6470 8fbe 458a 52be deb6 2abe 0132 3b3f
00000040: c8be 1dbf db7a 0b3f 23ba 7b3e 90aa 983e
00000050: 3c0c 323f 19be 3fbe 7f66 07bf 88f4 fdbd
00000060: ace1 543f bc62 17be 059d b23e 5d64 71bf
00000070: b82e 1f3f c862 8b3c f5f9 38be d591 9abc
00000080: 870c 80be 3ed9 bb3d be20 25bf 64cb 393e
00000090: 57e0 80bc dcd7 653f 3574 f33e 0191 3cbe
000000a0: b51c a13e f1ae c4be 5b83 aabe b197 cbbe
000000b0: 3f6e c7be dee2 023f 075c a83e 022c 99bd
000000c0: a0e4 203f 548f 043e 25a7 3c3f 195f 70bf
000000d0: 2773 073e 8991 5fbf 659c f0be 46ac febd
000000e0: 3e5b 613f e1eb 983e 7795 223f 9a73 6dbe
000000f0: 0b80 093f 28f4 4b3f b4a3 143f 62ff cdbe

encoder.lstm_cells.0.conv_z.convs.<prod___-___prod>.lin_dst.weight f4 [8, 8]
0.50441974 0.44233316 -0.21570663 -0.26962548 -0.45681778 0.0854185 -0.5517985 0.19413857
0.1373894 -0.46357328 0.23501699 -0.028668268 0.33387154 0.28628588 -0.6633651 0.4998742
0.46143094 0.30918157 -0.4948733 -0.20175232 -0.12621689 -0.21896124 0.2919517 0.16414295
0.4270714 -0.15866034 0.27617657 0.2399441 -0.45364568 -0.6616853 -0.37355027 0.35521188
-0.5432762 -0.58422554 0.29469293 0.3298143 0.46726936 -0.41800335 -0.40700054 0.35557944
0.4690429 0.4423878 0.17103672 0.22708097 0.6425296 -0.46911988 -0.33763352 0.35880822
-0.358372 -0.41108257 0.37453106 0.16957383 0.13903333 -0.18872137 0.04868175 0.6271705
-0.43110442 0.080689445 0.3663576 -0.3974114 0.6560055 -0.3798862 -0.20708519 -0.23522007
00000000: a721 013f 7e79 e23e 33e2 5cbe 5a0c 8abe
00000010: 05e4 e9be e5ef ae3d ab42 0dbf 43cc 463e
00000020: cfaf 0c3e 7a59 edbe 4ba8 703e b7d9 eabc
00000030: 36f1 aa3e 1094 923e 4cd2 29bf 83ef ff3e
00000040: ad40 ec3e 0c4d 9e3e 0860 fdbe 2998 4ebe
00000050: 003f 01be 6037 60be b17a 953e 1715 283e
00000060: 1aa9 da3e db77 22be 0467 8d3e e8b3 753e
00000070: 3f44 e8be 3564 29bf fb41 bfbe 55de b53e
00000080: 2614 0bbf ce8f 15bf fee1 963e 6cdd a83e
00000090: ee3d ef3e 8904 d6be 6062 d0be 820e b63e
000000a0: 6426 f03e a780 e23e 4024 2f3e ea87 683e
000000b0: d27c 243f 7b30 f0be 4dde acbe b6b5 b73e
000000c0: 897c b7be 6a79 d2be 89c2 bf3e c3a4 2d3e
000000d0: c15e 0e3e 2d40 41be 8466 473d 3f8e 203f
000000e0: b8b9 dcbe 8240 a53d 3993 bb3e 8279 cbbe
000000f0: faef 273f 7280 c2be 240e 54be 88dd 70be

encoder.lstm_cells.0.conv_z.convs.<inj___-___inj>.att_src f4 [1, 1, 8]
0.54641515 0.09915544 -0.27964172 0.5106854 0.14383672 0.63875175 0.11539578 -0.24120787
00000000: dde1 0b3f 0212 cb3d 332d 8fbe 47bc 023f
00000010: ef49 133e 3c85 233f 9f54 ec3d 32ff 76be

encoder.lstm_cells.0.conv_z.convs.<inj___-___inj>.att_dst f4 [1, 1, 8]
0.21937965 -0.22141708 0.34362876 0.72898626 0.47198364 -0.35695004 0.47133464 0.14609273
00000000: 0fa5 603e 29bb 62be 1cf0 af3e d89e 3a3f
00000010: d7a7 f13e 28c2 b6be c652 f13e 5599 153e

encoder.lstm_cells.0.conv_z.convs.<inj___-___inj>.bias f4 [8]
0.1631151 0.32551688 -0.027380602 -0.047107924 0.18238008 -0.30275157 0.41096726 -0.2753821
00000000: a507 273e 26aa a63e 494d e0bc 3df4 40bd
00000010: d8c1 3a3e 4102 9bbe 4d6a d23e e2fe 8cbe

encoder.lstm_cells.0.conv_z.convs.<inj___-___inj>.lin_src.weight f4 [8, 8]
-0.5099497 -0.48898888 0.47738495 0.096373565 -0.6689495 -0.49366537 0.52300394 0.30665743
0.10023353 -0.18426956 -0.147167 -0.22853678 -0.2890677 -0.61065966 -0.08352529 0.2927406
-0.069919094 0.07497211 -0.28672674 0.1050179 0.26839808 -0.2784047 -0.59586555 0.2972767
0.1740407 -0.32223457 0.5329265 -0.20103297 0.41556346 0.30298516 -0.5007414 0.45634526
-0.426332 -0.46345052 -0.22825335 -0.37056312 0.7709866 0.051473927 0.3844708 -0.6476272
0.49978057 -0.3339654 -0.498416 -0.08328001 0.50907505 0.74539644 -0.19650492 -0.4951494
-0.11477411 0.40379453 0.5470833 0.07544836 -0.35475644 0.09635755 0.2752288 0.06005704
0.5654864 0.18910357 0.36968738 -0.43712226 -0.1127485 0.02406973 0.18053403 0.22645178
00000000: 108c 02bf c05c fabe cd6b f43e 815f c53d
00000010: 4640 2bbf b5c1 fcbe 96e3 053f 3402 9d3e
00000020: 3d47 cd3d 29b1 3cbe f2b2 16be 8c05 6abe
00000030: ae00 94be 3154 1cbf 4f0f abbd 19e2 953e
00000040: be31 8fbd fa8a 993d d9cd 92be a013 d73d
00000050: 796b 893e 108b 8ebe a58a 18bf a734 983e
00000060: ba37 323e eefb a4be df6d 083f 96db 4dbe
00000070: bcc4 d43e df20 9b3e 9730 00bf 16a6 e93e
00000080: 3048 dabe 6349 edbe 3fbb 69be 73ba bdbe
00000090: 615f 453f 53d6 523d 5bd9 c43e e5ca 25bf
000000a0: 3de3 ff3e 83fd aabe 6230 ffbe b68e aabd
000000b0: be52 023f 4dd2 3e3f 9638 49be 3984 fdbe
000000c0: b00e ebbd 28be ce3e a70d 0c3f ab84 9a3d
000000d0: a3a2 b5be 1b57 c53d caea 8c3e 5ffe 753d
000000e0: b7c3 103f 5ea4 413e aa47 bd3e 7dce dfbe
000000f0: b0e8 e6bd e22d c53c eadd 383e fae2 673e

encoder.lstm_cells.0.conv_z.convs.<inj___-___inj>.lin_dst.weight f4 [8, 8]
-0.34958056 0.3065867 -0.21946289 0.3699399 -0.029073844 -0.5364915 -0.33695543 -0.4432058
0.30371377 -0.41062525 -0.051021803 0.13212292 -0.3358218 0.1766511 -0.5979348 -0.43815768
-0.554885 -0.18522881 -0.22308569 0.08768768 -0.11323656 0.2878653 0.56142026 0.2197138
-0.24125493 -0.57341677 0.2218025 -0.30340478 0.31162184 0.4093617 0.23620433 0.57459563
0.58162916 0.12966368 -0.44619706 0.54711884 -0.29056814 -0.28925633 0.5124202 0.4744725
0.18502915 0.03838579 -0.51510686 -0.06356679 0.58734256 0.15594608 0.0524303 -0.12715977
-0.21358472 0.3649879 0.03776405 0.39839372 -0.10838916 0.26755115 0.25276893 0.09765148
0.38479835 0.3837407 0.5676223 0.4707772 -0.1565816 -0.5184469 0.111952364 -0.005344904
00000000: 39fc b2be eff8 9c3e e1ba 60be c368 bd3e
00000010: 452c eebc 8257 09bf 6c85 acbe dfeb e2be
00000020: 5f80 9b3e 793d d2be 3dfc 50bd 3b4b 073e
00000030: d6f0 abbe 07e4 343e 4112 19bf 3456 e0be
00000040: f20c 0ebf 9fac 3dbe 9370 64be 9995 b33d
00000050: 92e8 e7bd 1563 933e 3db9 0f3f a8fc 603e
00000060: 880b 77be 71cb 12bf 3220 633e df57 9bbe
00000070: e68c 9f3e db97 d13e 8cdf 713e b318 133f
00000080: a6e5 143f 8ec6 043e f173 e4be fb0f 0c3f
00000090: 59c5 94be 6819 94be f82d 033f 0fee f23e
000000a0: 4878 3d3e 6b3a 1d3d 0bde 03bf 4e2f 82bd
000000b0: 155c 163f 54b0 1f3e 27c1 563d 2c36 02be
000000c0: f4b5 5abe b2df ba3e 7aae 1a3d 43fa cb3e
000000d0: 23fb ddbd 77fc 883e ee6a 813e 80fd c73d
000000e0: 4a04 c53e a979 c43e b24f 113f b609 f13e
000000f0: ed56 20be f0b8 04bf 4847 e53d 4e24 afbb

encoder.lstm_cells.0.W_z.inj f4 [1, 8]
-0.21049999 0.39252028 0.2986135 0.56710255 0.7117461 -0.43388748 0.3219366 -0.19806714
00000000: 4f8d 57be 6bf8 c83e dee3 983e a22d 113f
00000010: fe34 363f 8026 debe e0d4 a43e 1dd2 4abe

encoder.lstm_cells.0.W_z.prod f4 [1, 8]
0.03712371 -0.3170841 1.1351477 -0.9236925 0.19945368 0.18930317 0.5968637 -0.7644439
00000000: 080f 183d d958 a2be 854c 913f 1d77 6cbf
00000010: 963d 4c3e b1d8 413e 0fcc 183f 98b2 43bf

encoder.lstm_cells.0.b_z.inj f4 [1, 8]
0.6850256 1.0272133 -0.10821152 -0.22991943 0.19429457 -0.35150284 0.60726285 -0.04657227
00000000: d65d 2f3f ba7b 833f 009e ddbd 0070 6bbe
00000010: 28f5 463e 2ef8 b3be 9475 1b3f 91c2 3ebd

encoder.lstm_cells.0.b_z.prod f4 [1, 8]
-1.0089499 -0.33443773 0.9330281 0.4175278 -0.38564095 -0.78573406 -0.14655516 -0.9051008
00000000: 4525 81bf 6c3b abbe eeda 6e3f 34c6 d53e
00000010: bb72 c5be de25 49bf 8e12 16be b0b4 67bf

encoder.lstm_cells.0.conv_r.convs.<inj___-___prod>.att_src f4 [1, 1, 8]
0.35088775 -0.48689464 -0.8821718 -0.17660727 -0.69562674 0.71479684 0.493081 0.35607067
00000000: 8fa7 b33e 414a f9be 03d6 61bf 89d8 34be
00000010: 9814 32bf edfc 363f 1d75 fc3e e54e b63e

encoder.lstm_cells.0.conv_r.convs.<inj___-___prod>.att_dst f4 [1, 1, 8]
0.23585045 -0.051556926 0.5527672 -0.52404314 0.11828869 -0.6166064 0.23317786 -0.35032544
00000000: c882 713e 5b2d 53bd 2782 0d3f b127 06bf
00000010: 5741 f23d ebd9 1dbf 2dc6 6e3e db5d b3be

encoder.lstm_cells.0.conv_r.convs.<inj___-___prod>.bias f4 [8]
0.27695733 0.27933577 0.15213995 0.1877667 0.124206886 0.12045351 0.06766403 0.07816564
00000000: 5acd 8d3e 1905 8f3e 93ca 1b3e ea45 403e
00000010: 2e60 fe3d 54b0 f63d 7093 8a3d 4f15 a03d

encoder.lstm_cells.0.conv_r.convs.<inj___-___prod>.lin_src.weight f4 [8, 8]
-0.4017793 0.14138593 0.2626128 0.40229836 -0.09265872 -0.51269776 -0.52649015 0.09690067
-0.42075625 0.72771657 0.4952735 0.4455679 -0.19479546 -0.07100829 0.02260693 -0.40198594
0.0063304757 0.010646713 -0.32186288 -0.44966492 0.48441038 0.44390777 0.22903745 0.65414953
-0.3825822 0.024864992 0.37104547 -0.120141335 -0.25569642 -0.6444567 0.034705512 -0.2551604
-0.113891244 0.7376824 -0.07137502 -0.24683551 0.23115464 -0.36780187 -0.1818171 0.6581342
-0.33440733 -0.35136548 -0.25262427 -0.20829006 -0.38558772 -0.41651902 0.15723856 0.1651408
-0.2954476 -0.37277532 -0.09212652 -0.3374282 -0.31171596 -0.6648021 0.026145568 -0.36895344
-0.5159344 -0.46808124 0.341801 -0.46911776 -0.27963388 0.4473524 0.31158292 0.3343459
00000000: 04b6 cdbe 79c7 103e 2f75 863e 0dfa cd3e
00000010: dbc3 bdbd 2940 03bf 0fc8 06bf dc73 c63d
00000020: 5d6d d7be a24b 3a3f 7d94 fd3e 7a21 e43e
00000030: 7678 47be cb6c 91bd 2b32 b93c 1ad1 cdbe
00000040: e16f cf3b 8d6f 2e3c 36cb a4be 7b3a e6be
00000050: a304 f83e e147 e33e cb88 6a3e 5876 273f
00000060: d0e1 c3be abb1 cb3c acf9 bd3e a90c f6bd
00000070: a4ea 82be 1dfb 24bf 5e27 0e3d 62a4 82be
00000080: d03f e9bd c1d8 3c3f 112d 92bd 73c2 7cbe
00000090: cdb3 6c3e 8750 bcbe 432e 3abe 7c7b 283f
000000a0: 7037 abbe 2de6 b3be f857 81be fd49 55be
000000b0: c16b c5be fb41 d5be 2503 213e ab1a 293e
000000c0: e844 97be 68dc bebe d4ac bcbd 64c3 acbe
000000d0: 3c99 9fbe 7830 2abf 3b2f d63c 77e7 bcbe
000000e0: 4714 04bf 58a8 efbe 8a00 af3e 3430 f0be
000000f0: 2c2c 8fbe 600b e53e cc87 9f3e 632f ab3e

encoder.lstm_cells.0.conv_r.convs.<inj___-___prod>.lin_dst.weight f4 [8, 8]
-0.5537952 -0.36828223 -0.14558855 0.46802467 0.15216716 -0.4901293 -0.06817196 -0.5633599
-0.17593564 -0.26815653 0.40768167 0.23945044 -0.22005261 0.16455914 -0.072359644 0.34493837
0.2730096 0.23647626 -0.15224135 0.4812719 0.0008299703 -0.2750933 0.3102981 0.4124753
0.5791006 0.109274745 -0.29557928 0.3517837 0.4356754 -0.5645942 -0.002410468 -0.33036938
0.14478417 0.3369216 -0.023484584 -0.09249501 0.3769332 -0.14300467 -0.60028905 0.39187968
-0.33823913 -0.14241922 -0.033341393 0.0040639825 -0.6691243 0.31763837 -0.2015114 -0.22708261
0.17438684 -0.24478029 -0.19207561 -0.24437457 -0.13945341 -0.29188764 -0.2410658 0.07089172
-0.52542925 -0.44701716 -0.08393062 0.12591386 0.24368039 -0.39370844 0.2733875 0.4402433
00000000: 86c5 0dbf 7d8f bcbe 2a15 15be eea0 ef3e
00000010: b5d1 1b3e 3af2 fabe be9d 8bbd 5b38 10bf
00000020: 7928 34be d04b 89be a7bb d03e 7f32 753e
00000030: 7955 61be 3182 283e 4b31 94bd c39b b03e
00000040: eac7 8b3e d526 723e 28e5 1bbe 4569 f63e
00000050: 5d92 593a 07d9 8cbe 64df 9e3e f62f d33e
00000060: f03f 143f 70cb df3d 2b56 97be fe1c b43e
00000070: d910 df3e 3f89 10bf f1f8 1dbb 2d26 a9be
00000080: 4d42 143e fd80 ac3e be62 c0bc 066e bdbd
00000090: 63fd c03e d16f 12be 8bac 19bf 74a4 c83e
000000a0: ae2d adbe 58d6 11be fc90 08bd 282b 853b
000000b0: bb4b 2bbf 7fa1 a23e 0159 4ebe 5888 68be
000000c0: 7792 323e afa7 7abe 78af 44be 543d 7abe
000000d0: e0cc 0ebe 4c72 95be f4d9 76be ae2f 913d
000000e0: 8882 06bf 6fdf e4be d1e3 abbd 90ef 003e
000000f0: 5a87 793e 2794 c9be 72f9 8b3e 9267 e13e

encoder.lstm_cells.0.conv_r.convs.<prod___-___prod>.att_src f4 [1, 1, 8]
0.1406714 -0.013544362 0.55056053 -0.4040811 -0.30655003 -0.40811408 0.6842351 0.16154052
00000000: 2a0c 103e 2ce9 5dbc 89f1 0c3f b8e3 cebe
00000010: 20f4 9cbe 54f4 d0be 082a 2f3f e16a 253e

encoder.lstm_cells.0.conv_r.convs.<prod___-___prod>.att_dst f4 [1, 1, 8]
0.7262983 -0.73931324 -0.75378656 -0.71166867 -0.5901708 0.44908127 0.27877858 0.6203797
00000000: afee 393f a243 3dbf 28f8 40bf eb2f 36bf
00000010: 6f15 17bf fbed e53e 11bc 8e3e 34d1 1e3f

encoder.lstm_cells.0.conv_r.convs.<prod___-___prod>.bias f4 [8]
0.27695733 0.27933577 0.15213995 0.1877667 0.124206886 0.12045351 0.06766403 0.07816564
00000000: 5acd 8d3e 1905 8f3e 93ca 1b3e ea45 403e
00000010: 2e60 fe3d 54b0 f63d 7093 8a3d 4f15 a03d

encoder.lstm_cells.0.conv_r.convs.<prod___-___prod>.lin_src.weight f4 [8, 8]
0.4873387 -0.29375175 -0.00697665 -0.718659 -0.084631965 0.14627703 -0.3463994 -0.033965636
-0.08785431 0.38136762 -0.1487089 0.010856469 0.040683363 -0.37604517 -0.76346207 -0.29400572
0.7077196 0.42103818 -0.2538174 -0.10908449 0.12427924 -0.4928429 0.3877048 -0.15564796
0.24949858 -0.072710246 -0.1735831 -0.049290154 0.4381108 -0.074270844 -0.48216096 0.40458813
-0.20736697 -0.26393375 -0.35560143 0.7390949 0.15757309 -0.104376614 -0.31957248 -0.27261347
-0.41514665 -0.37913227 0.4362272 0.3993443 0.76742244 -0.405086 0.24745694 -0.50716615
0.48465273 0.5375483 0.5609811 0.29637575 0.50210845 0.017737389 0.22040987 -0.31279007
0.16899197 -0.1542572 -0.07760898 -0.41358623 -0.043330386 -0.39886492 -0.24322267 -0.45161614
00000000: 7584 f93e a166 96be 629c e4bb 09fa 37bf
00000010: 8653 adbd a5c9 153e 435b b1be 8d1f 0bbd
00000020: f6ec b3bd 9e42 c33e 2547 18be 55df 313c
00000030: 99a3 263d fe88 c0be 4072 43bf eb87 96be
00000040: 1d2d 353f 5192 d73e 5bf4 81be b067 dfbd
00000050: 1d86 fe3d e855 fcbe 3e81 c63e 2e62 1fbe
00000060: 8e7c 7f3e 1ce9 94bd c5bf 31be 79e4 49bd
00000070: 0f50 e03e 501b 98bd cddd f6be 2d26 cf3e
00000080: 0258 54be 5322 87be 6411 b6be 5335 3d3f
00000090: d75a 213e 68c3 d5bd 019f a3be fe93 8bbe
000000a0: 1a8e d4be a01d c2be 2c59 df3e db76 cc3e
000000b0: cc75 443f 6f67 cfbe 5a65 7d3e a4d5 01bf
000000c0: 6724 f83e c49c 093f 759c 0f3f 90be 973e
000000d0: 2e8a 003f 004e 913c 20b3 613e 0526 a0be
000000e0: 3b0c 2d3e 99f5 1dbe 75f1 9ebd 93c1 d3be
000000f0: 347b 31bd 0638 ccbe 5d0f 79be 3b3a e7be

encoder.lstm_cells.0.conv_r.convs.<prod___-___prod>.lin_dst.weight f4 [8, 8]
-0.51503074 0.0777911 0.42991406 0.5087073 0.44551027 -0.22843948 -0.6025004 0.17846315
0.30595282 -0.5651324 0.18434925 0.56998414 -0.054664396 -0.46538085 0.49693388 0.3157911
0.36967587 -0.45213887 0.32349327 -0.36867878 0.5172055 -0.35026917 0.3654514 0.17602028
0.1262663 -0.13218625 0.21682444 -0.20470218 -0.6688211 -0.33110163 0.47422624 -0.10765958
0.15615593 -0.2649351 0.42482048 0.41743356 0.1250997 -0.40842456 -0.50552964 0.07667836
-0.31976226 0.54524 -0.55020165 0.21809733 0.7051792 0.40763703 0.21533555 -0.64591736
0.6255228 -0.06620778 -0.53942573 0.55443317 -0.16132092 0.045922365 0.5633771 -0.47856885
-0.39693257 0.13804092 -0.049155694 0.09106204 -0.4253441 0.108018786 -0.2693519 -0.35504153
00000000: 0ed9 03bf f150 9f3d b21d dc3e a43a 023f
00000010: ec19 e43e 0aec 69be 773d 1abf 0bbf 363e
00000020: d9a5 9c3e 84ac 10bf 0dc6 3c3e 7bea 113f
00000030: c6e7 5fbd 6646 eebe 1e6e fe3e 5faf a13e
00000040: 2846 bd3e bf7e e7be e9a0 a53e 77c3 bcbe
00000050: 9467 043f 7b56 b3be 721c bb3e a93e 343e
00000060: f44b 013e d55b 07be 3a07 5e3e 739d 51be
00000070: dc37 2bbf 2786 a9be c8cd f23e a07c dcbd
00000080: 57e7 1f3e 93a5 87be 1282 d93e dab9 d53e
00000090: 231a 003e 061d d1be 646a 01bf 8b09 9d3d
000000a0: e1b7 a3be d994 0b3f 04da 0cbf e854 5f3e
000000b0: a086 343f cdb5 d03e ec80 5c3e d75a 25bf
000000c0: 4322 203f f297 87bd ce17 0abf 55ef 0d3f
000000d0: 5031 25be 1719 3c3d 7b39 103f fa06 f5be
000000e0: bf3a cbbe 995a 0d3e 7b57 49bd bc7e ba3d
000000f0: b4c6 d9be f438 dd3d 7ee8 89be 01c8 b5be

encoder.lstm_cells.0.conv_r.convs.<inj___-___inj>.att_src f4 [1, 1, 8]
-0.3161247 -0.4635453 0.5508179 -0.4641057 0.6245383 -0.09071348 0.45668235 -0.7437428
00000000: 19db a1be cf55 edbe 6702 0d3f 439f edbe
00000010: bee1 1f3f fdc7 b9bd 45d2 e93e ee65 3ebf

encoder.lstm_cells.0.conv_r.convs.<inj___-___inj>.att_dst f4 [1, 1, 8]
-0.41204083 0.24893609 0.17260583 -0.208171 0.48669228 0.55506337 -0.5921003 -0.4359096
00000000: 04f7 d2be 1ae9 7e3e 95bf 303e c72a 55be
00000010: bb2f f93e a218 0e3f e393 17bf 8b2f dfbe

encoder.lstm_cells.0.conv_r.convs.<inj___-___inj>.bias f4 [8]
0.16056208 -0.01512107 0.010706839 -0.049463194 -0.01139399 0.09826173 0.10061636 0.1795536
00000000: 636a 243e 5dbe 77bc bd6b 2f3c eb99 4abd
00000010: dcad 3abc 723d c93d f30f ce3d e6dc 373e

encoder.lstm_cells.0.conv_r.convs.<inj___-___inj>.lin_src.weight f4 [8, 8]
-0.6668884 0.43440962 0.15176047 -0.44111428 0.35649344 0.06378406 -0.0065424433 -0.25003317
0.07822104 0.5920021 0.27264202 -0.31559622 0.52683604 0.01693708 0.25541058 0.5105132
0.34885988 -0.31032586 0.50475526 -0.3766003 -0.17917643 -0.63233966 -0.34108487 0.1566851
-0.01605353 -0.16196486 0.12365806 0.6353985 0.38564667 0.38506618 0.25421804 0.40747824
-0.069929 0.05670937 0.42902678 -0.6929087 -0.48328817 0.09118326 -0.23055881 -0.087036826
-0.29124334 0.2706416 0.41720727 -0.19229887 0.25167188 0.24216254 -0.66484284 -0.22591639
-0.5888058 -0.24709229 -0.24305154 0.06425194 -0.26737928 -0.4147606 -0.31095988 -0.12594034
0.34099448 0.013224391 -0.31722167 0.41945335 -0.31624287 0.19147283 0.12852868 0.819379
00000000: 33b9 2abf f06a de3e 1967 1b3e bbd9 e1be
00000010: 4f86 b63e 38a1 823d fe61 d6bb 5904 80be
00000020: 5a32 a03d 738d 173f bc97 8b3e d495 a1be
00000030: bade 063f a2bf 8a3c 2dc5 823e feb0 023f
00000040: c39d b23e 08e3 9ebe a437 013f c1d1 c0be
00000050: 077a 37be 03e1 21bf ada2 aebe 0f72 203e
00000060: b182 83bc 1eda 25be 7040 fd3d 7aa9 223f
00000070: 7b73 c53e 6527 c53e de28 823e fda0 d03e
00000080: f036 8fbd 1648 683d 66a9 db3e 7762 31bf
00000090: 8c71 f7be 4abe ba3d 9c17 6cbe 5d40 b2bd
000000a0: d91d 95be 8991 8a3e 319c d53e ffe9 44be
000000b0: 23db 803e 75f9 773e 2433 2abf a056 67be
000000c0: fabb 16bf c305 7dbe 81e2 78be 8596 833d
000000d0: f0e5 88be 805b d4be 2236 9fbe 81f6 00be
000000e0: d496 ae3e 1eab 583c e16a a2be 97c2 d63e
000000f0: 96ea a1be 7411 443e 069d 033e d2c2 513f

encoder.lstm_cells.0.conv_r.convs.<inj___-___inj>.lin_dst.weight f4 [8, 8]
-0.44847447 0.39367065 0.5139249 -0.30240843 0.5628812 0.45906144 0.0067089065 0.29525667
-0.21410005 -0.53410053 0.15479627 0.18256345 -0.40022194 0.29700005 -0.5231033 0.5270225
0.5930145 0.166724 -0.38421905 0.2980234 0.10435757 0.16651517 0.20125759 0.46623316
-0.26321864 -0.13775074 0.16699718 0.06672503 0.49380383 -0.32164127 -0.022299165 0.11442318
-0.16264234 0.41746557 0.06698504 -0.5659749 -0.06634382 -0.27774683 0.059501745 -0.071165934
-0.60743606 -0.11158804 -0.058649592 -0.18057615 0.56263506 -0.13362099 0.39339584 0.15169716
-0.5169207 0.14389752 0.5074921 -0.40055314 -0.3958208 0.5994212 0.4920502 -0.3416401
0.3684948 -0.07834329 -0.60375786 0.046010453 0.19785483 -0.18368644 0.21303655 -0.5236405
00000000: 729e e5be 338f c93e 9590 033f 47d5 9abe
00000010: fb18 103f 1a0a eb3e 63d6 db3b e22b 973e
00000020: 0b3d 5bbe d0ba 08bf ea82 1e3e eaf1 3a3e
00000030: e4e9 ccbe 6410 983e 19ea 05bf f2ea 063f
00000040: cccf 173f b2b9 2a3e 5cb8 c4be 8696 983e
00000050: 6cb9 d53d f482 2a3e 7816 4e3e 1db6 ee3e
00000060: 98c4 86be 880e 0dbe 4f01 2b3e 22a7 883d
00000070: dbd3 fc3e 2aae a4be bdac b6bc b356 ea3d
00000080: b78b 26be 0cbe d53e 742f 893d bbe3 10bf
00000090: 45df 87bd d534 8ebe 1ab8 733d 72bf 91bd
000000a0: ee80 1bbf 4588 e4bd 8e3a 70bd f4e8 38be
000000b0: da08 103f f1d3 08be 2e6b c93e 8056 1b3e
000000c0: ea54 04bf df59 133e 01eb 013f 4d15 cdbe
000000d0: 06a9 cabe ab73 193f 01ee fb3e 74eb aebe
000000e0: 5aab bc3e 7272 a0bd e08f 1abf 7575 3c3d
000000f0: 759a 4a3e 4c18 3cbe 4126 5a3e 4e0d 06bf

encoder.lstm_cells.0.W_r.inj f4 [1, 8]
0.9102868 0.09594728 0.020778019 -0.9093181 0.4826011 -0.2442392 -0.34272006 0.5423632
00000000: 8e08 693f 0280 c43d aa36 aa3c 12c9 68bf
00000010: 7e17 f73e d719 7abe 0179 afbe 51d8 0a3f

encoder.lstm_cells.0.W_r.prod f4 [1, 8]
0.34971684 -0.13398197 -0.31403986 0.11766382 0.21039224 -0.15121639 -0.3526615 -0.39224526
00000000: 160e b33e 9232 09be d5c9 a0be bbf9 f03d
00000010: 1071 573e 78d8 1abe 0c90 b4be 5fd4 c8be

encoder.lstm_cells.0.b_r.inj f4 [1, 8]
-0.10558499 0.26061386 0.53132296 0.3275109 -0.7331294 -0.39274764 -0.028240552 0.9693906
00000000: f13c d8bd 2e6f 853e c804 083f 82af a73e
00000010: 5eae 3bbf 3816 c9be bb58 e7bc fb29 783f

encoder.lstm_cells.0.b_r.prod f4 [1, 8]
0.39507014 0.067886755 0.48993686 -0.12322128 -0.4042753 0.7164043 -0.30359817 -0.08551494
00000000: a246 ca3e 3608 8b3d 01d9 fa3e 705b fcbd
00000010: 2cfd cebe 4666 373f 3871 9bbe 7522 afbd

encoder.lstm_cells.0.conv_n.convs.<inj___-___prod>.att_src f4 [1, 1, 8]
0.50509137 -0.36720484 -0.2700012 -0.7378961 -0.46598017 0.165042 -0.07296021 -0.6308456
00000000: ab4d 013f 4602 bcbe 993d 8abe c2e6 3cbf
00000010: f494 eebe c500 293e 2a6c 95bd 197f 21bf

encoder.lstm_cells.0.conv_n.convs.<inj___-___prod>.att_dst f4 [1, 1, 8]
-0.060122997 -0.56858015 -0.676001 -0.4504237 -0.7312565 -0.51097167 0.80990577 0.2163489
00000000: 8843 76bd 788e 11bf 670e 2dbf ef9d e6be
00000010: a033 3bbf 0acf 02bf fc55 4f3f 918a 5d3e

encoder.lstm_cells.0.conv_n.convs.<inj___-___prod>.bias f4 [8]
-0.122709155 -0.08594218 -0.08573886 -0.038283613 0.10103941 0.10604565 0.098216474 0.006303787
00000000: f04e fbbd 7402 b0bd db97 afbd 47cf 1cbd
00000010: c0ed ce3d 762e d93d b825 c93d 0090 ce3b

encoder.lstm_cells.0.conv_n.convs.<inj___-___prod>.lin_src.weight f4 [8, 8]
0.64517874 0.31874335 0.1119747 0.13435641 0.40755203 -0.255922 0.008181509 -0.15946771
-0.34920803 -0.43181032 0.43833825 0.47200343 -0.5408779 0.22526874 0.24366464 0.55932564
0.12386893 0.7852249 0.0056818947 0.68572134 0.22474007 -0.87402576 -0.76008856 0.3758208
0.3133865 -0.32508263 0.10059856 -0.031741787 0.15100683 -0.32032034 0.38330126 0.35663387
-0.5721445 0.14824973 0.15631536 0.14391433 0.4313979 0.03060231 -0.26788968 0.6482397
-0.3490279 -0.059336208 0.13321929 -0.30005407 -0.09018755 -0.58922493 -0.108482175 0.20165135
-0.039828464 -0.4123645 -0.39114058 0.32451433 0.50535667 -0.58927727 0.22543925 -0.4181681
0.04827173 0.569018 0.4642332 -0.48467946 0.4056873 0.35249317 0.015823865 0.60100305
00000000: 6f2a 253f 5432 a33e fe52 e53d ba94 093e
00000010: a9aa d03e 3508 83be bc0b 063c 814b 23be
00000020: 65cb b2be 3e16 ddbe df6d e03e 6faa f13e
00000030: f976 0abf d9ac 663e 3983 793e f72f 0f3f
00000040: feae fd3d 8004 493f 302f ba3b 6f8b 2f3f
00000050: 4322 663e 27c0 5fbf 2a95 42bf 956b c03e
00000060: 3274 a03e 3b71 a6be 9e06 ce3d ad03 02bd
00000070: 89a1 1a3e 0701 a4be 1040 c43e b798 b63e
00000080: 1078 12bf c7ce 173e 2211 203e 475e 133e
00000090: 30e0 dc3e b2b1 fa3c d628 89be 09f3 253f
000000a0: c9b3 b2be 860a 73bd a36a 083e b0a0 99be
000000b0: 40b4 b8bd 72d7 16bf e72b debd b17d 4e3e
000000c0: 2c23 23bd 7121 d3be 9443 c8be be26 a63e
000000d0: 0e5f 013f e0da 16bf 8cd9 663e 211a d6be
000000e0: 94b8 453d 2aab 113f f9af ed3e e827 f8be
000000f0: 3fb6 cf3e fc79 b43e 0da1 813c 56db 193f

encoder.lstm_cells.0.conv_n.convs.<inj___-___prod>.lin_dst.weight f4 [8, 8]
-0.26405978 -0.12955245 -0.37559298 0.107591376 0.1844659 0.02892579 -0.36229894 -0.29440704
0.17035088 -0.55716574 -0.16492677 0.02485754 -0.26132414 0.23359409 0.050448403 0.43804082
-0.09220975 -0.4056478 0.36371678 0.123815805 -0.18780015 -0.39299437 0.15406847 -0.5766219
0.12336822 0.2830458 -0.60597456 -0.36249936 -0.45306185 0.5256637 0.5314234 0.04606964
0.5368145 -0.223952 -0.663451 0.2524564 0.20460683 0.6112613 0.010345777 0.4766441
0.33739805 0.4251085 -0.6758648 0.54268503 -0.5335087 0.559846 -0.015337538 -0.5360823
0.20837037 -0.105804384 -0.4808244 -0.26054105 0.07526322 0.46641213 -0.19864781 0.35650063
0.11717805 0.038896386 0.18998912 -0.44267127 -0.49813282 -0.20278426 -0.58044255 -0.29208517
00000000: d832 87be 66a9 04be b94d c0be de58 dc3d
00000010: a1e4 3c3e c7f5 ec3c 3f7f b9be 85bc 96be
00000020: 7670 2e3e 6aa2 0ebf 90e2 28be 0aa2 cb3c
00000030: 47cc 85be 4a33 6f3e fca2 4e3d e346 e03e
00000040: 77d8 bcbd 12b1 cfbe 1639 ba3e 2493 fd3d
00000050: af4e 40be 8f36 c9be 20c4 1d3e 7e9d 13bf
00000060: 7aa8 fc3d 61eb 903e 2621 1bbf 8499 b9be
00000070: b9f7 e7be e591 063f 5d0b 083f 85b3 3c3d
00000080: ad6c 093f ac53 65be edd7 29bf f741 813e
00000090: 7484 513e 9f7b 1c3f 5581 293c b20a f43e
000000a0: 70bf ac3e d2a7 d93e 7a05 2dbf 68ed 0a3f
000000b0: 0794 08bf 1152 0f3f 4c4a 7bbc b13c 09bf
000000c0: 0b5f 553e f8af d8bd 9e2e f6be a365 85be
000000d0: 9a23 9a3d 92cd ee3e 556a 4bbe 4087 b63e
000000e0: 0cfb ef3d d151 1f3d 828c 423e cfa5 e2be
000000f0: 440b ffbe ada6 4fbe e297 14bf 308c 95be

encoder.lstm_cells.0.conv_n.convs.<prod___-___prod>.att_src f4 [1, 1, 8]
0.18293075 -1.089666 -0.8157421 0.04842974 -0.20636383 -0.54333067 -0.21374051 -0.46454152
00000000: 3352 3b3e 2d7a 8bbf 79d4 50bf 435e 463d
00000010: 0a51 53be b817 0bbf cbde 5abe 63d8 edbe

encoder.lstm_cells.0.conv_n.convs.<prod___-___prod>.att_dst f4 [1, 1, 8]
0.071526274 -0.33033782 -0.1164694 -0.6864112 -0.5674824 -0.35887513 -0.29115522 -0.77420247
00000000: 5e7c 923d 0a22 a9be 8287 eebd a5b8 2fbf
00000010: 8746 11bf 7bbe b7be 4c12 95be 2232 46bf

encoder.lstm_cells.0.conv_n.convs.<prod___-___prod>.bias f4 [8]
-0.122709155 -0.08594218 -0.08573886 -0.038283613 0.10103941 0.10604565 0.098216474 0.006303787
00000000: f04e fbbd 7402 b0bd db97 afbd 47cf 1cbd
00000010: c0ed ce3d 762e d93d b825 c93d 0090 ce3b

encoder.lstm_cells.0.conv_n.convs.<prod___-___prod>.lin_src.weight f4 [8, 8]
0.16135903 -0.54079866 -0.18177304 -0.26117986 -0.16594224 -0.1954287 0.10364818 0.0110506145
0.51924366 0.28719658 -0.31421039 -0.56715614 0.17503212 -0.30183655 0.04296539 -0.04702408
0.5472419 0.4645577 0.70050246 -0.33129144 -0.13548899 0.46747357 -0.5877447 -0.28854632
-0.2851637 -0.2077067 -0.38112634 0.7197105 0.39205697 0.19687921 0.6122952 -0.5742048
0.28006712 0.5792456 0.49899733 -0.72110325 0.35027316 -0.5834256 -0.15209992 -0.24072425
-0.8332617 -0.34704444 -0.1294739 0.5235087 0.5242363 -0.76468134 -0.5093019 -0.23874263
-0.819361 0.33735287 0.6984454 0.19812186 -0.5630094 -0.11910717 0.1589917 0.48730668
-0.16606797 -0.65517044 0.2653404 -0.14411655 -0.3491502 -0.1999661 -0.2131591 0.62120044
00000000: 4d3b 253e c871 0abf b622 3abe 5eb9 85be
00000010: c3ec 29be 761e 48be 7f45 d43d a30d 353c
00000020: 27ed 043f 6e0b 933e 2fe0 a0be 2531 11bf
00000030: 9f3b 333e 528a 9abe 7afc 2f3d 529c 40bd
00000040: 0c18 0c3f 82da ed3e 2154 333f 089f a9be
00000050: a0bd 0abe b258 ef3e 7076 16bf 58bc 93be
00000060: fa00 92be 11b1 54be fe22 c3be f33e 383f
00000070: b1bb c83e b49a 493e 61bf 1c3f 16ff 12bf
00000080: f564 8f3e 7149 143f 947c ff3e 399a 38bf
00000090: 0157 b33e 615b 15bf 15c0 1bbe 6b80 76be
000000a0: a450 55bf cfaf b1be ce94 04be ab04 063f
000000b0: 5a34 063f 28c2 43bf 9c61 02bf f378 74be
000000c0: a4c1 51bf 84b9 ac3e 51cd 323f 75e0 4a3e
000000d0: 6221 10bf 76ee f3bd b8ce 223e 4380 f93e
000000e0: b90d 2abe 40b9 27bf b2da 873e 4a93 13be
000000f0: d1c3 b2be eac3 4cbe 6146 5abe fe06 1f3f

encoder.lstm_cells.0.conv_n.convs.<prod___-___prod>.lin_dst.weight f4 [8, 8]
-0.26567808 0.54426557 0.55204827 0.19976099 0.268474 -0.1279325 0.3170691 -0.69948775
0.33875114 -0.15692596 0.10683487 0.022816036 -0.23562725 -0.14033137 0.38628614 -0.3742665
-0.32041064 -0.19721039 -0.41916418 0.30291897 0.4205993 -0.1388156 0.63734007 -0.21773323
-0.23613548 -0.33830592 -0.598269 -0.4163265 -0.5666393 -0.6199684 0.22399344 0.4361469
0.6644128 0.46860242 -0.20292154 0.1459295 -0.3727527 0.16177051 -0.5364021 0.3355536
0.19701217 0.13856526 0.06580454 -0.25680795 0.52009296 0.22170955 0.44864833 0.12501848
0.49123824 0.34929112 0.10662485 0.47883856 -0.13088572 0.33487335 0.20236209 0.43168578
0.6998484 0.07721341 -0.40166524 -0.043853533 0.15548491 0.02868356 -0.10658554 0.53885335
00000000: f506 88be fd54 0b3f 0953 0d3f 258e 4c3e
00000010: 6d75 893e bd00 03be e256 a23e a111 33bf
00000020: ca70 ad3e 33b1 20be 3ecc da3d b2e8 ba3c
00000030: 4548 71be 07b3 0fbe 4cc7 c53e dc9f bfbe
00000040: dd0c a4be 85f1 49be b09c d6be 3218 9b3e
00000050: cb58 d73e ad25 0ebe b828 233f 76f5 5ebe
00000060: 80cd 71be 6f36 adbe 2828 19bf bf28 d5be
00000070: 460f 11bf 40b6 1ebf 895e 653e a54e df3e
00000080: f516 2a3f a8ec ef3e aaca 4fbe 8b6e 153e
00000090: 71d9 bebe 2ba7 253e a651 09bf aecd ab3e
000000a0: 8fbd 493e 0de4 0d3e 88c4 863d 557c 83be
000000b0: d024 053f d407 633e 3cb5 e53e d804 003e
000000c0: 9483 fb3e 49d6 b23e 215e da3d 542a f53e
000000d0: e806 06be 8574 ab3e 0238 4f3e eb05 dd3e
000000e0: 4429 333f 1022 9e3d 11a7 cdbe c39f 33bd
000000f0: 7037 1f3e c9f9 ea3c 8549 dabd 4bf2 093f

encoder.lstm_cells.0.conv_n.convs.<inj___-___inj>.att_src f4 [1, 1, 8]
0.99944544 -0.36974642 0.98063236 0.4627842 -0.31994882 0.8612742 -0.35956982 -0.5759023
00000000: a8db 7f3f 674f bdbe b90a 7b3f 0df2 ec3e
00000010: 55d0 a3be 777c 5c3f 8919 b8be 556e 13bf

encoder.lstm_cells.0.conv_n.convs.<inj___-___inj>.att_dst f4 [1, 1, 8]
-0.7381962 -0.815822 0.19410914 -0.259149 0.39698783 -0.7187866 0.68253964 -0.55564153
00000000: 6dfa 3cbf b6d9 50bf 8cc4 463e 2daf 84be
00000010: fd41 cb3e 6602 38bf ebba 2e3f 863e 0ebf

encoder.lstm_cells.0.conv_n.convs.<inj___-___inj>.bias f4 [8]
-0.05038808 0.050075997 -0.063618384 -0.098793514 -0.13005045 -0.23993644 -0.14418316 -0.030266069
00000000: bb63 4ebd 7d1c 4d3d 5b4a 82bd 4154 cabd
00000010: f22b 05be e6b1 75be c0a4 13be 8cf0 f7bc

encoder.lstm_cells.0.conv_n.convs.<inj___-___inj>.lin_src.weight f4 [8, 8]
0.45637867 -0.46910608 -0.14732243 -0.15836968 -0.29392526 0.20240232 -0.08113849 -0.41644832
-0.26011968 -0.16046938 0.6706068 0.34171787 0.53905505 0.09905651 0.044887215 0.31852186
0.15772466 -0.40438113 -0.656392 0.1309448 -0.100741334 -0.025343934 0.071735784 0.731902
0.23451088 -0.28530777 -0.6659288 -0.3961292 -0.2931844 0.20271395 0.42998552 0.5139435
0.026155775 -0.24725442 -0.3678402 -0.15961005 0.46640092 0.29509124 0.28056046 -0.15442172
0.49192247 -0.43037292 -0.5171724 0.09813448 0.2137303 0.0007346969 0.5229729 -0.28211445
0.002373143 -0.38666826 -0.11945955 -0.66134554 0.25079963 0.1423805 0.4896778 -0.05027988
0.10346283 0.1204743 0.5319177 -0.304386 0.42822167 0.20166539 -0.35017905 0.2370052
00000000: 77aa e93e ac2e f0be b1db 16be a92b 22be
00000010: 5f7d 96be 8e42 4f3e f02b a6bd b738 d5be
00000020: 682e 85be 1652 24be e3ac 2b3f a5f5 ae3e
00000030: 83ff 093f 24de ca3d a8db 373d 4c15 a33e
00000040: 9382 213e 0b0b cfbe 4e09 28bf 6516 063e
00000050: 7951 cebd 159e cfbc 36ea 923d ee5d 3b3f
00000060: 9f23 703e dc13 92be 4f7a 2abf 72d1 cabe
00000070: 441c 96be 3f94 4f3e 1027 dc3e cd91 033f
00000080: a344 d63c 4330 7dbe 8d55 bcbe d170 23be
00000090: 1acc ee3e 3316 973e 9fa5 8f3e ba20 1ebe
000000a0: 43dd fb3e d759 dcbe 6965 04bf bbfa c83d
000000b0: 1edc 5a3e ad98 403a 8de1 053f 4e71 90be
000000c0: bc86 1b3b 62f9 c5be 35a7 f4bd f14d 29bf
000000d0: cf68 803e 32cc 113e 0cb7 fa3e 47f2 4dbd
000000e0: 52e4 d33d 3bbb f63d c22b 083f 7bd8 9bbe
000000f0: df3f db3e 5f81 4e3e ab4a b3be 7eb1 723e

encoder.lstm_cells.0.conv_n.convs.<inj___-___inj>.lin_dst.weight f4 [8, 8]
-0.30558798 -0.24127051 -0.35491386 -0.3785343 0.5680716 -0.43018404 0.37049475 -0.56379884
-0.014677403 -0.010616738 0.37424827 -0.18455596 0.25981522 0.20963755 0.4227848 0.023643738
0.17310214 -0.3253479 -0.36832166 0.51038396 -0.5248797 -0.21318802 -0.13290946 0.61231494
-0.06487249 -0.51871777 -0.22439945 0.35660315 0.33568045 0.6313649 -0.055491704 0.27748504
-0.64050555 0.28719962 0.34710214 0.3558234 -0.44021907 -0.2842035 0.0814067 -0.42330882
-0.42567205 -0.63750565 -0.028600719 0.41827166 0.24278188 0.15414321 0.27746865 -0.3975816
0.0024816128 -0.10354981 -0.23975945 0.49018234 -0.5603139 -0.028348895 -0.6026958 -0.008917607
-0.2138938 0.15551347 -0.40323824 0.4283073 -0.41556653 0.4800762 -0.39911115 0.31471965
00000000: 0776 9cbe 9e0f 77be 45b7 b5be 3fcf c1be
00000010: 246d 113f 1541 dcbe 7db1 bd3e 1f55 10bf
00000020: 7d79 70bc d4f1 2dbc 789d bf3e 3dfc 3cbe
00000030: 8006 853e 3aab 563e 4077 d83e 83b0 c13c
00000040: b041 313e 0094 a6be a894 bcbe 86a8 023f
00000050: 845e 06bf f64d 5abe 6b19 08be acc0 1c3f
00000060: dedb 84bd b0ca 04bf f8c8 65be b094 b63e
00000070: 4fde ab3e 21a1 213f 454b 63bd 8512 8e3e
00000080: 2cf8 23bf d40b 933e 5fb7 b13e 7c2e b63e
00000090: 6564 e1be 1f83 91be 8eb8 a63d efbb d8be
000000a0: b0f1 d9be 9233 23bf 0e4c eabc b427 d63e
000000b0: d09b 783e b8d7 1d3e 5f10 8e3e d18f cbbe
000000c0: 8ea2 223b ec11 d4bd 8083 75be 2ef9 fa3e
000000d0: bb70 0fbf f13b e8bc 464a 1abf 281b 12bc
000000e0: fa06 5bbe ec3e 1f3e 3e75 cebe 184b db3e
000000f0: 23c5 d4be 8ccc f53e 4c58 ccbe ef22 a13e

encoder.lstm_cells.0.W_n.inj f4 [1, 8]
-0.71836674 0.39248064 0.9111065 -0.8003605 0.04492644 0.173713 0.004827005 -0.29321855
00000000: e2e6 37bf 39f3 c83e 473e 693f 6de4 4cbf
00000010: c904 383d d2e1 313e da2b 9e3b be20 96be

encoder.lstm_cells.0.W_n.prod f4 [1, 8]
0.7991968 0.18600613 -0.107210904 -0.4550725 0.07487768 0.19490068 0.21982305 -0.118725404
00000000: 2998 4c3f 6478 3e3e 6491 dbbd 43ff e8be
00000010: 7859 993d 0b94 473e 4b19 613e 4e26 f3bd

encoder.lstm_cells.0.b_n.inj f4 [1, 8]
-0.8626425 0.5965348 0.55498916 0.19877738 -0.699373 -1.0457699 -0.80732477 0.57859504
00000000: 24d6 5cbf 81b6 183f c513 0e3f 4c8c 4b3e
00000010: 1c0a 33bf cadb 85bf d6ac 4ebf ce1e 143f

encoder.lstm_cells.0.b_n.prod f4 [1, 8]
0.26929623 0.6011441 0.3419984 0.16836534 0.09304369 -0.5149032 -0.60133415 -0.75740504
00000000: 32e1 893e 94e4 193f 6a1a af3e f767 2c3e
00000010: b18d be3d b2d0 03bf 09f1 19bf 4ce5 41bf

decoder.lstm_cells.0.conv_z.convs.<inj___-___prod>.att_src f4 [1, 1, 8]
0.28186348 -0.64075935 -0.36290658 -0.24273604 0.06695604 -0.8061325 -0.77833956 0.18466349
00000000: 6950 903e ce08 24bf e4ce b9be cc8f 78be
00000010: 4020 893d b35e 4ebf 4341 47bf 6d18 3d3e

decoder.lstm_cells.0.conv_z.convs.<inj___-___prod>.att_dst f4 [1, 1, 8]
-0.47040358 0.7520287 -0.09572139 -0.6940971 -0.22435041 -0.44359517 -0.58088493 -0.98200554
00000000: bdd8 f0be f484 403f 9309 c4bd 59b0 31bf
00000010: 1dbc 65be e81e e3be e0b4 14bf b764 7bbf

decoder.lstm_cells.0.conv_z.convs.<inj___-___prod>.bias f4 [8]
0.20371513 -0.123120345 -0.110820495 0.059333097 0.11597794 -0.10638648 -0.10985304 -0.09734228
00000000: b39a 503e 8526 fcbd dbf5 e2bd 4307 733d
00000010: d885 ed3d 28e1 d9bd a1fa e0bd 645b c7bd

decoder.lstm_cells.0.conv_z.convs.<inj___-___prod>.lin_src.weight f4 [8, 8]
-0.380123 0.12725218 0.06290226 0.12040942 0.09176967 -0.64735454 -0.049738355 -0.38064107
0.6343541 -0.081110515 -0.33950037 -0.09197225 0.4095515 -0.15690276 0.47652817 0.19826779
0.36849758 0.1639354 -0.5305423 0.54827935 -0.25599384 -0.25928575 -0.12521693 0.5154765
0.25092706 0.31533158 0.5142692 -0.52263486 -0.2357666 -0.7783602 -0.018945012 -0.24822576
-0.4305453 0.64022815 0.8339778 -0.4520962 -0.5092642 -0.08875578 0.07774501 -0.003690409
-0.09664204 -0.50139785 0.15271771 0.78316337 -0.21826532 0.36391902 0.37718856 0.45439577
0.04900739 -0.10372643 0.32889208 0.54675734 0.73330706 -0.041929077 0.3636488 0.33960205
-0.23410502 -0.06428719 -0.3101749 0.4635746 -0.09681897 0.22067572 0.5384811 -0.7034563
00000000: 7b9f c2be 654e 023e e6d2 803d 3799 f63d
00000010: bdf1 bb3d 07b9 25bf 72ba 4bbd 63e3 c2be
00000020: 0865 223f 451d a6bd fed2 adbe f25b bcbd
00000030: bcb0 d13e 1eab 20be 80fb f33e b606 4b3e
00000040: b7ab bc3e aede 273e 9fd1 07bf 095c 0c3f
00000050: a011 83be 1ac1 84be de38 00be 45f6 033f
00000060: 8379 803e 2473 a13e 25a7 033f 66cb 05bf
00000070: cd6c 71be 9d42 47bf 9232 9bbc e52e 7ebe
00000080: 6f70 dcbe fee5 233f 927f 553f 2779 e7be
00000090: 235f 02bf 97c5 b5bd c738 9f3d cada 71bb
000000a0: 43ec c5bd 9c5b 00bf 0862 1c3e 657d 483f
000000b0: f280 5fbe 9853 ba3e dc1e c13e 90a6 e83e
000000c0: f9bb 483d 866e d4bd 8b64 a83e 4af8 0b3f
000000d0: 03ba 3b3f d3bd 2bbd 2d30 ba3e 52e0 ad3e
000000e0: 3ab9 6fbe 01a9 83bd 3fcf 9ebe a659 ed3e
000000f0: 0649 c6bd d1f8 613e e6d9 093f b615 34bf

decoder.lstm_cells.0.conv_z.convs.<inj___-___prod>.lin_dst.weight f4 [8, 8]
-0.7791477 -0.3188261 0.5940634 0.47570026 -0.37691906 -0.11119742 -0.46510953 -0.09533502
0.7729199 0.29403153 -0.35541576 0.035151128 0.069998346 0.3593525 -0.072865635 -0.5415454
0.20507297 0.10028627 0.41244477 -0.18991569 0.3612093 0.27233854 0.25521404 0.31185013
0.36785114 0.005152588 0.3119784 0.63449305 0.6491004 -0.4654116 0.41866797 0.398754
-0.30639294 0.54494447 -0.1321248 0.45136136 0.6671839 -0.63355887 -0.49849096 -0.43247002
-0.34652063 -0.5534031 -0.0244444 0.23811822 0.4815529 0.1336492 0.20776065 0.4296817
-0.63635826 -0.4855118 0.22259097 0.64169866 0.08398133 -0.27933124 -0.5583604 -0.11605446
-0.70661265 0.4970421 0.08103378 -0.49007872 0.11998053 -0.1632571 -0.20950466 0.39338613
00000000: 3976 47bf 2d3d a3be 8a14 183f fc8e f33e
00000010: 89fb c0be 79bb e3bd d622 eebe 023f c3bd
00000020: 14de 453f 4d8b 963e 0ef9 b5be a1fa 0f3d
00000030: 4b5b 8f3d 0dfd b73e 943a 95bd b8a2 0abf
00000040: a6fe 513e e362 cd3d f62b d33e 4279 42be
00000050: 6df0 b83e f56f 8b3e 6aab 823e d2aa 9f3e
00000060: fc56 bc3e 0ad7 a83b a2bb 9f3e 236e 223f
00000070: 722b 263f 6e4a eebe a65b d63e 7c29 cc3e
00000080: 89df 9cbe 7b81 0b3f b94b 07be d618 e73e
00000090: 90cc 2a3f ea30 22bf 353a ffbe b66c ddbe
000000a0: 276b b1be d3ab 0dbf 9f3f c8bc 43d5 733e
000000b0: 1a8e f63e 56db 083e 35bf 543e 3dff db3e
000000c0: 60e8 22bf 0195 f8be e3ee 633e 5d46 243f
000000d0: 67fe ab3d 8104 8fbe b5f0 0ebf f6ad edbd
000000e0: 91e4 34bf 4d7c fe3e 0af5 a53d 99eb fabe
000000f0: 5ab8 f53d df2c 27be 6488 56be e869 c93e

decoder.lstm_cells.0.conv_z.convs.<prod___-___prod>.att_src f4 [1, 1, 8]
0.6156462 -0.5225877 0.30761275 0.10958122 0.5654766 -0.63451946 0.663046 -0.44967118
00000000: fd9a 1d3f 4fc8 05bf 6b7f 9d3e 1e6c e03d
00000010: 13c3 103f de6f 22bf 62bd 293f 4d3b e6be

decoder.lstm_cells.0.conv_z.convs.<prod___-___prod>.att_dst f4 [1, 1, 8]
0.1504145 1.1554258 -0.2627997 -0.33495718 0.12835604 -0.5266649 0.583526 -0.88550264
00000000: 4206 1a3e fee4 933f af8d 86be 827f abbe
00000010: c46f 033e 83d3 06bf f661 153f 4db0 62bf

decoder.lstm_cells.0.conv_z.convs.<prod___-___prod>.bias f4 [8]
0.20371513 -0.123120345 -0.110820495 0.059333097 0.11597794 -0.10638648 -0.10985304 -0.09734228
00000000: b39a 503e 8526 fcbd dbf5 e2bd 4307 733d
00000010: d885 ed3d 28e1 d9bd a1fa e0bd 645b c7bd

decoder.lstm_cells.0.conv_z.convs.<prod___-___prod>.lin_src.weight f4 [8, 8]
0.30555126 -0.49746624 -0.4318356 -0.047991823 -0.47136992 -0.55215836 0.49736792 -0.16304928
-0.40141016 -0.38302267 -0.63694775 0.65559715 -0.36588967 -0.14705072 -0.30399036 0.54684824
-0.13217735 -0.18842728 -0.42037073 -0.15781485 0.00938089 0.84610885 -0.09651692 0.13884185
-0.27637386 -0.05842455 0.66680115 -0.20590101 0.877574 -0.11784067 -0.5101913 -0.6101947
0.6602026 -0.2894143 0.53237134 -0.06348587 0.44929194 0.0836101 -0.3030007 0.23315223
-0.6107294 -0.3250364 0.3622799 0.34303394 -0.22824192 0.003529622 -0.2767253 0.48172712
-0.120153435 -0.16046369 0.0069889487 0.6224021 -0.47845006 -0.02822062 0.5484526 0.48728317
-0.3617581 -0.75577205 -0.0915438 0.485855 -0.052004106 0.7241623 -0.30078542 0.45030367
00000000: 3771 9c3e e5b3 febe 8e19 ddbe 1393 44bd
00000010: 6657 f1be 405a 0dbf 02a7 fe3e 64f6 26be
00000020: a285 cdbe 8c1b c4be 020f 23bf 37d5 273f
00000030: e455 bbbe 7794 16be a0a4 9bbe 3ffe 0b3f
00000040: 8059 07be 15f3 40be d53a d7be 379a 21be
00000050: 4eb2 193c 979a 583f aaaa c5bd 8f2c 0e3e
00000060: e080 8dbe 954e 6fbd 7bb3 2a3f b7d7 52be
00000070: b1a8 603f 7356 f1bd e69b 02bf b835 1cbf
00000080: 0a03 293f 1c2e 94be 7d49 083f e104 82bd
00000090: 9809 e63e c63b ab3d e822 9bbe 75bf 6e3e
000000a0: c358 1cbf 2c6b a6be c07c b93e 25a2 af3e
000000b0: 40b8 69be 3b51 673b f0ae 8dbe f0a4 f63e
000000c0: 0113 f6bd 9850 24be 8d03 e53b be55 1f3f
000000d0: 68f7 f4be ee2e e7bc 6467 0c3f 2e7d f93e
000000e0: 5c38 b9be 477a 41bf 517b bbbd fdc1 f83e
000000f0: 4202 55bd b362 393f 8c00 9abe 348e e63e

decoder.lstm_cells.0.conv_z.convs.<prod___-___prod>.lin_dst.weight f4 [8, 8]
-0.18510382 0.3396053 0.35968015 0.030943634 0.3678121 -0.23865084 -0.45877233 -0.5013336
0.617502 0.16873682 -0.59617037 0.11439928 0.38400328 -0.39385158 0.5868889 0.23277406
-0.17917453 0.6218934 0.7215085 0.42532378 0.6821426 0.037541594 -0.05917985 -0.6922195
-0.24924456 -0.38183734 0.4052927 0.3910457 0.23328577 -0.752319 -0.6177441 0.22123618
0.27946764 0.23391402 -0.2860448 -0.025476282 -0.29229385 0.5236366 -0.18145321 0.46512428
0.21701232 -0.5398505 0.116744675 0.04817838 -0.19315284 0.08502785 -0.17989421 0.43243146
-0.15537341 0.23628825 -0.66848 -0.47919708 -0.13431805 0.68987286 0.46140108 -0.36754283
-0.14500377 -0.32656538 0.15443529 -0.34527817 -0.01892642 0.22959332 -0.681858 -0.7015661
00000000: db8b 3dbe bfe0 ad3e ff27 b83e 817d fd3c
00000010: de51 bc3e e360 74be 35e4 eabe 6657 00bf
00000020: 9c14 1e3f 58c9 2c3e 9f9e 18bf 2b4a ea3d
00000030: 149c c43e eaa6 c9be 5a3e 163f 535c 6e3e
00000040: 8779 37be 6834 1f3f c8b4 383f 0ac4 d93e
00000050: e6a0 2e3f 37c5 193d 9266 72bd 4c35 31bf
00000060: f739 7fbe 2f80 c3be 8682 cf3e 2437 c83e
00000070: 77e2 6e3e fa97 40bf 7a24 1ebf bd8b 623e
00000080: 6216 8f3e 2887 6f3e 7774 92be a3b3 d0bc
00000090: 8aa7 95be 0c0d 063f dfce 39be c524 ee3e
000000a0: 7a38 5e3e a433 0abf d517 ef3d b156 453d
000000b0: dcc9 45be 1523 ae3d 3036 38be a867 dd3e
000000c0: 351a 1fbe 8cf5 713e 8121 2bbf 5259 f5be
000000d0: ac8a 09be 829b 303f c33c ec3e 932e bcbe
000000e0: de7b 14be 9433 a7be 4924 1e3e 4dc8 b0be
000000f0: 940b 9bbc 831a 6b3e 3f8e 2ebf d699 33bf

decoder.lstm_cells.0.conv_z.convs.<inj___-___inj>.att_src f4 [1, 1, 8]
0.506881 0.61092323 0.7721661 -0.19259484 -0.67086786 0.18357316 0.45105502 -0.81266624
00000000: f4c2 013f 7765 1c3f adac 453f 9537 45be
00000010: ffbd 2bbf 9afa 3b3e aff0 e63e e50a 50bf

decoder.lstm_cells.0.conv_z.convs.<inj___-___inj>.att_dst f4 [1, 1, 8]
-0.18533139 -0.48945338 -0.071413845 -0.40189064 -0.33375734 -0.2592041 -0.77592003 0.6699416
00000000: 83c7 3dbe a299 fabe 6c41 92bd 9cc4 cdbe
00000010: 3ee2 aabe 66b6 84be b2a2 46bf 4b81 2b3f

decoder.lstm_cells.0.conv_z.convs.<inj___-___inj>.bias f4 [8]
0.0 0.0 0.0 0.0 0.0 0.0 0.0 0.0
00000000: 0000 0000 0000 0000 0000 0000 0000 0000
00000010: 0000 0000 0000 0000 0000 0000 0000 0000

decoder.lstm_cells.0.conv_z.convs.<inj___-___inj>.lin_src.weight f4 [8, 8]
0.111540146 0.08394669 -0.11199406 0.53473103 -0.36870268 -0.3717592 -0.45773378 -0.113976315
-0.15628046 0.37890354 -0.034384105 0.19556333 -0.25447544 0.49675187 0.5162415 -0.54842174
-0.15737948 -0.51959646 0.26015228 -0.5350195 -0.28953692 0.6118657 -0.5847662 0.45181116
0.05173267 0.48967427 -0.31077248 0.4022237 0.07388503 0.04709904 0.41796392 -0.58207667
-0.49323618 0.59140694 -0.36772755 -0.44140276 -0.029941734 -0.19602193 -0.08377981 -0.41028067
0.22095554 -0.5269352 0.049597844 0.3573435 0.117658824 0.08136583 0.08956809 -0.17939483
-0.11665587 -0.25823337 -0.41367507 -0.32422435 0.60536724 -0.10248451 0.21451163 0.42348868
-0.047837216 -0.32944053 -0.4149062 -0.22560005 0.21857806 -0.5157147 -0.0747687 0.23293827
00000000: 296f e43d 3eec ab3d 245d e5bd 22e4 083f
00000010: 99c6 bcbe 3957 bebe 155c eabe 6a6c e9bd
00000020: fc07 20be a5ff c13e 59d6 0cbd c141 483e
00000030: 9b4a 82be 4356 fe3e 6728 043f 5e65 0cbf
00000040: 1628 21be 4604 05bf ae32 853e 0af7 08bf
00000050: 2f3e 94be 3ba3 1c3f 3db3 15bf cb53 e73e
00000060: a3e5 533d 96b6 fa3e 921d 9fbe 44f0 cd3e
00000070: 0951 973d ecea 403d 5eff d53e fa02 15bf
00000080: 7489 fcbe 7266 173f c946 bcbe 8bff e1be
00000090: 5e48 f5bc f9b9 48be c094 abbd 4f10 d2be
000000a0: 2b42 623e 3ae5 06bf 1c27 4b3d baf5 b63e
000000b0: 1cf7 f03d 21a3 a63d 7a6f b73d 47b3 37be
000000c0: 46e9 eebd 2a37 84be 38cd d3be bc00 a6be
000000d0: 59f9 1a3f 66e3 d1bd f0a8 5b3e 82d3 d83e
000000e0: f5f0 43bd 6eac a8be 966e d4be b303 67be
000000f0: edd2 5f3e e105 04bf 5520 99bd 5f87 6e3e

decoder.lstm_cells.0.conv_z.convs.<inj___-___inj>.lin_dst.weight f4 [8, 8]
0.49960724 0.18428154 0.121106856 0.4192245 0.2829699 0.20717399 -0.18986396 -0.49106076
-0.13227373 -0.11106221 0.044970926 -0.06734886 0.24757516 0.40695214 -0.24826823 -0.5810561
-0.3141836 -0.29300576 0.3471173 -0.39500695 -0.05759797 -0.12978567 -0.3716686 0.27757916
-0.25508714 -0.031679362 -0.4305497 -0.06176374 0.08700942 -0.024919154 -0.22881155 0.18192582
-0.15866423 -0.3394986 -0.45158342 -0.12971857 -0.578495 0.50828135 -0.29254732 -0.2537783
0.05660713 0.1587473 -0.05774207 0.42010152 -0.3569823 0.21946253 -0.0013810962 -0.49814728
-0.23716873 0.15584092 0.116988756 0.4452777 0.4096729 -0.3340019 -0.2615011 -0.1298483
-0.4387162 -0.16533434 -0.5011123 0.23291104 0.43328986 0.04848546 -0.43838558 -0.46375456
00000000: 85cc ff3e 4db4 3c3e df06 f83d 98a4 d63e
00000010: 6ee1 903e 6b25 543e b36b 42be 516c fbbe
00000020: c472 07be 9574 e3bd 6f33 383d 33ee 89bd
00000030: 5884 7d3e 085c d03e 073a 7ebe 18c0 14bf
00000040: acdc a0be da04 96be 5cb9 b13e 5a3e cabe
00000050: d9eb 6bbd 89e6 04be 594b bebe db1e 8e3e
00000060: c89a 82be 38c2 01bd 0371 dcbe fafb 7cbd
00000070: ff31 b23d 4123 ccbc 934d 6abe c34a 3a3e
00000080: e078 22be c3d2 adbe f135 e7be f2d4 04be
00000090: 4018 14bf ba1e 023f c3c8 95be 3bef 81be
000000a0: e1dc 673d a78e 223e f382 6cbd 8c17 d73e
000000b0: 62c6 b6be c9ba 603e e605 b5ba 290d ffbe
000000c0: 5cdc 72be c394 1f3e cd97 ef3d 70fb e33e
000000d0: a5c0 d13e 4c02 abbe 79e3 85be f4f6 04be
000000e0: 699f e0be 684d 29be e548 00bf 3b80 6e3e
000000f0: 2bd8 dd3e b198 463d 1374 e0be 3d71 edbe

decoder.lstm_cells.0.W_z.inj f4 [1, 8]
0.011465553 0.74285597 -0.6956972 -0.3118684 0.47622404 -0.17788836 -0.16713704 -0.340309
00000000: 04da 3b3c cf2b 3e3f 3619 32bf 37ad 9fbe
00000010: a3d3 f33e 5e28 36be f925 2bbe fb3c aebe

decoder.lstm_cells.0.W_z.prod f4 [1, 8]
0.7515681 0.17023519 -0.06253339 -0.56314284 -0.376641 -0.118044235 0.030794043 -0.61392266
00000000: c466 403f 2252 2e3e 8211 80bd 212a 10bf
00000010: 17d7 c0be 2dc1 f1bd ca43 fc3c 092a 1dbf

decoder.lstm_cells.0.b_z.inj f4 [1, 8]
-0.32280424 0.4549732 -0.65025765 0.5160405 -0.31676382 0.012496807 -0.16135268 0.09899119
00000000: 9946 a5be 3ff2 e83e 4977 26bf 3b1b 043f
00000010: de2e a2be 68bf 4c3c a339 25be e5bb ca3d

decoder.lstm_cells.0.b_z.prod f4 [1, 8]
-0.043028664 0.47057593 -0.13204706 0.69669163 0.90102464 -0.50417554 -0.7054936 0.55773467
00000000: d33e 30bd 54ef f03e 5837 07be 625a 323f
00000010: 8da9 663f a611 01bf 3b9b 34bf b3c7 0e3f

decoder.lstm_cells.0.conv_r.convs.<inj___-___prod>.att_src f4 [1, 1, 8]
0.6736761 -0.12836507 -0.10328978 -0.11573952 -0.6404234 -0.58799654 0.43300247 -0.23320013
00000000: 0976 2c3f 2272 03be 9889 d3bd d708 edbd
00000010: caf2 23bf f186 16bf 80b2 dd3e 04cc 6ebe

decoder.lstm_cells.0.conv_r.convs.<inj___-___prod>.att_dst f4 [1, 1, 8]
-0.6405491 -0.21439992 -0.43357924 -0.27794573 -0.2632207 -0.1712565 -0.1261136 -0.5873283
00000000: 07fb 23bf a78b 5bbe 19fe ddbe e74e 8ebe
00000010: ddc4 86be dd5d 2fbe ec23 01be 265b 16bf

decoder.lstm_cells.0.conv_r.convs.<inj___-___prod>.bias f4 [8]
0.14210382 0.09958419 0.12816589 0.2515874 0.11174442 0.21229158 0.006237738 -0.031064844
00000000: aa83 113e ccf2 cb3d eb3d 033e 10d0 803e
00000010: 42da e43d f762 593e f065 cc3b b37b febc

decoder.lstm_cells.0.conv_r.convs.<inj___-___prod>.lin_src.weight f4 [8, 8]
-0.0708587 0.003804789 -0.16710123 0.34984413 0.7619119 0.47602773 0.3053016 -0.26149487
0.2778439 0.23113906 -0.54719734 -0.20989637 0.013433511 0.22341341 0.28239682 -0.34600055
-0.63759255 -0.0029434932 -0.037174378 0.1831184 -0.18930002 0.4486316 0.015767543 0.4692166
-0.557712 0.37442195 0.23086384 -0.43187279 0.1907742 -0.7166797 0.3825959 0.13598016
-0.10086677 0.4618738 0.24740796 0.18202479 0.21182367 -0.6772726 0.22829434 0.009485966
-0.41347533 0.39625484 0.77236164 -0.3669346 -0.6644198 0.13602994 -0.5364748 0.38234064
-0.07806861 0.14543496 0.42991766 -0.28151536 -0.27671978 0.3281613 0.049774133 -0.06269019
-0.63015455 0.614293 0.0844358 -0.31297907 -0.34653324 -0.21092609 0.21678375 0.03897048
00000000: 5e1e 91bd c459 793b 961c 2bbe c51e b33e
00000010: a90c 433f e8b9 f33e 7e50 9c3e a8e2 85be
00000020: 8e41 8e3e b8af 6c3e 2015 0cbf 13ef 56be
00000030: 3b18 5c3c 7cc6 643e 5196 903e fc26 b1be
00000040: 4439 23bf 9fe7 40bb 2944 18bd 6483 3b3e
00000050: ddd7 41be 0bb3 e53e ef2a 813c 283d f03e
00000060: 37c6 0ebf 3cb4 bf3e 9267 6c3e 6e1e ddbe
00000070: 505a 433e 5278 37bf 9ce3 c33e 623e 0b3e
00000080: 3d93 cebd b97a ec3e 8358 7d3e b564 3a3e
00000090: 4ee8 583e bd61 2dbf fec5 693e 066b 1b3c
000000a0: 0ab3 d3be eae1 ca3e 7eb9 453f dade bbbe
000000b0: 6a17 2abf 6f4b 0b3e 6a56 09bf 27c2 c33e
000000c0: 6fe2 9fbd e7ec 143e 2b1e dc3e c822 90be
000000d0: 37ae 8dbe c204 a83e f6df 4b3d b763 80bd
000000e0: cf51 21bf 4e42 1d3f adec ac3d cb3e a0be
000000f0: ce6c b1be 02fd 57be 8ffc 5d3e 839f 1f3d

decoder.lstm_cells.0.conv_r.convs.<inj___-___prod>.lin_dst.weight f4 [8, 8]
0.5759921 -0.09570666 -0.21527006 0.43888792 -0.06651427 0.16967332 0.371332 0.51401347
0.23213118 0.39241818 0.28561842 0.26447043 0.18897538 0.5276882 0.24042763 0.5246628
0.62101233 0.15442134 -0.1632027 0.6426935 -0.53025264 0.7503801 0.49661267 0.42685875
0.009056978 -0.51287353 0.31425747 -0.17677876 0.11492212 0.6368377 -0.4060615 0.066779315
-0.102372564 0.46569005 -0.44161627 0.41604656 0.4263922 0.65285385 0.7116669 0.036877695
-0.51295775 0.37888652 -0.066186346 0.107630506 -0.63222057 0.14051342 -0.139332 0.6301012
0.47726044 0.40629813 0.30877474 -0.29402685 -0.3051574 0.01863322 -0.09953281 0.5008991
0.26706833 0.4245688 -0.16450486 -0.45520073 -0.23389539 0.7313864 0.5476315 0.22547156
00000000: 3874 133f da01 c4bd c16f 5cbe ebb5 e03e
00000010: a238 88bd d8be 2d3e 3a1f be3e 6396 033f
00000020: ccb3 6d3e 09eb c83e 943c 923e ab68 873e
00000030: c382 413e 9316 073f a932 763e 4d50 063f
00000040: aafa 1e3f a120 1e3e 9c1e 27be 9087 243f
00000050: a3be 07bf e918 403f 0444 fe3e 3b8d da3e
00000060: b863 143c ae4b 03bf 5be6 a03e 7e05 35be
00000070: 4a5c eb3d cc07 233f 4be7 cfbe 98c3 883d
00000080: b5a8 d1bd ed6e ee3e 871b e2be 0e04 d53e
00000090: 1450 da3e 6e21 273f cd2f 363f 110d 173d
000000a0: 3351 03bf 6afd c13e b58c 87bd 626d dc3d
000000b0: 35d9 21bf c0e2 0f3e 0cad 0ebe 504e 213f
000000c0: 7b5b f43e 4f06 d03e b917 9e3e b08a 96be
000000d0: 973d 9cbe b2a4 983c dcd7 cbbd ec3a 003f
000000e0: 2ebd 883e 1561 d93e f673 28be 1210 e9be
000000f0: 4682 6fbe 243c 3b3f 9431 0c3f 04e2 663e
