fitted_models/model_seq2seq_GAT_RN_one_step_no_water.pth (torch, 81748 bytes, 155 tensors)

encoder.lstm_cells.0.conv_i.convs.<inj___-___prod>.att_src f4 [1, 1, 8]
0.7537384 0.8179531 -0.09037879 0.9163696 -0.35113022 0.016759217 -0.27486652 0.5544687
00000000: 00f5 403f 6065 513f 8418 b9bd 3397 6a3f
00000010: 57c7 b3be a04a 893c 4ebb 8cbe a9f1 0d3f

encoder.lstm_cells.0.conv_i.convs.<inj___-___prod>.att_dst f4 [1, 1, 8]
0.84553677 -0.516658 0.72814715 0.28388327 0.45524842 0.0320465 0.5496955 -0.21357137
00000000: 1975 583f b343 04bf da67 3a3f 2659 913e
00000010: 5216 e93e 3143 033d d8b8 0c3f 74b2 5abe

encoder.lstm_cells.0.conv_i.convs.<inj___-___prod>.bias f4 [8]
0.16530406 0.16009818 0.05529178 0.26076284 0.19416064 0.056418292 0.13118514 0.17878187
00000000: 7845 293e c7f0 233e a279 623d b582 853e
00000010: 0cd2 463e de16 673d 6655 063e 9812 373e

encoder.lstm_cells.0.conv_i.convs.<inj___-___prod>.lin_src.weight f4 [8, 8]
0.24225797 0.15835501 -0.35218498 -0.31964496 0.09575257 0.42486995 0.536592 -0.32688287
0.6022589 -0.15147929 0.0141561935 -0.6316343 -0.19950627 0.3154496 0.20121706 -0.21499719
0.33490494 -0.34201446 0.47244072 -0.6520447 -0.22524178 -0.6474844 -0.07459265 0.035746627
0.8271606 -0.09973771 0.7865009 0.0063174926 0.077847846 0.22444467 0.70801365 -0.18737362
0.41010818 0.44785494 -0.4153939 -0.23340353 -0.32372943 0.363504 -0.5657115 0.39236125
0.09566797 -0.4324253 0.14402218 -0.020902237 0.3158047 0.4071949 -0.72376364 0.52137357
0.38430876 0.37869415 -0.59578395 0.00718472 -0.08374439 -0.03509744 0.19261418 0.19063608
0.6133177 -0.27240187 0.3219755 0.106292605 -0.62318957 -0.7227402 -0.18860409 0.53052664
00000000: 7912 783e d127 223e 9751 b4be 81a8 a3be
00000010: ec19 c43d 8e88 d93e 185e 093f 315d a7be
00000020: a42d 1a3f 631d 1bbe 61ef 673c c9b2 21bf
00000030: 5f4b 4cbe 9c82 a13e d80b 4e3e 3928 5cbe
00000040: a978 ab3e 851c afbe c0e3 f13e 67ec 26bf
00000050: c8a5 66be 8ac1 25bf 08c4 98bd 0e6b 123d
00000060: ccc0 533f 4943 ccbd 1f58 493f f802 cf3b
00000070: b16e 9f3d d3d4 653e 6240 353f dfde 3fbe
00000080: b3f9 d13e 3e4d e53e 82ae d4be 5601 6fbe
00000090: ddbf a5be 321d ba3e 78d2 10bf 93e3 c83e
000000a0: 92ed c33d d966 ddbe 8d7a 133e 2b3b abbc
000000b0: 27b1 a13e da7b d03e 9348 39bf bd78 053f
000000c0: 1ec4 c43e 33e4 c13e 4c85 18bf cd6d eb3b
000000d0: 2e82 abbd 55c2 0fbd a73c 453e 1b36 433e
000000e0: 6402 1d3f 4278 8bbe f9d9 a43e f0af d93d
000000f0: 5a89 1fbf 8005 39bf 6e21 41be 98d0 073f

encoder.lstm_cells.0.conv_i.convs.<inj___-___prod>.lin_dst.weight f4 [8, 8]
-0.6612313 -0.4167281 0.39005953 0.44043404 0.661695 -0.5661359 -0.58110297 0.14997168
0.6130636 0.25715807 0.04863676 0.09872865 0.42856792 -0.29718944 -0.15318961 0.5867278
-0.5000824 -0.22389041 0.49556154 0.3005202 0.35339537 -0.36172685 -0.1382676 0.3990686
-0.45762098 0.13093793 0.33734414 -0.30274183 0.7600556 -0.41791108 -0.2908285 -0.33763456
-0.47613108 -0.49390286 0.3936617 0.26339456 -0.4231551 -0.49053028 0.48325938 0.07818839
0.18559176 -0.27919853 -0.22162303 -0.010515908 0.022009328 -0.499032 -0.047091257 -0.07726774
-0.16493517 0.2047187 -0.19637957 0.27307 0.3917828 -0.4291783 -0.74412906 0.15339728
0.25355044 -0.44257334 0.55963856 -0.4043105 0.24014029 0.42267844 -0.36477214 0.57459533
00000000: 7446 29bf 635d d5be e2b5 c73e 9280 e13e
00000010: d864 293f 48ee 10bf 2ac3 14bf 2d92 193e
00000020: bcf1 1c3f 39aa 833e 5737 473d 3f32 ca3d
00000030: 416d db3e 3729 98be bddd 1cbe cb33 163f
00000040: 6605 00bf 8743 65be 3eba fd3e c9dd 993e
00000050: 3df0 b43e 4334 b9be 0696 0dbe b852 cc3e
00000060: 4c4d eabe 9814 063e 5fb8 ac3e fa00 9bbe
00000070: 0193 423f 71f8 d5be 79e7 94be 70de acbe
00000080: 74c7 f3be d6e0 fcbe 078e c93e a7db 863e
00000090: c9a7 d8be c926 fbbe c66d f73e 3c21 a03d
000000a0: c40b 3e3e 1cf3 8ebe 26f1 62be ea4a 2cbc
000000b0: e84c b43c 1f81 ffbe c3e2 40bd 8d3e 9ebd
000000c0: c4e4 28be c7a1 513e ba17 49be d5cf 8b3e
000000d0: c197 c83e 42bd dbbe 3e7f 3ebf 2d14 1d3e
000000e0: 5dd1 813e f998 e2be 7944 0f3f c901 cfbe
000000f0: 56e7 753e 4f69 d83e 6ac3 babe ae18 133f

encoder.lstm_cells.0.conv_i.convs.<prod___-___prod>.att_src f4 [1, 1, 8]
0.8144056 0.28406674 -0.47949496 0.039915025 -0.20245007 0.082004525 -0.3811154 0.49079782
00000000: e37c 503f 3271 913e 5d80 f5be f07d 233d
00000010: 124f 4fbe fdf1 a73d 8f21 c3be da49 fb3e

encoder.lstm_cells.0.conv_i.convs.<prod___-___prod>.att_dst f4 [1, 1, 8]
-0.7655212 -0.39496922 -0.3451412 -0.36944208 0.20732613 -0.6833545 0.64812905 -0.70759743
00000000: 33f9 43bf 6839 cabe 59b6 b0be 8327 bdbe
00000010: 4d4d 543e 52f0 2ebf c9eb 253f 1b25 35bf

encoder.lstm_cells.0.conv_i.convs.<prod___-___prod>.bias f4 [8]
0.16530406 0.16009818 0.05529178 0.26076284 0.19416064 0.056418292 0.13118514 0.17878187
00000000: 7845 293e c7f0 233e a279 623d b582 853e
00000010: 0cd2 463e de16 673d 6655 063e 9812 373e

encoder.lstm_cells.0.conv_i.convs.<prod___-___prod>.lin_src.weight f4 [8, 8]
-0.7974835 -0.31384128 -0.3774088 -0.574412 0.80019164 -0.2697131 0.045498382 -0.7284145
0.22061835 -0.043160003 -0.6260716 -0.04458458 0.44808152 0.39426464 -0.50599873 -0.42411873
-0.024336567 0.32924205 0.13962685 0.20806858 0.052574337 0.1875537 0.22318584 -0.19955945
0.15543802 0.25104907 0.21787557 -0.52660924 -0.031413414 -0.21384172 -0.2179836 0.23585117
-0.36542788 0.32430747 -0.07919728 0.30957848 0.026617251 -0.407338 -0.23372106 -0.36769485
0.21498306 -0.30030856 -0.16128516 0.08328698 -0.24543315 0.08713965 -0.5951887 -0.3843082
-0.6682388 0.029171716 -0.2981371 0.029589023 0.04614308 0.08661011 0.43976542 0.07716955
-0.4379689 -0.34817106 0.08562623 -0.36727864 0.49875265 0.2580148 0.07231614 0.34776875
00000000: e127 4cbf ceaf a0be ba3b c1be aa0c 13bf
00000010: 5cd9 4c3f d617 8abe 835c 3a3d 5f79 3abf
00000020: c7e9 613e 8bc8 30bd 3a46 20bf 529e 36bd
00000030: f16a e53e 0edd c93e 2289 01bf 1726 d9be
00000040: 7b5d c7bc 6a92 a83e 57fa 0e3e ee0f 553e
00000050: 3058 573d 140e 403e d48a 643e 5059 4cbe
00000060: 252b 1f3e 8189 803e c61a 5f3e ddcf 06bf
00000070: 5aab 00bd 53f9 5abe 1837 5fbe f882 713e
00000080: 5d19 bbbe a10b a63e 2f32 a2bd 1281 9e3e
00000090: 6c0c da3c 9b8e d0be 9354 6fbe 8042 bcbe
000000a0: 8524 5c3e 0bc2 99be f027 25be 5d92 aa3d
000000b0: d452 7bbe 4676 b23d 495e 18bf 0bc4 c4be
000000c0: b311 2bbf 86f9 ee3c 6da5 98be ae64 f23c
000000d0: 8700 3d3d a460 b13d ef28 e13e 120b 9e3d
000000e0: 763d e0be 7a43 b2be ce5c af3d f20b bcbe
000000f0: 825c ff3e 841a 843e 7c1a 943d bf0e b23e

encoder.lstm_cells.0.conv_i.convs.<prod___-___prod>.lin_dst.weight f4 [8, 8]
0.5844906 -0.0034009684 -0.5384135 0.4963872 -0.4233046 -0.1680394 0.6285104 0.591414
0.1885091 -0.09437596 -0.607642 -0.11561355 0.45494398 0.27655825 0.16777582 -0.010960803
-0.21054256 0.22952631 -0.055706087 0.34634244 -0.24357925 0.3912139 0.37163943 0.21722288
0.38868397 0.2557063 0.4784296 0.4231112 -0.284089 -0.40253147 0.2219931 0.10590902
-0.16135728 0.03830937 0.12533642 0.50089884 0.33161727 -0.34699214 -0.377434 -0.27757454
-0.23319279 0.42126194 0.23430303 0.50445944 -0.12697712 0.24087048 0.3240553 -0.46683013
0.050977033 0.08878584 -0.2531279 -0.42631987 0.671412 0.38021988 0.17175111 0.47121337
-0.24414524 -0.23755479 0.14040904 -0.15197124 -0.25156334 -0.38658354 0.278691 -0.25496113
00000000: 2da1 153f c8e2 5ebb 78d5 09bf 7726 fe3e
00000010: 61bb d8be 8512 2cbe 0fe6 203f e866 173f
00000020: 8808 413e 2f48 c1bd 6d8e 1bbf ccc6 ecbd
00000030: 6bee e83e 0b99 8d3e 6dcd 2b3e f194 33bc
00000040: 7898 57be f208 6b3e 112c 64bd cc53 b13e
00000050: d76c 79be 304d c83e 8647 be3e ad6f 5e3e
00000060: 9601 c73e f0eb 823e b9f4 f43e 08a2 d83e
00000070: 1d74 91be 9b18 cebe 2952 633e d4e6 d83d
00000080: d83a 25be 49ea 1c3d 3158 003e e83a 003f
00000090: bdc9 a93e f4a8 b1be 073f c1be 401e 8ebe
000000a0: 17ca 6ebe a5af d73e 22ed 6f3e 4124 013f
000000b0: 4a06 02be c0a6 763e 94ea a53e 5c04 efbe
000000c0: 4bcd 503d 5ad5 b53d fb99 81be 9946 dabe
000000d0: a8e1 2b3f 2eac c23e 86df 2f3e e142 f13e
000000e0: 3601 7abe 9041 73be 63c7 0f3e 599e 1bbe
000000f0: e9cc 80be 47ee c5be 96b0 8e3e 448a 82be

encoder.lstm_cells.0.conv_i.convs.<inj___-___inj>.att_src f4 [1, 1, 8]
0.71316314 0.046126902 -0.35134253 0.40290037 0.05892832 0.7399246 0.17037618 -0.2832436
00000000: dc91 363f 90ef 3c3d 2be3 b3be f548 ce3e
00000010: d25e 713d b36b 3d3f 1877 2e3e 4e05 91be

encoder.lstm_cells.0.conv_i.convs.<inj___-___inj>.att_dst f4 [1, 1, 8]
0.24397084 -0.23913294 0.33486 0.7516817 0.44222844 -0.35500503 0.4688849 0.16329816
00000000: 7ed3 793e 44df 74be c572 ab3e 366e 403f
00000010: c46b e23e 38c3 b5be ae11 f03e a237 273e

encoder.lstm_cells.0.conv_i.convs.<inj___-___inj>.bias f4 [8]
0.18239537 0.07888486 0.19310373 -0.036473542 0.10165532 0.12896772 0.17803197 0.038534936
00000000: dac5 3a3e 638e a13d fcbc 453e 4865 15bd
00000010: aa30 d03d 1d10 043e 034e 363e cfd6 1d3d

encoder.lstm_cells.0.conv_i.convs.<inj___-___inj>.lin_src.weight f4 [8, 8]
0.15641437 0.46695307 -0.09677202 -0.308001 0.2651361 -0.36616626 0.075824134 0.68523175
-0.28563234 -0.41432542 -0.39981055 -0.2034029 -0.21914427 -0.28531587 0.21624838 0.040443595
-0.10381493 -0.4139559 -0.052115817 -0.27356577 -0.25288627 -0.64711386 0.1887715 -0.32580894
-0.4389708 -0.4297013 0.43371874 -0.46417654 -0.31264108 0.43937662 0.33836251 0.5349737
-0.50379026 -0.5111279 -0.11789206 0.49985597 -0.036295224 -0.52355266 0.063173674 -0.34321854
-0.079076365 -0.16739158 0.5993676 0.09688343 -0.13191341 0.034979757 -0.12784067 0.3570102
0.31799257 0.108162954 -0.20376767 0.47358376 -0.14558971 -0.32491165 0.4516608 0.56780094
0.86268264 0.054388586 0.09417191 0.048586976 0.29558983 -0.8536709 0.1487258 -0.114979714
00000000: 172b 203e 7914 ef3e 6930 c6bd 4fb2 9dbe
00000010: ebbf 873e 257a bbbe af49 9b3d 596b 2f3f
00000020: 673e 92be 7622 d4be f8b3 ccbe da48 50be
00000030: 5b67 60be ec14 92be 3770 5d3e 2fa8 253d
00000040: ec9c d4bd 07f2 d3be 6577 55bd d010 8cbe
00000050: 4f7a 81be 41a9 25bf 514d 413e 6ed0 a6be
00000060: c8c0 e0be cf01 dcbe 6210 de3e 8ca8 edbe
00000070: 7e12 a0be f9f5 e03e da3d ad3e 09f4 083f
00000080: 66f8 00bf 47d9 02bf 6471 f1bd 1fed ff3e
00000090: 4daa 14bd 8c07 06bf 3361 813d 57ba afbe
000000a0: caf2 a1bd b368 2bbe 2870 193f d26a c63d
000000b0: 4f14 07be ef46 0f3d aae8 02be 0aca b63e
000000c0: eccf a23e 8a84 dd3d 79a8 50be 9279 f23e
000000d0: 7815 15be d25a a6be 1640 e73e 675b 113f
000000e0: c5d8 5c3f 91c6 5e3d 34dd c03d 2303 473d
000000f0: 8d57 973e 2d8a 5abf 934b 183e 7c7a ebbd

encoder.lstm_cells.0.conv_i.convs.<inj___-___inj>.lin_dst.weight f4 [8, 8]
0.114013575 0.28170988 -0.10525526 -0.028670125 0.26549232 -0.11603371 -0.5260391 0.5158319
-0.3081308 -0.095621556 0.03656862 -0.059241544 -0.56596124 0.29401654 -0.2664393 -0.34338728
0.1458858 -0.29020494 -0.2617213 -0.18284959 -0.24007 -0.26875225 -0.17685643 0.18536738
-0.4967871 -0.33985788 0.030389803 0.1101795 0.32837453 -0.44307104 0.18346983 0.3749096
0.33934355 -0.5405191 -0.21245743 -0.50237316 -0.39739937 0.32821876 -0.10307473 0.28644818
-0.35895562 0.06364155 -0.39166775 0.28253087 -0.25784606 -0.14058179 -0.51958907 -0.02419328
0.58064854 0.3272537 -0.3053633 0.032458294 -0.07709559 -0.5059747 0.46832955 0.03636839
0.12935525 -0.22021157 -0.2656406 0.12189988 0.21632177 0.12437889 -0.30657837 0.6196992
00000000: f37f e93d 473c 903e 1290 d7bd 9cdd eabc
00000010: 9cee 873e 15a3 edbd 80aa 06bf 8f0d 043f
00000020: 52c3 9dbe 3cd5 c3bd fac8 153d 43a7 72bd
00000030: d6e2 10bf 5689 963e bb6a 88be 75d0 afbe
00000040: 1663 153e be95 94be 5600 86be ec3c 3bbe
00000050: e9d4 75be e599 89be da19 35be f2d0 3d3e
00000060: e15a febe da01 aebe 09f4 f83c caa5 e13d
00000070: b520 a83e 35da e2be 84df 3b3e 27f4 bf3e
00000080: 70be ad3e 765f 0abf 718e 59be 879b 00bf
00000090: ee77 cbbe 4a0c a83e d818 d3bd 56a9 923e
000000a0: 08c9 b7be 8056 823d ad88 c8be e3a7 903e
000000b0: 6604 84be acf4 0fbe ca03 05bf fc30 c6bc
000000c0: 62a5 143f cc8d a73e 9458 9cbe fdf2 043d
000000d0: 4be4 9dbd 8f87 01bf e4c8 ef3e 05f7 143d
000000e0: b475 043e 247f 61be 0b02 88be a5a6 f93d
000000f0: 7483 5d3e 5cba fe3d d7f7 9cbe 9ba4 1e3f

encoder.lstm_cells.0.W_i.inj f4 [1, 8]
0.43861392 0.6241831 0.058303244 -0.1698689 0.01709776 0.18038577 0.09255435 0.25425276
00000000: 0192 e03e 77ca 1f3f 62cf 6e3d 1df2 2dbe
00000010: 9a10 8c3c 0cb7 383e 238d bd3d 6b2d 823e

encoder.lstm_cells.0.W_i.prod f4 [1, 8]
-0.5729928 -0.12805659 0.78815806 0.2756368 -0.3102905 -0.57151556 -0.7778435 -0.4480941
00000000: a8af 12bf 4421 03be bac4 493f 4420 8d3e
00000010: 65de 9ebe d84e 12bf c020 47bf 976c e5be

encoder.lstm_cells.0.b_i.inj f4 [1, 8]
0.6392172 -0.48956192 0.60348934 0.3340388 0.6849877 -0.49732813 0.7652527 -0.34746522
00000000: bda3 233f dca7 fabe 477e 1a3f 2207 ab3e
00000010: 5b5b 2f3f cba1 febe 9ae7 433f f6e6 b1be

encoder.lstm_cells.0.b_i.prod f4 [1, 8]
0.4682812 0.9268823 -0.059860334 0.2544486 0.0061779604 -0.6253435 0.52302456 -0.63176847
00000000: 8ec2 ef3e 2948 6d3f 1c30 75bd 1647 823e
00000010: 7d70 ca3b 8316 20bf f0e4 053f 94bb 21bf

encoder.lstm_cells.0.conv_f.convs.<inj___-___prod>.att_src f4 [1, 1, 8]
0.3460144 -0.3859864 -0.6752303 -0.22218691 -0.69830704 0.7745012 0.32858956 0.43938148
00000000: cd28 b13e 02a0 c5be e5db 2cbf f784 63be
00000010: 40c4 32bf b645 463f e43c a83e 9cf6 e03e

encoder.lstm_cells.0.conv_f.convs.<inj___-___prod>.att_dst f4 [1, 1, 8]
0.4010786 0.0039603333 0.6927802 -0.7038717 0.11327448 -0.45837316 0.3828192 -0.35545155
00000000: 2d5a cd3e afc5 813b 0b5a 313f f030 34bf
00000010: 73fc e73d e3af eabe e100 c43e bffd b5be

encoder.lstm_cells.0.conv_f.convs.<inj___-___prod>.bias f4 [8]
0.17624316 0.17343758 0.12608679 0.2764265 0.23485956 0.0045316583 0.26836103 0.11503907
00000000: 1679 343e 9f99 313e e51c 013e c687 8d3e
00000010: 067f 703e 4e7e 943b 9e66 893e 9b99 eb3d

encoder.lstm_cells.0.conv_f.convs.<inj___-___prod>.lin_src.weight f4 [8, 8]
0.12116245 -0.5795523 -0.13126335 0.44200912 -0.19096579 -0.27785096 -0.062045034 0.009099866
-0.3907517 -0.5454339 0.5029833 0.46630132 0.4546423 -0.57379955 0.4438988 -0.28495812
0.39714715 0.28491947 0.39765435 0.35614544 0.39204133 0.025969502 0.35236436 -0.32606697
0.4295941 -0.3297899 0.018211523 -0.5140438 -0.35026556 -0.48322386 -0.08190438 -0.35996288
-0.33788517 -0.040620867 0.6338829 0.4367701 0.10695294 -0.5410368 -0.4203453 0.49770537
0.2676279 -0.43150318 0.19789915 0.5486208 0.072213836 -0.32663614 0.41840297 0.22068928
0.5793079 -0.5336715 0.6700944 -0.40051454 0.34710902 -0.47615853 0.45552436 0.4556104
0.22871625 -0.06944826 0.34698322 -0.30386543 -0.6662728 -0.33405104 0.5578129 -0.0026803294
00000000: 0524 f83d 8a5d 14bf e669 06be 054f e23e
00000010: 898c 43be 7b42 8ebe ef22 7ebd 9b17 153c
00000020: 9b10 c8be 8ea1 0bbf 83c3 003f 0cbf ee3e
00000030: e0c6 e83e 87e4 12bf b446 e33e 08e6 91be
00000040: df56 cb3e f7e0 913e 5a99 cb3e b258 b63e
00000050: a4b9 c83e febd d43c 1a69 b43e 40f2 a6be
00000060: c2f3 db3e 39da a8be 5530 953c 6098 03bf
00000070: 0256 b3be 1e69 f7be 7cbd a7bd 0e4d b8be
00000080: 49ff acbe 1162 26bd 2646 223f 55a0 df3e
00000090: 250a db3d 6381 0abf 8037 d7be 3dd3 fe3e
000000a0: 8606 893e fced dcbe 13a6 4a3e 6a72 0c3f
000000b0: d9e4 933d da3c a7be ea38 d63e 5ffc 613e
000000c0: 864d 143f b29e 08bf 4e8b 2b3f 3e10 cdbe
000000d0: 46b8 b13e 0dcb f3be 7d3a e93e c445 e93e
000000e0: 9834 6a3e e43a 8ebd c9a7 b13e 4094 9bbe
000000f0: db90 2abf bd08 abbe d4cc 0e3f 77a8 2fbb

encoder.lstm_cells.0.conv_f.convs.<inj___-___prod>.lin_dst.weight f4 [8, 8]
0.38384858 -0.092771836 0.5921264 0.60704577 0.24585783 -0.45045072 -0.48689252 -0.012026479
-0.28442287 0.52865344 -0.5570643 0.33788967 0.5537239 0.28581843 0.28002903 -0.54624
0.7764287 0.023048026 -0.446113 0.8401167 -0.22187218 -0.17503615 0.5754906 -0.45633128
-0.62269676 -0.03197964 -0.2117803 -0.09635152 -0.54197603 0.15387031 -0.28752384 -0.26793584
-0.36717287 0.46486187 0.2566646 -0.27764398 0.5230116 0.04107463 0.11779794 -0.40384603
-0.09044261 0.4672436 0.29965654 -0.70451236 0.52850103 0.1726989 0.28527105 0.51068586
0.7141406 -0.34190845 0.6700311 -0.1757359 0.07491049 -0.56730604 -0.11986056 -0.06206671
-0.2635304 -0.2305276 -0.083094545 0.36758173 0.32549134 0.4795945 0.23276196 0.50973016
00000000: cd87 c43e 29ff bdbd 9995 173f 5a67 1b3f
00000010: 28c2 7b3e 7aa1 e6be fa49 f9be b50a 45bc
00000020: e09f 91be d555 073f c49b 0ebf e0ff ac3e
00000030: d9c0 0d3f cb56 923e f75f 8f3e 62d6 0bbf
00000040: 08c4 463f 37cf bc3c ec68 e4be e311 573f
00000050: 7632 63be ad3c 33be 5a53 133f 41a4 e9be
00000060: 0e69 1fbf 15fd 02bd efdc 58be f253 c5bd
00000070: f1be 0abf 2e90 1d3e 5336 93be e32e 89be
00000080: 15fe bbbe 6002 ee3e 8b69 833e 5a27 8ebe
00000090: 17e4 053f df3d 283d 0c40 f13d e8c4 cebe
000000a0: fa39 b9bd 8e3a ef3e 956c 993e ec5a 34bf
000000b0: d84b 073f fbd7 303e 0c0f 923e 4fbc 023f
000000c0: ebd1 363f a00e afbe 2887 2b3f 1df4 33be
000000d0: ac6a 993d f83a 11bf 7479 f5bd aa39 7ebd
000000e0: 75ed 86be 6d0f 6cbe 792d aabd ac33 bc3e
000000f0: cda6 a63e 698d f53e 2759 6e3e ad7d 023f

encoder.lstm_cells.0.conv_f.convs.<prod___-___prod>.att_src f4 [1, 1, 8]
0.40475404 0.009116476 0.7778924 -0.4602293 -0.35347942 -0.38230392 0.51994336 0.44707897
00000000: ec3b cf3e 465d 153c f523 473f 2da3 ebbe
00000010: 41fb b4be 57bd c3be 021b 053f 89e7 e43e

encoder.lstm_cells.0.conv_f.convs.<prod___-___prod>.att_dst f4 [1, 1, 8]
0.8397353 -0.839798 -0.933299 -0.7655619 -0.5418859 0.4159547 0.31646088 0.78697884
00000000: e5f8 563f 00fd 56bf afec 6ebf ddfb 43bf
00000010: 09b9 0abf 04f8 d43e 2907 a23e 7277 493f

encoder.lstm_cells.0.conv_f.convs.<prod___-___prod>.bias f4 [8]
0.17624316 0.17343758 0.12608679 0.2764265 0.23485956 0.0045316583 0.26836103 0.11503907
00000000: 1679 343e 9f99 313e e51c 013e c687 8d3e
00000010: 067f 703e 4e7e 943b 9e66 893e 9b99 eb3d

encoder.lstm_cells.0.conv_f.convs.<prod___-___prod>.lin_src.weight f4 [8, 8]
-0.27569366 0.11680439 -0.19546264 -0.6718235 -0.27456108 -0.02678732 -0.44973165 -0.1260152
-0.25922552 0.24069881 0.25731626 -0.3495732 0.64503527 0.36546606 -0.6008459 -0.5978249
-0.6595179 -0.1279915 -0.36803898 -0.24746238 -0.0011325321 -0.59584534 -0.33436286 -0.26678878
0.35305995 -0.14335495 -0.73198926 0.12664233 0.20645124 0.522134 0.18905404 0.47625324
-0.64055055 0.47698262 0.25694686 -0.35130572 0.74863225 0.35638177 -0.20191763 0.18769746
-0.2146384 -0.3919034 0.11466319 0.17198688 -0.39886183 0.21099243 -0.4755161 0.63414687
0.34682444 0.4578371 -0.59514457 0.24416035 0.3683291 -0.09895155 -0.06962178 0.1393895
-0.32129768 0.13381164 0.1699429 0.12856321 0.6168414 -0.33978724 -0.08074941 -0.13371825
00000000: b827 8dbe 2437 ef3d 5c27 48be a0fc 2bbf
00000010: 4593 8cbe 1571 dbbc 3a43 e6be 210a 01be
00000020: 35b9 84be c079 763e f5be 833e 42fb b2be
00000030: 0821 253f 5e1e bb3e 09d1 19bf 0d0b 19bf
00000040: 2ad6 28bf 3410 03be 9b6f bcbe c766 7dbe
00000050: 7971 94ba 5289 18bf 9c31 abbe 8a98 88be
00000060: 46c4 b43e a4cb 12be a663 3bbf 87ae 013e
00000070: f467 533e 93aa 053f 6297 413e 77d7 f33e
00000080: 1ffb 23bf 1137 f43e 8a8e 833e 58de b3be
00000090: 5da6 3f3f ac77 b63e 7fc3 4ebe c333 403e
000000a0: 2bca 5bbe 90a7 c8be 89d4 ea3d 541d 303e
000000b0: 9e37 ccbe 660e 583e d976 f3be 7357 223f
000000c0: f992 b13e a069 ea3e 655b 18bf 2c05 7a3e
000000d0: a295 bc3e 1ca7 cabd dd95 8ebd 1fbc 0e3e
000000e0: 2181 a4be eb05 093e 8305 2e3e 13a6 033e
000000f0: 51e9 1d3f 98f8 adbe f25f a5bd 70ed 08be

encoder.lstm_cells.0.conv_f.convs.<prod___-___prod>.lin_dst.weight f4 [8, 8]
0.013595416 0.47064385 0.08549957 -0.47067013 -0.20407207 -0.32431662 0.117117666 -0.026215415
-0.7872887 -0.16143163 -0.07845096 -0.27636507 0.7030643 -0.08733544 0.33420414 0.104671545
-0.69388914 0.09144172 0.48958275 -0.4903751 -0.25838083 0.647099 0.4344174 -0.39233416
0.18938415 -0.12385371 -0.6247579 -0.03615854 0.33650452 -0.13880612 0.15379357 -0.58393997
0.24874182 0.4740441 0.31910282 0.01984995 0.33721307 -0.3967789 -0.2099897 -0.113652244
-0.15934043 -0.41348067 0.43357953 0.49235672 -0.69628924 0.15179616 0.31010944 0.6499224
0.52960134 0.6209747 -0.18285303 0.53227735 0.36074117 -0.62674767 -0.43511236 0.15931706
0.5135807 -0.25985092 0.087940775 0.081199385 0.016073776 -0.37398505 0.4048742 0.46764654
00000000: 4fbf 5e3c 3bf8 f03e 661a af3d adfb f0be
00000010: 45f8 50be d40c a6be 63db ef3d b6c1 d6bc
00000020: c18b 49bf 554e 25be e6aa a0bd b97f 8dbe
00000030: 06fc 333f ecdc b2bd ce1c ab3e 095e d63d
00000040: b8a2 31bf cc45 bb3d 97aa fa3e 7212 fbbe
00000050: 7e4a 84be 48a8 253f f56b de3e 06e0 c8be
00000060: ebed 413e 04a7 fdbd 22f0 1fbf fa1a 14bd
00000070: 524a ac3e 3123 0ebe 107c 1d3e 177d 15bf
00000080: 2db6 7e3e e9b5 f23e 7261 a33e 5d9c a23c
00000090: 31a7 ac3e 9b26 cbbe 8a07 57be 82c2 e8bd
000000a0: 232a 23be bdb3 d3be 23fe dd3e 2e16 fc3e
000000b0: 0340 32bf 7470 1b3e aac6 9e3e 5061 263f
000000c0: f493 073f 33f8 1e3f d33d 3bbe 5443 083f
000000d0: 11b3 b83e 8972 20bf 0cc7 debe 0324 233e
000000e0: 067a 033f 2e0b 85be 4b1a b43d dd4b a63d
000000f0: 27ad 833c f87a bfbe ac4b cf3e 5e6f ef3e

encoder.lstm_cells.0.conv_f.convs.<inj___-___inj>.att_src f4 [1, 1, 8]
-0.37149313 -0.5438265 0.4739118 -0.3475083 0.49698347 -0.13693807 0.43914947 -0.5876821
00000000: 5934 bebe 3738 0bbf 91a4 f23e 9cec b1be
00000010: 9e74 fe3e 7e39 0cbe 33d8 e03e 5672 16bf

encoder.lstm_cells.0.conv_f.convs.<inj___-___inj>.att_dst f4 [1, 1, 8]
-0.44203544 0.25456032 0.15682402 -0.21079366 0.52138954 0.5840782 -0.6213099 -0.41138884
00000000: 7852 e2be bb55 823e 7a96 203e 4bda 57be
00000010: c979 053f 2686 153f 2a0e 1fbf 8fa1 d2be

encoder.lstm_cells.0.conv_f.convs.<inj___-___inj>.bias f4 [8]
0.21095511 -0.0020378318 0.21759614 0.013824132 0.15676683 0.13238607 0.19253731 0.09442501
00000000: 9e04 583e 258d 05bb 86d1 5e3e 9d7e 623c
00000010: 7c87 203e 3790 073e 8028 453e e661 c13d

encoder.lstm_cells.0.conv_f.convs.<inj___-___inj>.lin_src.weight f4 [8, 8]
-0.27416617 -0.12703271 0.12217188 0.07361831 0.4494042 0.024795702 0.0063646263 0.6832677
-0.26191458 -0.159397 -0.013279026 -0.50066435 0.13147655 -0.3923082 0.03654071 -0.005722978
0.18948823 -0.45343286 -0.4194769 0.20004083 0.46141768 -0.65893847 0.27731046 -0.30549276
0.14700738 0.5617678 0.67637646 -0.6128515 0.248541 0.20272548 0.087527476 0.80318564
-0.131088 -0.23678315 -0.16091171 0.051762525 0.040392086 -0.04993464 -0.2471342 -0.117342055
0.27120027 -0.54323155 -0.022171754 -0.121633455 -0.278301 0.14761253 0.09422945 0.556464
0.03385827 -0.46121156 0.4704766 0.024245482 -0.23909444 -0.50217205 0.22549261 -0.5109704
0.4592937 0.10320783 -0.19509415 -0.6932713 -0.7356069 0.22178102 0.80427545 0.36927402
00000000: 825f 8cbe dd14 02be 4035 fa3d 32c5 963d
00000010: 4f18 e63e 5b20 cb3c 5b8e d03b a2ea 2e3f
00000020: ab19 86be f838 23be 4690 59bc 8a2b 00bf
00000030: caa1 063e 9fdc c8be b6ab 153d d287 bbbb
00000040: 3409 423e 5a28 e8be adc5 d6be 81d7 4c3e
00000050: f03e ec3e 31b0 28bf a3fb 8d3e 8c69 9cbe
00000060: 1a89 163e 04d0 0f3f 0227 2d3f d6e3 1cbf
00000070: 8881 7e3e 4597 4f3e 9b41 b33d 939d 4d3f
00000080: ef3b 06be 4877 72be 0ac6 24be f104 543d
00000090: 2c72 253d 4488 4cbd bf10 7dbe 0851 f0bd
000000a0: c3da 8a3e 3911 0bbf 8aa1 b5bc f61a f9bd
000000b0: 787d 8ebe bd27 173e 5ffb c03d 6d74 0e3f
000000c0: f8ae 0a3d ec23 ecbe 4fe2 f03e 769e c63c
000000d0: 2cd5 74be 598e 00bf 89e7 663e f5ce 02bf
000000e0: 8b28 eb3e a05e d33d c3c6 47be 3a7a 31bf
000000f0: bc50 3cbf 901a 633e ffe4 4d3f 7c11 bd3e

encoder.lstm_cells.0.conv_f.convs.<inj___-___inj>.lin_dst.weight f4 [8, 8]
0.5562207 -0.18233249 -0.59505105 0.27118298 0.23460646 0.6159026 -0.023291813 0.48935392
0.39299268 0.42157817 -0.60811293 0.4481467 -0.5387963 0.53441924 -0.0030927185 -0.56412673
0.18716876 -0.14534593 -0.5507369 -0.27593857 0.04708482 0.46295756 -0.16668186 0.34217796
0.058358192 0.042172566 0.11657176 -0.34763527 -0.49184468 -0.1771925 -0.59329706 -0.26658052
0.046918955 -0.42575905 -0.25346205 -0.16752554 -0.08822569 -0.35360068 0.052554816 -0.105827026
0.19377206 0.0053535644 -0.30537137 -0.26845223 -0.024608834 -0.39756212 0.07094638 -0.06319968
0.21885769 0.16736674 0.45778397 0.0375622 -0.4348264 0.28927398 -0.4369779 -0.06417424
-0.21621321 -0.21106368 -0.22653776 0.6190143 0.36732182 0.18451327 0.5527394 -0.53491783
00000000: 7b64 0e3f 5eb5 3abe 4455 18bf 7fd8 8a3e
00000010: ad3c 703e cbab 1d3f 79ce bebc 998c fa3e
00000020: 5636 c93e 18d9 d73e 4aad 1bbf 7c73 e53e
00000030: 8eee 09bf b3cf 083f 35af 4abb 9c6a 10bf
00000040: 2ba9 3f3e 90d5 14be 18fd 0cbf d247 8dbe
00000050: 03dc 403d c608 ed3e a6ae 2abe f331 af3e
00000060: 0009 6f3d 24bd 2c3d 2dbd ee3d 40fd b1be
00000070: 11d3 fbbe f371 35be 51e2 17bf 3e7d 88be
00000080: 172e 403d 17fd d9be c7c5 81be d18b 2bbe
00000090: acaf b4bd 260b b5be b843 573d d7bb d8bd
000000a0: 2f6c 463e f46c af3b a359 9cbe 9272 89be
000000b0: 7798 c9bc 438d cbbe 564c 913d d56e 81bd
000000c0: 3b1c 603e 3062 2b3e a962 ea3e d2da 193d
000000d0: 91a1 debe b81b 943e 91bb dfbe c96d 83bd
000000e0: ff66 5dbe 1421 58be 84f9 67be b977 1e3f
000000f0: 9b11 bc3e 0cf1 3c3e 5480 0d3f 60f0 08bf

encoder.lstm_cells.0.W_f.inj f4 [1, 8]
-0.33059102 0.18708655 0.65649027 0.37316242 -0.85810953 -0.24117185 -0.2261558 0.8244439
00000000: 3a43 a9be 9e93 3f3e bf0f 283f 250f bf3e
00000010: 11ad 5bbf c1f5 76be 6395 67be c10e 533f

encoder.lstm_cells.0.W_f.prod f4 [1, 8]
0.29147032 0.0049419524 0.4397122 -0.40573865 -0.78352463 0.5038794 -0.6426298 0.1251157
00000000: 993b 953e 1af0 a13b f521 e13e fabc cfbe
00000010: 1295 48bf 3efe 003f 6383 24bf 541e 003e

encoder.lstm_cells.0.b_f.inj f4 [1, 8]
0.7178349 0.6088848 0.9897639 -0.17877051 -0.5141022 0.3159589 0.64359295 -0.7182408
00000000: 07c4 373f e0df 1b3f 2b61 7d3f 9e0f 37be
00000010: 349c 03bf 5dc5 a13e 82c2 243f a1de 37bf

encoder.lstm_cells.0.b_f.prod f4 [1, 8]
-0.009088599 -0.31601572 0.054672964 -0.12546477 -0.098898195 -0.2546722 -0.5075595 0.78498006
00000000: 59e8 14bc d0cc a1be c2f0 5f3d d679 00be
00000010: 238b cabd 6564 82be 6bef 01bf 74f4 483f

encoder.lstm_cells.0.conv_c.convs.<inj___-___prod>.att_src f4 [1, 1, 8]
0.63255733 -0.45919213 -0.4954223 -0.9477223 -0.28335378 0.4214597 -0.06227186 -0.4542464
00000000: 47ef 213f 3b1b ebbe fea7 fdbe ee9d 72bf
00000010: bf13 91be 91c9 d73e c710 7fbd fc92 e8be

encoder.lstm_cells.0.conv_c.convs.<inj___-___prod>.att_dst f4 [1, 1, 8]
-0.07497305 -0.61985505 -0.7952931 -0.57503766 -0.79447585 -0.62669927 0.6765933 0.010844642
00000000: 788b 99bd d2ae 1ebf 5498 4bbf ab35 13bf
00000010: c562 4bbf 5d6f 20bf 3835 2d3f baad 313c

encoder.lstm_cells.0.conv_c.convs.<inj___-___prod>.bias f4 [8]
-0.15653785 -0.20437753 -0.23702122 -0.14215228 0.18350999 -0.10405449 -0.19244066 0.04548841
00000000: 754b 20be 5848 51be b1b5 72be 5e90 11be
00000010: 0bea 3b3e 851a d5bd 2a0f 45be 0e52 3a3d

encoder.lstm_cells.0.conv_c.convs.<inj___-___prod>.lin_src.weight f4 [8, 8]
-0.043981455 0.46014962 0.182437 -0.37314507 0.4382465 -0.1438129 -0.16507635 -0.3547605
-0.5457608 -0.40662822 -0.43135962 0.20565578 0.33183524 -0.50186616 -0.24784783 0.012473077
-0.7182728 0.43720472 0.3360266 0.20492461 -0.27500373 0.33146882 0.062417034 0.26999497
-0.3346796 -0.557742 0.11545721 -0.18897542 -0.079157 -0.20482516 -0.2162087 0.38424942
-0.19859399 0.5226833 0.52102065 0.13505329 0.22831324 0.062167935 0.37259665 -0.51604056
0.1697567 -0.04880532 0.1483353 0.11081253 0.023290198 0.14456566 0.2791403 -0.4604825
-0.6081406 0.091532886 -0.047420584 0.43766358 0.53680056 0.10210417 0.36477828 -0.23175451
-0.40947953 -0.28276587 -0.46251425 -0.3380315 -0.4514465 -0.45665944 0.08461916 0.3868821
00000000: e625 34bd bb98 eb3e c4d0 3a3e df0c bfbe
00000010: d861 e03e b043 13be c609 29be 2ba3 b5be
00000020: fbb6 0bbf 9331 d0be 2bdb dcbe 6e97 523e
00000030: 4fe6 a93e 4d7a 00bf d2cb 7dbe e05b 4c3c
00000040: bae0 37bf 4cd9 df3e ae0b ac3e c2d7 513e
00000050: 4acd 8cbe 48b6 a93e 01a9 7f3d c83c 8a3e
00000060: 205b abbe 2ec8 0ebf d474 ec3d c682 41be
00000070: 111d a2bd b0bd 51be d065 5dbe 57bc c43e
00000080: 395c 4bbe 93ce 053f 9c61 053f 694b 0a3e
00000090: f2ca 693e cea3 7e3d fdc4 be3e 3c1b 04bf
000000a0: b3d4 2d3e 16e8 47bd 35e5 173e aef1 e23d
000000b0: 16cb be3c 0509 143e 7aeb 8e3e 5dc4 ebbe
000000c0: 1aaf 1bbf 9875 bb3d 163c 42bd 7115 e03e
000000d0: c36b 093f fe1b d13d 38c4 ba3e 0e51 6dbe
000000e0: 4da7 d1be b0c6 90be abce ecbe 7712 adbe
000000f0: ff23 e7be 44cf e9be cf4c ad3d 6915 c63e

encoder.lstm_cells.0.conv_c.convs.<inj___-___prod>.lin_dst.weight f4 [8, 8]
0.69404006 0.44439816 0.010383213 0.005555771 -0.51840395 0.36311024 -0.4698926 0.4146003
0.2307359 0.14599295 0.28808594 -0.39199048 0.3886885 0.40769324 0.51802886 0.21041384
0.50353205 0.36951956 0.34135908 0.35501903 -0.24843147 0.5185345 0.25744617 0.4985871
0.71710724 0.095116444 -0.16374804 -0.17418982 0.03353374 0.2203966 -0.049171083 0.61161417
0.4861993 -0.42476305 0.012265141 -0.16984962 -0.52176315 0.20577219 -0.07216283 -0.18607648
-0.07678498 -0.262547 0.6495462 0.121846646 0.4635225 0.28513825 0.256565 0.38349572
-0.007828641 -0.44110045 -0.4252319 -0.043443013 0.14106965 0.11906303 0.12596244 0.3618361
0.045674678 -0.19177468 -0.5293965 -0.37184364 -0.26247165 0.097109154 0.25050393 0.44148028
00000000: 9cac 313f 2888 e33e 5a1e 2a3c 2f0d b63b
00000010: 1fb6 04bf 96e9 b93e c395 f0be 7e46 d43e
00000020: 0846 6c3e 2d7f 153e 0080 933e fab2 c8be
00000030: 2e02 c73e 2bbd d03e 8a9d 043f ba76 573e
00000040: 7ae7 003f ab31 bd3e 9ec6 ae3e 0ec5 b53e
00000050: d264 7ebe adbe 043f fccf 833e cf46 ff3e
00000060: 5794 373f 69cc c23d 91ad 27be d15e 32be
00000070: ad5a 093d a5af 613e 9e67 49bd bf92 1c3f
00000080: 1def f83e 8b7a d9be bbf3 483c 0fed 2dbe
00000090: 4592 05bf f2b5 523e 1bca 93bd d58a 3ebe
000000a0: 7241 9dbd 8f6c 86be a948 263f bc8a f93d
000000b0: d252 ed3e a4fd 913e 7d5c 833e 8d59 c43e
000000c0: b343 00bc ebd7 e1be ffb7 d9be 4df1 31bd
000000d0: 9074 103e 51d7 f33d 4cfc 003e 9542 b93e
000000e0: 5f15 3b3d 9560 44be 8786 07bf 4a62 bebe
000000f0: af62 86be 2ae1 c63d 0d42 803e b409 e23e

encoder.lstm_cells.0.conv_c.convs.<prod___-___prod>.att_src f4 [1, 1, 8]
0.1262638 -0.7436763 -0.6440272 -0.28107032 0.23333871 -0.8012962 -0.46289107 -0.5786154
00000000: 4c4b 013e 9261 3ebf f7de 24bf 73e8 8fbe
00000010: 58f0 6e3e bf21 4dbf 0f00 edbe 2420 14bf

encoder.lstm_cells.0.conv_c.convs.<prod___-___prod>.att_dst f4 [1, 1, 8]
0.06335734 -0.26060885 -0.12301415 -0.63333106 -0.477565 -0.55755854 -0.34693104 -0.6877013
00000000: 7ec1 813d 866e 85be d8ee fbbd fc21 22bf
00000010: 6683 f4be 28bc 0ebf f2a0 b1be 310d 30bf

encoder.lstm_cells.0.conv_c.convs.<prod___-___prod>.bias f4 [8]
-0.15653785 -0.20437753 -0.23702122 -0.14215228 0.18350999 -0.10405449 -0.19244066 0.04548841
00000000: 754b 20be 5848 51be b1b5 72be 5e90 11be
00000010: 0bea 3b3e 851a d5bd 2a0f 45be 0e52 3a3d

encoder.lstm_cells.0.conv_c.convs.<prod___-___prod>.lin_src.weight f4 [8, 8]
0.046621874 -0.12601517 0.06626716 0.13883844 -0.008068484 0.110168785 0.24093296 0.24791846
0.39622188 -0.13646922 -0.111686416 0.25549203 -0.12730365 -0.16653101 0.37366122 0.060300224
0.17617013 -0.41294175 0.09194618 -0.3530564 -0.1011264 0.17140192 0.57849604 0.20920575
0.13876273 0.12677242 0.481058 -0.14854212 0.24572222 0.09625326 -0.46391597 0.114175476
-0.3941714 -0.017844716 -0.0999012 -0.4647351 0.5547662 -0.59374255 0.36227444 -0.5242028
-0.087297216 -0.14895868 0.46283877 -0.3141831 0.20075348 0.2928374 0.48293337 0.098155245
0.411655 -0.4801538 -0.3111092 0.635739 -0.622745 -0.019205436 0.12045582 0.73002845
-0.06640891 -0.42230093 -0.27427548 0.5007577 0.17450073 0.52292866 -0.013541168 0.059844233
00000000: 94f6 3e3d 1f0a 01be 14b7 873d aa2b 0e3e
00000010: ad31 04bc 2ca0 e13d 21b7 763e 56de 7d3e
00000020: 98dd ca3e 96be 0bbe d9bb e4bd dacf 823e
00000030: e35b 02be 1b87 2abe 8650 bf3e 5efd 763d
00000040: f165 343e 1a6d d3be 474e bc3d cfc3 b4be
00000050: 5c1b cfbd fc83 2f3e 5118 143f 083a 563e
00000060: d117 0e3e a1d0 013e 3c4d f63e 6d1b 18be
00000070: 9b9e 7b3e 6e20 c53d 6586 edbe d5d4 e93d
00000080: d5d0 c9be 152f 92bc 0099 ccbd c2f1 edbe
00000090: 2805 0e3f 83ff 17bf 097c b93e 2832 06bf
000000a0: e2c8 b2bd a088 18be 34f9 ec3e 9bdc a0be
000000b0: 5292 4d3e c9ee 953e 0b43 f73e 9e05 c93d
000000c0: 72c4 d23e b8d6 f5be b449 9fbe cbbf 223f
000000d0: 376c 1fbf b854 9dbc 8ab1 f63d 25e3 3a3f
000000e0: 6501 88bd d437 d8be d66d 8cbe a831 003f
000000f0: 52b0 323e a7de 053f c6db 5dbc 3a1f 753d

encoder.lstm_cells.0.conv_c.convs.<prod___-___prod>.lin_dst.weight f4 [8, 8]
-0.6509906 0.27749658 0.17794882 0.33577234 -0.26095885 -0.270791 0.047831893 -0.5499802
-0.4331637 -0.60529673 0.10897374 0.43082654 0.083700016 0.106767215 0.28614956 -0.30012274
0.13031536 -0.16968718 -0.21560203 0.5867249 -0.55817205 0.18025622 -0.44985718 0.08188944
-0.21420622 0.18453151 -0.26440814 0.44508517 -0.5743224 0.44477078 -0.3817529 0.41934124
-0.20292872 -0.01647456 -0.036301956 0.448887 0.12616013 -0.46865517 0.13023138 -0.33644274
0.5154986 0.08300616 -0.0780125 -0.2595426 0.13470949 -0.28994235 0.36854473 0.42546067
0.4346346 0.14272228 -0.45563024 0.49418813 -0.26816598 -0.10252924 0.01359587 0.5404377
0.5278267 0.077942476 0.37052998 -0.51818955 -0.07514311 -0.46658677 0.28543386 -0.34635228
00000000: 52a7 26bf 0814 8e3e 3738 363e 5aea ab3e
00000010: 669c 85be 1ea5 8abe 60eb 433d 81cb 0cbf
00000020: a2c7 ddbe baf4 1abf a02d df3d 4c95 dc3e
00000030: ea6a ab3d c5a8 da3d 3282 923e b0a9 99be
00000040: 6471 053e 7ac2 2dbe c7c6 5cbe 9a33 163f
00000050: 5de4 0ebf 1695 383e ae53 e6be a7b5 a73d
00000060: e058 5bbe d4f5 3c3e 8160 87be 34e2 e33e
00000070: cb06 13bf ffb8 e33e 1e75 c3be e5b3 d63e
00000080: 8ccc 4fbe a8f5 86bc 5cb1 14bd 84d4 e53e
00000090: 1f30 013e 92f3 efbe 605b 053e 3942 acbe
000000a0: b7f7 033f 22ff a93d 05c5 9fbd c5e2 84be
000000b0: 49f1 093e 5373 94be e5b1 bc3e fbd5 d93e
000000c0: 6d88 de3e ca25 123e 5e48 e9be 3a06 fd3e
000000d0: 0d4d 89be dafa d1bd 36c1 5e3c 205a 0a3f
000000e0: a71f 073f 4ea0 9f3d 1bb6 bd3e 12a8 04bf
000000f0: a1e4 99bd 76e4 eebe 6324 923e 1655 b1be

encoder.lstm_cells.0.conv_c.convs.<inj___-___inj>.att_src f4 [1, 1, 8]
0.6938068 -0.12012812 0.6915222 0.30482876 -0.6416199 0.6085411 -0.2699249 -0.35774797
00000000: 539d 313f bb05 f6bd 9907 313f 8412 9c3e
00000010: 3441 24bf 59c9 1b3f 9933 8abe be2a b7be

encoder.lstm_cells.0.conv_c.convs.<inj___-___inj>.att_dst f4 [1, 1, 8]
-0.6770435 -0.8103684 0.2334297 -0.17945965 0.31906283 -0.6713788 0.6066175 -0.59942186
00000000: b952 2dbf 4e74 4fbf 3208 6f3e 45c4 37be
00000010: 345c a33e 7bdf 2bbf 494b 1b3f b673 19bf

encoder.lstm_cells.0.conv_c.convs.<inj___-___inj>.bias f4 [8]
0.19714777 -0.08462977 0.19404308 0.025679845 -0.04667859 -0.12468558 0.17547263 0.098662384
00000000: 1be1 493e 5f52 adbd 3bb3 463e 8a5e d23c
00000010: 0d32 3fbd 275b ffbd 19af 333e 810f ca3d

encoder.lstm_cells.0.conv_c.convs.<inj___-___inj>.lin_src.weight f4 [8, 8]
-0.12076124 0.36564806 0.6486757 -0.4496247 -0.41143674 -0.026166173 0.34477526 -0.04404496
-0.29662836 -0.3755085 0.15857673 0.78774077 -0.19756512 0.40041175 0.21653217 0.34579715
0.04220903 -0.10443417 0.52466726 0.3347913 0.5138657 -0.29906455 0.35737976 0.5139006
-0.37150875 0.021127798 -0.23416974 0.4085564 -0.30139127 -0.012601598 0.42280707 -0.66698796
-0.5783267 -0.22001833 0.32177815 0.4682877 -0.34514943 0.16754252 -0.3875417 -0.35261628
0.5223408 0.31336632 -0.09128697 0.121608436 0.10093356 0.15137878 -0.22367522 -0.31629524
0.4754204 0.0670834 0.30574936 -0.29641584 0.25182894 0.37137267 0.45189318 0.21674222
0.7589477 -0.11362704 0.35940376 0.38408542 0.48020223 -0.43757388 0.67539793 0.4762508
00000000: ab51 f7bd 3936 bb3e 9c0f 263f 3535 e6be
00000010: d6a7 d2be 715a d6bc 6286 b03e 7d68 34bd
00000020: acdf 97be a642 c0be f061 223e 61a9 493f
00000030: 834e 4abe c502 cd3e 9cba 5d3e 530c b13e
00000040: 60e3 2c3d 95e1 d5bd 9850 063f c469 ab3e
00000050: b48c 033f fd1e 99be 7bfa b63e fd8e 033f
00000060: 6536 bebe 3414 ad3c 31ca 6fbe 4e2e d13e
00000070: f54f 9abe ef76 4ebc 2b7a d83e b9bf 2abf
00000080: 380d 14bf 7c4c 61be 1bc0 a43e 68c3 ef3e
00000090: 6db7 b0be 4490 2b3e de6b c6be 1f8a b4be
000000a0: 20b8 053f 8d71 a03e aaf4 babd d80d f93d
000000b0: 41b6 ce3d 0a03 1b3e 1e0b 65be 73f1 a1be
000000c0: 4d6a f33e 0663 893d 2e8b 9c3e d1c3 97be
000000d0: b9ef 803e 8f24 be3e 8b5e e73e acf1 5d3e
000000e0: 654a 423f 4bb5 e8bd c503 b83e d8a6 c43e
000000f0: 11dd f53e af09 e0be e1e6 2c3f 25d7 f33e

encoder.lstm_cells.0.conv_c.convs.<inj___-___inj>.lin_dst.weight f4 [8, 8]
-0.06939241 0.53548485 -0.31629583 0.39823163 0.6059541 -0.42299935 -0.36221486 -0.6056063
-0.11118594 -0.55523413 -0.2040182 0.18631595 0.4318546 0.3403589 0.33892035 0.2554302
-0.3794862 -0.48652375 0.025020052 0.5813746 0.034819722 -0.05242673 -0.41530535 -0.3041271
-0.4723102 0.49054232 -0.09948937 -0.5408804 0.06542809 0.044250257 -0.075915724 0.2195907
0.32975668 -0.576286 -0.46961778 -0.029584544 -0.56730485 -0.5559326 0.5411181 -0.047220726
-0.30358967 -0.20927314 -0.47717008 0.47821483 -0.13365594 -0.344938 -0.46528116 0.35911828
-0.083880596 -0.06504971 -0.16045435 -0.295916 0.1097341 0.47172567 -0.35413834 0.028238202
-0.46647942 -0.28642818 0.53836304 0.0067242533 0.58912385 -0.10786979 -0.33454314 -0.3647937
00000000: 9c1d 8ebd 8915 093f 87f1 a1be 04e5 cb3e
00000010: cf1f 1b3f 5f93 d8be 3a74 b9be 0409 1bbf
00000020: 74b5 e3bd d323 0ebf 26ea 50be 9cc9 3e3e
00000030: 0c1c dd3e 8643 ae3e f886 ad3e bfc7 823e
00000040: 044c c2be a419 f9be daf6 cc3c f7d4 143f
00000050: 209f 0e3d 69bd 56bd e7a2 d4be 8cb6 9bbe
00000060: a4d2 f1be 5d28 fb3e 15c1 cbbd 2377 0abf
00000070: 2aff 853d c23f 353d b479 9bbd 62dc 603e
00000080: ded5 a83e 7b87 13bf be71 f0be 495b f2bc
00000090: e43a 11bf 9951 0ebf b786 0a3f 856a 41bd
000000a0: 1b70 9bbe b34b 56be a34f f4be 93d8 f43e
000000b0: 1add 08be b79b b0be 5539 eebe 5ade b73e
000000c0: 97c9 abbd c838 85bd 254e 24be 4d82 97be
000000d0: 46bc e03d 0786 f13e 9f51 b5be cd53 e73c
000000e0: 64d6 eebe b7a6 92be 29d2 093f 2057 dc3b
000000f0: d2d0 163f d6ea dcbd 3d49 abbe 3dc6 babe

encoder.lstm_cells.0.W_c.inj f4 [1, 8]
-0.581803 0.40851763 0.5050975 0.24226303 -0.58150864 -0.6704117 -0.44110104 0.6040036
00000000: 0bf1 14bf 3929 d13e 124e 013f cd13 783e
00000010: c0dd 14bf 1aa0 2bbf ffd7 e1be fb9f 1a3f

encoder.lstm_cells.0.W_c.prod f4 [1, 8]
0.12727769 0.77150583 0.16698314 0.46355793 -0.21649751 -0.538145 -0.4847278 -0.8345067
00000000: 1555 023e 6881 453f a1fd 2a3e 7757 ed3e
00000010: 86b1 5dbe dfc3 09bf 3e2e f8be 3ba2 55bf

encoder.lstm_cells.0.b_c.inj f4 [1, 8]
0.88164085 -0.21271287 0.10105827 -0.3075488 -0.7840269 -0.919256 0.47893107 -0.34963298
00000000: 37b3 613f 67d1 59be a3f7 ce3d 0977 9dbe
00000010: fdb5 48bf 5c54 6bbf 7436 f53e 1803 b3be

encoder.lstm_cells.0.b_c.prod f4 [1, 8]
-0.68144584 -0.26808298 -0.5089234 -0.40630543 0.20974517 -0.27724406 -0.4735704 -0.34545448
00000000: 3c73 2ebf 2c42 89be ce48 02bf 4407 d0be
00000010: 70c7 563e eff2 8dbe d277 f2be 69df b0be

encoder.lstm_cells.0.conv_o.convs.<inj___-___prod>.att_src f4 [1, 1, 8]
0.035500467 0.20719308 0.74912536 0.40535182 0.83978915 -0.6579128 0.5239555 -0.1545178
00000000: f068 113d 6c2a 543e aec6 3f3f 468a cf3e
00000010: 6cfc 563f f96c 28bf f321 063f ea39 1ebe

encoder.lstm_cells.0.conv_o.convs.<inj___-___prod>.att_dst f4 [1, 1, 8]
-0.22652578 -0.7228863 0.8422867 -0.5308882 0.5613158 0.4767092 0.120819815 -0.28397572
00000000: 60f6 67be 140f 39bf 1aa0 573f 4ae8 07bf
00000010: 64b2 0f3f 3a13 f43e 6170 f73d 4465 91be

encoder.lstm_cells.0.conv_o.convs.<inj___-___prod>.bias f4 [8]
0.23312876 -0.11846572 0.26072028 0.11819157 0.1690795 0.124917686 0.26163775 0.12079905
00000000: 4eb9 6e3e 289e f2bd 217d 853e 6c0e f23d
00000010: 2d23 2d3e d8d4 ff3d 62f5 853e 7e65 f73d

encoder.lstm_cells.0.conv_o.convs.<inj___-___prod>.lin_src.weight f4 [8, 8]
0.75464135 -0.5527281 0.46710572 0.12276246 0.0064066383 0.17620786 0.012955317 0.5438563
-0.49763027 -0.20396143 0.45632958 0.29903084 -0.1151365 -0.20986031 -0.38934165 0.36134285
0.13993403 -0.14278643 0.1738105 0.3491029 -0.4733878 -0.3651817 0.54240793 0.29156554
-0.29153118 -0.632724 -0.1899071 0.35344324 0.3652458 0.58402634 -0.47187573 -0.030187558
-0.17812805 0.45721295 0.7060985 0.19329366 0.2715751 -0.6177652 -0.42371482 -0.34834507
0.29178864 0.35182875 -0.38792154 0.31723976 0.5113032 -0.6487742 0.3950945 0.23935862
0.3027453 0.5328577 0.83622456 0.021471355 0.20779575 -0.015686378 0.32233384 -0.25008285
0.17424071 -0.31651324 0.30831298 0.1251626 -0.09228485 -0.53215134 -0.30765104 0.58921975
00000000: 2d30 413f 977f 0dbf 7b28 ef3e e26a fb3d
00000010: c7ee d13b d56f 343e 8a42 543c 2b3a 0b3f
00000020: 65c9 febe 44db 50be 08a4 e93e 921a 993e
00000030: afcc ebbd 9fe5 56be ca57 c7be ee01 b93e
00000040: de4a 0f3e 9b36 12be 61fb 313e 9ebd b23e
00000050: e35f f2be 19f9 babe 3fdb 0a3f 1448 953e
00000060: 9343 95be 33fa 21bf 0277 42be 83f6 b43e
00000070: 7f01 bb3e c082 153f b299 f1be e64b f7bc
00000080: 3367 36be d117 ea3e dfc2 343f c6ee 453e
00000090: e40b 8b3e dc25 1ebf 26f1 d8be 495a b2be
000000a0: 5265 953e e622 b43e a79d c6be 406d a23e
000000b0: c4e4 023f 1116 26bf d449 ca3e 6d1a 753e
000000c0: 6f01 9b3e 5d69 083f d012 563f b2e4 af3c
000000d0: 69c8 543e b880 80bc f108 a53e dc0a 80be
000000e0: 286c 323e 060e a2be 33db 9d3e a02a 003e
000000f0: d7ff bcbd 123b 08bf 7084 9dbe 1bd7 163f

encoder.lstm_cells.0.conv_o.convs.<inj___-___prod>.lin_dst.weight f4 [8, 8]
0.2996851 0.21145865 -0.179826 -0.12979308 -0.22491275 0.5035998 -0.21498273 0.5543124
0.42026812 -0.6629468 0.0043624914 -0.14257853 -0.40521052 0.34258407 -0.027102938 0.69034636
-0.38167948 0.38690045 -0.5237781 -0.28141266 0.1088275 0.40561584 0.27497843 -0.65595806
0.0626249 -0.4602274 0.025081199 -0.53842294 -0.24438915 0.49545065 -0.5164101 -0.43521684
0.11420389 0.18746944 -0.112114534 0.5613887 -0.30266374 -0.44989604 -0.50460905 -0.27010408
-0.15090653 0.4863576 -0.030920357 0.22453174 -0.19180572 0.4193293 0.47245967 -0.7130784
-0.1593486 -0.42847657 0.25347558 -0.51341057 -0.21799035 0.53561765 -0.6366376 0.32082257
0.05135163 0.3944201 -0.30723354 0.3783377 0.004683592 0.12368349 0.46750808 -0.44275483
00000000: 5370 993e 9e88 583e 4f24 38be 7ae8 04be
00000010: 874f 66be ebeb 003f 6f24 5cbe 6be7 0d3f
00000020: 622d d73e e2b6 29bf 3bf3 8e3b 1b00 12be
00000030: c177 cfbe 2e67 af3e fb06 debc 8aba 303f
00000040: 7e6b c3be d117 c63e 5216 06bf 5215 90be
00000050: f4e0 de3d e1ac cf3e f9c9 8c3e deec 27bf
00000060: 7c41 803d eda2 ebbe 1677 cd3c 16d6 09bf
00000070: 2641 7abe b5ab fd3e 7433 04bf bed4 debe
00000080: bbe3 e93d fdf7 3f3e 4e9c e5bd 2bb7 0f3f
00000090: bef6 9abe c658 e6be 0f2e 01bf 154b 8abe
000000a0: 3e87 1abe dd03 f93e b04c fdbc a6eb 653e
000000b0: b868 44be 54b2 d63e 3ce6 f13e 4e8c 36bf
000000c0: 482c 23be 4861 dbbe 8dc7 813e e06e 03bf
000000d0: dd38 5fbe 3d1e 093f affa 22bf db42 a43e
000000e0: 1656 523d 6ef1 c93e b74d 9dbe 7bb5 c13e
000000f0: d178 993b c54d fd3d 385d ef3e c3b0 e2be

encoder.lstm_cells.0.conv_o.convs.<prod___-___prod>.att_src f4 [1, 1, 8]
0.87029 0.22159585 0.36818016 -0.4517456 0.3101955 0.034663245 -0.27162388 0.9347121
00000000: 53cb 5e3f 06ea 623e 1c82 bc3e 334b e7be
00000010: f2d1 9e3e 0cfb 0d3d 4912 8bbe 4b49 6f3f

encoder.lstm_cells.0.conv_o.convs.<prod___-___prod>.att_dst f4 [1, 1, 8]
0.171512 -0.5413825 -0.4029194 -0.02275644 0.4831322 -0.21956584 -0.41184145 -0.23755106
00000000: d7a0 2f3e 0b98 0abf 744b cebe b76b babc
00000010: 1b5d f73e ded5 60be e2dc d2be 9640 73be

encoder.lstm_cells.0.conv_o.convs.<prod___-___prod>.bias f4 [8]
0.23312876 -0.11846572 0.26072028 0.11819157 0.1690795 0.124917686 0.26163775 0.12079905
00000000: 4eb9 6e3e 289e f2bd 217d 853e 6c0e f23d
00000010: 2d23 2d3e d8d4 ff3d 62f5 853e 7e65 f73d

encoder.lstm_cells.0.conv_o.convs.<prod___-___prod>.lin_src.weight f4 [8, 8]
-0.7744786 0.700172 -0.6665102 -0.57276803 0.22206591 -0.31589004 -0.28773698 -0.5350566
0.32712808 -0.7302234 0.051848404 0.2314201 -0.0038758887 0.24087687 0.17715286 -0.04606061
-0.44240335 -0.011837179 -0.5686239 -0.43658954 0.8720317 -0.32887653 -0.06846508 0.14460248
-0.10067153 -0.23057762 -0.46921775 -0.2441482 0.3069529 -0.31610513 0.004259283 0.21986723
0.3447343 0.48161283 -0.0336186 0.4072802 0.46245778 0.008048352 -0.38384274 -0.77009827
-0.35771415 0.05952391 -0.22825974 -0.15063366 0.45549315 0.21409446 -0.44654617 -0.7326059
-0.62918174 -0.016277932 0.1485052 -0.38315675 0.23401122 -0.3987265 -0.6529532 -0.0024417941
-0.36428687 0.13563372 -0.44731703 -0.12743518 0.23226224 -0.1260637 -0.34209672 0.054787245
00000000: 3b44 46bf 793e 333f 6aa0 2abf eda0 12bf
00000010: 3f65 633e 57bc a1be 4352 93be 78f9 08bf
00000020: 557d a73e ecef 3abf fe5e 543d 64f9 6c3e
00000030: 9f02 7ebb 6da8 763e 8f67 353e 0daa 3cbd
00000040: b182 e2be baf0 41bc 5691 11bf aa88 dfbe
00000050: 783d 5f3f 8162 a8be 6b37 8cbd ac12 143e
00000060: e02c cebd 8a1c 6cbe 4f3d f0be fc01 7abe
00000070: ee28 9d3e 88d8 a1be 7591 8b3b e024 613e
00000080: 0481 b03e f595 f63e a8b3 09bd 0887 d03e
00000090: 44c7 ec3e 3cdd 033c 0987 c4be 2925 45bf
000000a0: 4f26 b7be 58cf 733d ecbc 69be b63f 1abe
000000b0: 6636 e93e 943b 5b3e b3a1 e4be 0f8c 3bbf
000000c0: 0e12 21bf 4c59 85bc bf11 183e 1f2d c4be
000000d0: a3a0 6f3e e125 ccbe f127 27bf 8206 20bb
000000e0: cf83 babe 91e3 0a3e bd06 e5be 5e7e 02be
000000f0: 27d6 6d3e d816 01be 4d27 afbe 9768 603d

encoder.lstm_cells.0.conv_o.convs.<prod___-___prod>.lin_dst.weight f4 [8, 8]
-0.1835034 -0.38536525 -0.47651252 -0.15819187 -0.5554102 0.5548419 -0.30617684 -0.23383068
0.08219194 0.20576221 -0.031964675 0.44913477 -0.37985742 0.16870093 0.013041183 -0.5205808
-0.21398583 0.20055304 0.14019994 0.47242093 0.38899535 -0.38427255 -0.24986209 -0.15468313
-0.42507488 -0.1289353 -0.48796374 0.25294486 0.42214933 -0.007320338 -0.43861142 -0.50436395
-0.2643573 0.13104628 -0.01123199 0.08190999 0.6008274 0.33280623 0.11662975 -0.103750855
0.31284067 0.26888746 -0.5279957 -0.33456388 0.00012865191 0.18066788 0.30943266 -0.3905324
-0.58412296 0.012826749 -0.046568163 0.20509304 -0.18991761 0.42053393 0.05278023 0.42491123
-0.40454525 0.28848505 0.094697066 -0.2801538 0.28401557 -0.6517988 0.50487226 0.023796402
00000000: 51e8 3bbe 984e c5be 73f9 f3be 0dfd 21be
00000010: 5d2f 0ebf 1e0a 0e3f 36c3 9cbe 4f71 6fbe
00000020: 3f54 a83d 54b3 523e 64ed 02bd fef4 e53e
00000030: ac7c c2be f0bf 2c3e b0aa 553c c944 05bf
00000040: 1a1f 5bbe c75d 4d3e 9390 0f3e 28e1 f13e
00000050: 662a c73e 5fbf c4be d9db 7fbe 4165 1ebe
00000060: 6aa3 d9be 9e07 04be 62d6 f9be fd81 813e
00000070: f523 d83e 72df efbb ad91 e0be ff1d 01bf
00000080: d759 87be ff30 063e 6106 38bc 6dc0 a73d
00000090: d3cf 193f 9465 aa3e 94db ee3d 547b d4bd
000000a0: a72c a03e 9eab 893e ba2a 07bf f54b abbe
000000b0: bce6 0639 0001 393e f56d 9e3e ddf3 c7be
000000c0: 1589 15bf 4927 523c 42be 3ebd e903 523e
000000d0: c379 42be 3950 d73e 1530 583d f78d d93e
000000e0: 8e20 cfbe 50b4 933e 89f0 c13d 5270 8fbe
000000f0: 7d6a 913e 49dc 26bf 4f3f 013f acf0 c23c

encoder.lstm_cells.0.conv_o.convs.<inj___-___inj>.att_src f4 [1, 1, 8]
-0.5345781 0.40136144 0.7542379 -0.63110465 0.36941183 0.579242 0.29073042 -0.19894874
00000000: 1cda 08bf 3f7f cd3e bc15 413f 1390 21bf
00000010: 8c23 bd3e 3449 143f 9eda 943e 38b9 4bbe

encoder.lstm_cells.0.conv_o.convs.<inj___-___inj>.att_dst f4 [1, 1, 8]
0.41934165 0.3803575 0.35270637 -0.10818139 -0.20425421 0.13774541 -0.10010843 -0.2931782
00000000: f3b3 d63e 38be c23e ee95 b43e 348e ddbd
00000010: 0428 51be 220d 0d3e a605 cdbd 741b 96be

encoder.lstm_cells.0.conv_o.convs.<inj___-___inj>.bias f4 [8]
0.24032904 -0.10552691 0.2252033 0.03206423 0.1055973 0.15727426 0.1455467 0.1727771
00000000: d118 763e 7e1e d8bd b29b 663e c855 033d
00000010: 6643 d83d 810c 213e 320a 153e 7bec 303e

encoder.lstm_cells.0.conv_o.convs.<inj___-___inj>.lin_src.weight f4 [8, 8]
0.24711591 0.13411106 0.21001746 0.11210616 0.22388473 -0.668664 0.5854803 0.07249579
-0.1762381 0.14617026 0.42317122 -0.3578736 -0.34531316 0.40018374 -0.31699216 0.12660412
0.049776528 0.22724672 0.62600654 -0.40476522 -0.39678958 0.16490433 0.13297984 0.0749931
-0.43747494 0.51423043 0.16947453 -0.30803683 -0.36366677 -0.2195055 0.38291854 0.19783422
0.5906972 -0.087174095 0.020556018 0.35391885 -0.10202985 -0.17265318 0.2505341 0.61516285
0.27192804 0.39373156 0.5270076 -0.020449823 0.11382214 0.07019648 0.16245368 0.6999432
0.66975266 0.11124595 -0.0007123357 0.521311 -0.5541315 0.33202532 0.42952627 0.44356692
0.23900904 -0.61278677 0.7739395 -0.56758225 -0.1182375 0.060830154 -0.31203395 0.37140638
00000000: f40b 7d3e 6954 093e d10e 573e ea97 e53d
00000010: 0a42 653e 902d 2bbf 09e2 153f ac78 943d
00000020: c377 34be a8ad 153e e6a9 d83e 353b b7be
00000030: e3cc b0be e2e4 cc3e cc4c a2be 83a4 013e
00000040: 79e2 4b3d 5db3 683e f741 203f 633d cfbe
00000050: 0128 cbbe aedc 283e de2b 083e fb95 993d
00000060: b7fc dfbe 9ba4 033f bb8a 2d3e 01b7 9dbe
00000070: 8832 babe 0dc6 60be e60d c43e 0e95 4a3e
00000080: ef37 173f 5588 b2bd 1865 a83c da34 b53e
00000090: 07f5 d0bd ffcb 30be 0146 803e 507b 1d3f
000000a0: 273a 8b3e 2f97 c93e f8e9 063f 6386 a7bc
000000b0: 951b e93d 2cc3 8f3d 425a 263e 7a2f 333f
000000c0: e974 2b3f ebd4 e33d 0abc 3aba a374 053f
000000d0: 90db 0dbf 39ff a93e deea db3e 341b e33e
000000e0: c9be 743e 98df 1cbf e620 463f 124d 11bf
000000f0: 8126 f2bd 0a29 793d eac2 9fbe fa28 be3e

encoder.lstm_cells.0.conv_o.convs.<inj___-___inj>.lin_dst.weight f4 [8, 8]
-0.16807848 0.38309374 -0.3630703 0.3250678 0.3347149 0.29069194 0.63633317 0.12376985
-0.50602573 0.38600847 0.08273252 -0.034167353 -0.629984 -0.184342 -0.2492206 0.63045204
0.48594344 0.40535963 0.44703037 -0.42607176 -0.31078634 -0.2870755 -0.19648123 0.50828695
0.16118462 0.53815174 -0.05565464 -0.50477165 -0.13315585 0.47501597 0.32628167 0.15937507
-0.22815998 -0.52193457 -0.35635853 0.3634261 -0.20069528 0.33897832 0.11937052 -0.26603842
0.42199317 -0.24517176 0.008619142 -0.27516198 -0.6281422 0.052320264 0.22600563 -0.27620867
0.32944855 -0.5025233 -0.61627436 -0.33768257 -0.16788574 -0.02393245 -0.16427311 0.2500851
-0.5872707 0.141224 -0.01722184 0.20757781 0.6565076 0.4242349 -0.3881226 -0.5335726
00000000: c41c 2cbe dd24 c43e 5ae4 b9be 496f a63e
00000010: c05f ab3e 93d5 943e bbe6 223f 0c7b fd3d
00000020: e78a 01bf e7a2 c53e ab6f a93d 11f3 0bbd
00000030: a246 21bf 26c4 3cbe af33 7fbe 4e65 213f
00000040: 94cd f83e 4c8b cf3e 2ae1 e43e 1426 dabe
00000050: 631f 9fbe 8ffb 92be 6032 49be 181f 023f
00000060: 950d 253e 50c4 093f 1ff6 63bd b738 01bf
00000070: 025a 08be 4b35 f33e 640e a73e 3833 233e
00000080: c5a2 69be 819d 05bf a074 b6be fc12 ba3e
00000090: 1083 4dbe 918e ad3e 8878 f43d 3036 88be
000000a0: 7d0f d83e 4e0e 7bbe 4d37 0d3c 08e2 8cbe
000000b0: edcd 20bf c64d 563d 056e 673e 396b 8dbe
000000c0: 7bad a83e 5ea5 00bf 28c4 1dbf bbe4 acbe
000000d0: 3dea 2bbe fc0d c4bc 3637 28be 270b 803e
000000e0: 5f57 16bf 069d 103e d114 8dbc 478f 543e
000000f0: e210 283f 5135 d93e 01b8 c6be 3798 08bf

encoder.lstm_cells.0.W_o.inj f4 [1, 8]
0.1987771 -0.51759374 0.013568854 -0.4460215 -0.1118168 -0.3431572 -0.6615628 0.39543113
00000000: 398c 4b3e 0681 04bf e64f 5e3c ee5c e4be
00000010: 3500 e5bd 4db2 afbe 2e5c 29bf f375 ca3e

encoder.lstm_cells.0.W_o.prod f4 [1, 8]
-0.19557437 0.75209177 -0.20105687 -0.8794375 0.102888405 -0.26686874 -0.016997227 -0.6459819
00000000: a644 48be 1689 403f dae1 4dbe d122 61bf
00000010: 28b7 d23d 05a3 88be c53d 8bbc 125f 25bf

encoder.lstm_cells.0.b_o.inj f4 [1, 8]
-0.424158 0.5791126 -0.10154762 0.24841952 -0.17769976 0.22362356 0.9067681 0.54895586
00000000: 3d2b d9be b940 143f 33f8 cfbd b061 7e3e
00000010: edf6 35be 93fd 643e f421 683f 5f88 0c3f

encoder.lstm_cells.0.b_o.prod f4 [1, 8]
-0.47444677 0.20560442 1.0357726 0.33299834 0.716479 0.9298913 0.13652658 0.29026556
00000000: b0ea f2be f789 523e 3294 843f c27e aa3e
00000010: 2b6b 373f 5b0d 6e3f a0cd 0b3e b09d 943e

decoder.lstm_cells.0.conv_i.convs.<inj___-___prod>.att_src f4 [1, 1, 8]
-0.7271023 -0.04752344 0.81118363 0.6590497 -0.2984019 -0.79778033 -0.6843525 -0.97045326
00000000: 6023 3abf f0a7 42bd bba9 4f3f 7bb7 283f
00000010: 22c8 98be 553b 4cbf ba31 2fbf a06f 78bf

decoder.lstm_cells.0.conv_i.convs.<inj___-___prod>.att_dst f4 [1, 1, 8]
-0.5791112 -0.27965993 0.70658344 0.057898056 -0.7198869 -0.71430576 0.41950235 -0.6173192
00000000: a240 14bf 962f 8fbe a7e2 343f 8326 6d3d
00000010: 824a 38bf bedc 36bf 03c9 d63e a208 1ebf

decoder.lstm_cells.0.conv_i.convs.<inj___-___prod>.bias f4 [8]
0.1161924 0.04423923 0.1940558 0.07787665 0.2379355 0.19569191 0.30062878 -0.17231117
00000000: 48f6 ed3d 3234 353d 90b6 463e cb7d 9f3d
00000010: 5da5 733e 7663 483e 04ec 993e 5772 30be

decoder.lstm_cells.0.conv_i.convs.<inj___-___prod>.lin_src.weight f4 [8, 8]
-0.028210765 -0.49442726 0.16201338 -0.024489647 0.45348397 0.20918213 -0.036573898 -0.17557432
0.11091042 -0.061088454 0.51869744 -0.4532056 0.3196479 -0.36315957 -0.59434044 -0.06014299
0.4770231 0.34474143 0.34451902 -0.19962601 -0.20181021 -0.4264716 0.11537618 0.14638893
0.7630069 0.19749269 -0.30971885 -0.30536872 -0.55361974 -0.30677235 -0.2250683 0.34511045
-0.1713419 0.4182383 0.7288861 -0.7104458 -0.82682705 -0.22916315 0.098769404 0.42860845
-0.17473096 0.11674852 -0.2843454 -0.4743941 -0.5447176 0.07381259 0.21445642 -0.34474483
-0.16947705 -0.4969935 -0.45917603 -0.11039192 0.08612601 -0.24372914 -0.043649156 0.08408707
-0.42761526 -0.48740602 -0.021067603 0.59442335 -0.22833607 0.27489677 -0.20497133 -0.29043633
00000000: 431a e7bc 9225 fdbe d6e6 253e 839e c8bc
00000010: 0d2f e83e d733 563e 83ce 15bd c1c9 33be
00000020: 0125 e33d e337 7abd 5bc9 043f 900a e8be
00000030: e4a8 a33e 0df0 b9be b226 18bf 7f58 76bd
00000040: 5f3c f43e f381 b03e cc64 b03e c36a 4cbe
00000050: 56a7 4ebe 7c5a dabe 594a ec3d fbe6 153e
00000060: 6c54 433f 863b 4a3e 7893 9ebe 4a59 9cbe
00000070: 06ba 0dbf 4411 9dbe 4e78 66be 51b2 b03e
00000080: 4074 2fbe 5523 d63e 4898 3a3f c7df 35bf
00000090: f0aa 53bf bfa9 6abe 9d47 ca3d 9172 db3e
000000a0: acec 32be d919 ef3d b895 91be c9e3 f2be
000000b0: 9d72 0bbf 0e2b 973d 779a 5b3e 6582 b0be
000000c0: 648b 2dbe ef75 febe 1f19 ebbe 2915 e2bd
000000d0: d562 b03d 2294 79be 75c9 32bd d735 ac3d
000000e0: 63f0 dabe 488d f9be f795 acbc 212c 183f
000000f0: eed0 69be 45bf 8c3e 01e4 51be 12b4 94be
