fitted_models/model_seq2sew_gat_RN.pth (torch, 74884 bytes, 153 tensors)

encoder.lstm_cells.0.conv_i.convs.<inj___-___prod>.att_src f4 [1, 1, 8]
0.7274471 0.8901822 -0.14091565 0.81467897 -0.3326887 0.21021898 -0.17776561 0.61961854
00000000: f939 3a3f fbe2 633f 314c 10be cd8e 503f
00000010: 2c56 aabe a543 573e 3008 36be 529f 1e3f

encoder.lstm_cells.0.conv_i.convs.<inj___-___prod>.att_dst f4 [1, 1, 8]
0.7916459 -0.6123762 0.70486087 0.18496305 0.6181556 0.09394724 0.45074728 -0.12838218
00000000: 4ea9 4a3f b0c4 1cbf c371 343f f466 3d3e
00000010: 723f 1e3f 6967 c03d 59c8 e63e 9e76 03be

encoder.lstm_cells.0.conv_i.convs.<inj___-___prod>.bias f4 [8]
0.22271782 -0.22995736 0.27297544 0.22798894 0.3310597 0.28924316 -0.18564041 0.13837235
00000000: 2410 643e f179 6bbe 70c3 8b3e ef75 693e
00000010: a880 a93e ae17 943e 8518 3ebe 7bb1 0d3e

encoder.lstm_cells.0.conv_i.convs.<inj___-___prod>.lin_src.weight f4 [8, 8]
-0.3673711 0.6505152 -0.17071371 0.6550186 -0.15473343 0.09179488 0.3868424 0.08280403
-0.49206558 -0.4149556 0.5615873 -0.29681924 0.3109034 -0.42268094 0.23853832 0.1634531
0.3249316 0.5739571 -0.23403084 0.012211545 -0.83459574 -0.36738208 0.5560744 0.8326067
0.3707221 -0.32207328 0.44682953 -0.22379336 -0.28500685 -0.87511736 -0.079825915 0.4869399
0.4239234 -0.15973419 -0.07558422 -0.54361105 0.28116456 -0.58874315 0.10811361 -0.56551176
-0.05028337 0.39846268 0.4304636 -0.10153641 0.4080727 -0.08732806 0.5594228 0.5953096
0.36553416 -0.6599058 0.56389195 0.48459685 -0.26062134 -0.23314162 -0.603079 0.12863135
-0.7398662 0.22523054 0.37901667 -0.27973163 0.36810723 -0.03992382 0.037957076 0.3273556
00000000: 1118 bcbe 2a88 263f 93cf 2ebe 4daf 273f
00000010: 7172 1ebe f4fe bb3d 3510 c63e 2995 a93d
00000020: 05f0 fbbe 0f75 d4be 2fc4 0f3f b1f8 97be
00000030: bb2e 9f3e a369 d8be 6443 743e 4060 273e
00000040: 6f5d a63e daee 123f c8a5 6fbe ef12 483c
00000050: 11a8 55bf 8119 bcbe e45a 0e3f b625 553f
00000060: 49cf bd3e cae6 a4be d7c6 e43e 162a 65be
00000070: 6bec 91be b107 60bf c57b a3bd 3050 f93e
00000080: 7d0c d93e 5c91 23be e6cb 9abd 182a 0bbf
00000090: cdf4 8f3e dfb7 16bf ab6a dd3d 61c5 10bf
000000a0: eff5 4dbd 4d03 cc3e ba65 dc3e 52f2 cfbd
000000b0: e8ee d03e 0ed9 b2bd 5536 0f3f 3666 183f
000000c0: 4b27 bb3e 96ef 28bf 395b 103f 141d f83e
000000d0: 2970 85be adbc 6ebe 6363 1abf f0b7 033e
000000e0: df67 3dbf d6a2 663e 790e c23e fc38 8fbe
000000f0: 8d78 bc3e 2987 23bd e178 1b3d 279b a73e

encoder.lstm_cells.0.conv_i.convs.<inj___-___prod>.lin_dst.weight f4 [8, 8]
-0.55783576 0.57862604 0.5669595 0.18365304 -0.6437989 -0.20698336 -0.25480917 -0.030790323
0.3056336 0.21701095 0.44460246 -0.16275056 0.2908466 0.19316182 -0.44094652 -0.73099124
-0.28176302 0.42193997 -0.5299406 -0.60410386 0.25121415 0.35757375 0.4398146 -0.33404437
-0.38314208 0.34767336 0.6026205 0.31119326 0.012018511 0.1939766 0.495472 -0.281917
-0.24345051 0.42919412 -0.37575012 -0.40945533 0.35628554 0.22248727 0.13454656 -0.12719046
0.06815358 0.61486745 -0.32305577 -0.029843565 0.24295609 -0.44381276 0.48646095 -0.15280895
-0.11916716 -0.17129785 -0.35434204 -0.6803455 0.2494463 0.19908608 -0.6306352 -0.26316997
0.6680467 0.2930882 0.23026882 -0.21786211 -0.11039932 -0.19235612 -0.12841369 -0.5346034
00000000: 53ce 0ebf d620 143f 4224 113f 8b0f 3c3e
00000010: 01d0 24bf 72f3 53be 5976 82be fd3b fcbc
00000020: 027c 9c3e 1e38 5e3e efa2 e33e 15a8 26be
00000030: d8e9 943e 36cc 453e bec3 e1be 3e22 3bbf
00000040: 3e43 90be 8408 d83e 30aa 07bf 8da6 1abf
00000050: 249f 803e e813 b73e 612f e13e dd07 abbe
00000060: 332b c4be 3e02 b23e 5645 1a3f b954 9f3e
00000070: 4ae9 443c cda1 463e 82ae fd3e 6d57 90be
00000080: 174b 79be 55bf db3e 5262 c0be 21a4 d1be
00000090: 0f6b b63e b4d3 633e 93c6 093e 373e 02be
000000a0: 1b94 8b3d f467 1d3f 9167 a5be 7e7a f4bc
000000b0: 7bc9 783e 6d3b e3be 6911 f93e f379 1cbe
000000c0: e90d f4bd b468 2fbe 526c b5be 1f2b 2ebf
000000d0: da6e 7f3e 39dd 4b3e 4f71 21bf 37be 86be
000000e0: 1c05 2b3f a80f 963e 97cb 6b3e 3f17 5fbe
000000f0: 0a19 e2bd 01f9 44be e17e 03be c5db 08bf

encoder.lstm_cells.0.conv_i.convs.<prod___-___prod>.att_src f4 [1, 1, 8]
0.32997167 0.3259335 -0.12919521 0.33313638 -0.08901133 -0.36383635 -0.36435544 0.748869
00000000: 0cf2 a83e c1e0 a63e c04b 04be da90 aa3e
00000010: 924b b6bd c248 babe cc8c babe e1b5 3f3f

encoder.lstm_cells.0.conv_i.convs.<prod___-___prod>.att_dst f4 [1, 1, 8]
-0.59045976 -0.3788683 -0.34865305 -0.695393 0.23666336 -0.9150901 0.8562146 -0.62321883
00000000: 5f28 17bf 07fb c1be a782 b2be 4705 32bf
00000010: e157 723e 5843 6abf e130 5b3f 458b 1fbf

encoder.lstm_cells.0.conv_i.convs.<prod___-___prod>.bias f4 [8]
0.22271782 -0.22995736 0.27297544 0.22798894 0.3310597 0.28924316 -0.18564041 0.13837235
00000000: 2410 643e f179 6bbe 70c3 8b3e ef75 693e
00000010: a880 a93e ae17 943e 8518 3ebe 7bb1 0d3e

encoder.lstm_cells.0.conv_i.convs.<prod___-___prod>.lin_src.weight f4 [8, 8]
0.15051773 0.2045512 0.18804657 -0.0802888 -0.028524332 -0.09666513 0.006233453 -0.19349816
-0.85205936 0.09264821 0.12596929 -0.55491984 0.3302955 0.03500159 0.6368996 0.11641362
-0.4292321 0.58281326 -0.58975863 -0.39870656 0.18845561 -0.80324847 0.31464753 0.09432322
0.35380557 -0.39639547 0.23404923 -0.2674335 -0.19926316 -0.23640455 0.029245475 0.7289203
-0.24703445 -0.14905518 0.04406688 0.18231776 0.6036206 0.070256636 -0.4503174 0.61698836
0.69942075 0.068976626 0.65643245 0.4902024 0.8299196 -0.58719015 -0.5882609 -0.022018561
-0.17979462 0.22711122 -0.20189649 0.08251601 -0.2881003 0.4676768 0.054378428 -0.5511578
-0.15604194 -0.3006416 0.18132856 -0.30342442 0.12286753 -0.005144671 -0.49927363 0.3978767
00000000: 5221 1a3e df75 513e 488f 403e 746e a4bd
00000010: dcab e9bc 5ef8 c5bd fe41 cc3b 6224 46be
00000020: 9020 5abf 58be bd3d 18fe 003e 3a0f 0ebf
00000030: 7e1c a93e d45d 0f3d da0b 233f 446a ee3d
00000040: 4fc4 dbbe 4033 153f 6cfa 16bf 4423 ccbe
00000050: 82fa 403e b1a1 4dbf 7b19 a13e 882c c13d
00000060: 0126 b53e 59f4 cabe 9aaa 6f3e 0bed 88be
00000070: a40b 4cbe 0914 72be 3594 ef3c 859a 3a3f
00000080: 99f6 7cbe eca1 18be 797f 343d 82b1 3a3e
00000090: e186 1a3f b6e2 8f3d 0190 e6be f3f2 1d3f
000000a0: 3d0d 333f 9e43 8d3d f50b 283f cffb fa3e
000000b0: 9c75 543f 1852 16bf 4498 16bf 4560 b4bc
000000c0: 151c 38be d88f 683e f4bd 4ebe 27fe a83d
000000d0: e281 93be 5573 ef3e eabb 5e3d ad18 0dbf
000000e0: 75c9 1fbe b2ed 99be 32ae 393e 725a 9bbe
000000f0: f9a1 fb3d a194 a8bb cba0 ffbe 7fb6 cb3e

encoder.lstm_cells.0.conv_i.convs.<prod___-___prod>.lin_dst.weight f4 [8, 8]
-0.5444783 -0.45403302 -0.4552159 -0.14401333 -0.3552633 -0.02937854 -0.058926232 0.091607794
0.62405556 0.20440792 -0.13999857 -0.5350595 0.08905583 -0.41903242 0.35996002 0.21555068
0.2971729 0.55892223 0.6873324 0.17038801 -0.582664 0.42677987 -0.23884597 -0.49147642
0.5728958 0.45783716 0.2892025 0.07901497 -0.65157175 -0.18357371 0.64027673 -0.045496877
-0.0130866375 -0.11818353 -0.32475865 0.33623755 0.17497276 0.53449994 -0.15828998 0.4797595
0.31039837 0.08177512 0.48815346 0.42492303 0.43291584 0.35241196 -0.103930786 -0.7178236
0.053585075 0.009451023 -0.26265955 -0.14083552 0.16292976 0.56698084 0.13914077 -0.018031681
-0.20097286 -0.16871098 -0.13635942 0.5961203 0.19170426 0.43820754 0.05781186 -0.0730427
00000000: ee62 0bbf 0477 e8be 0f12 e9be 3b78 13be
00000010: 12e5 b5be 44ab f0bc a25c 71bd de9c bb3d
00000020: 1bc2 1f3f 4f50 513e c95b 0fbe a9f9 08bf
00000030: e762 b63d 6b8b d6be ae4c b83e 51b9 5c3e
00000040: 0c27 983e 8715 0f3f 04f5 2f3f 327a 2e3e
00000050: 7829 15bf e482 da3e 0a94 74be cca2 fbbe
00000060: 4da9 123f a269 ea3e 5a12 943e 9ad2 a13d
00000070: 68cd 26bf bffa 3bbe 2de9 233f ef5a 3abd
00000080: 5669 56bc 350a f2bd c446 a6be 5427 ac3e
00000090: 0f2c 333e fdd4 083f c516 22be 0aa3 f53e
000000a0: 89ec 9e3e b779 a73d 40ef f93e 838f d93e
000000b0: 25a7 dd3e 576f b43e aad9 d4bd 4ac3 37bf
000000c0: 067c 5b3d 77d8 1a3c 507b 86be 3037 10be
000000d0: 0fd7 263e a825 113f eb7a 0e3e 2db7 93bc
000000e0: d4cb 4dbe 92c2 2cbe cea1 0bbe 579b 183f
000000f0: 1f4e 443e bd5c e03e 21cc 6c3d 6997 95bd

encoder.lstm_cells.0.conv_i.convs.<inj___-___inj>.att_src f4 [1, 1, 8]
0.6448796 0.25576258 -0.24944046 0.631104 0.27211213 0.51755047 0.10050543 -0.38728863
00000000: d416 253f 50f3 823e 526d 7fbe 0890 213f
00000010: 4852 8b3e 307e 043f cad5 cd3d b24a c6be

encoder.lstm_cells.0.conv_i.convs.<inj___-___inj>.att_dst f4 [1, 1, 8]
0.17859586 -0.1742687 0.3569509 0.68531907 0.45193484 -0.29919362 0.43032047 0.15580611
00000000: d5e1 363e 7e73 32be 45c2 b63e 1271 2f3f
00000010: 0164 e73e e82f 99be f752 dc3e a38b 1f3e

encoder.lstm_cells.0.conv_i.convs.<inj___-___inj>.bias f4 [8]
0.31444576 0.15414086 0.14558372 0.19241755 0.14550386 -0.19536038 0.26503238 -0.030787515
00000000: 09ff a03e 1ad7 1d3e e613 153e 1b09 453e
00000010: f7fe 143e 8d0c 48be 53b2 873e 1936 fcbc

encoder.lstm_cells.0.conv_i.convs.<inj___-___inj>.lin_src.weight f4 [8, 8]
0.36475334 -0.45435485 -0.11058312 -0.19271308 -0.41451076 -0.4869212 0.69331396 0.35110995
0.29404664 0.77898705 -0.24831334 -0.16216834 0.06027675 -0.24676573 -0.13050783 -0.54834944
0.31848285 -0.33895832 -0.1316404 0.43985793 -0.16773665 -0.15465511 0.514112 -0.37068042
0.12379183 0.7075882 -0.42383352 -0.5931848 -0.4102739 -0.10411802 -0.13343358 -0.48085317
0.09725791 0.090286836 -0.015814863 -0.32972622 -0.31934604 -0.40625963 -0.37717456 -0.41161504
0.025923945 -0.5539688 -0.36334592 -0.3936372 0.24796452 -0.29329118 -0.35216662 0.6338847
0.4469653 0.33845267 -0.70080125 -0.5548079 -0.24745245 0.47280672 0.16973634 -0.5717486
0.011158851 -0.5174274 -0.10843151 -0.20967731 0.43801254 0.06894757 -0.13536057 0.11059849
00000000: f3c0 ba3e 33a1 e8be 6779 e2bd 9456 45be
00000010: c13a d4be bc4d f9be 067d 313f afc4 b33e
00000020: 488d 963e b26b 473f da45 7ebe 750f 26be
00000030: c1e4 763d 28b0 7cbe d8a3 05be a160 0cbf
00000040: 2f10 a33e f28b adbe becc 06be 0f35 e13e
00000050: 28c3 2bbe e95d 1ebe d89c 033f d3c9 bdbe
00000060: 9286 fd3d 8024 353f b500 d9be f6da 17bf
00000070: 6c0f d2be d43b d5bd d0a2 08be 6332 f6be
00000080: 282f c73d 4ee8 b83d 2c8e 81bc e0d1 a8be
00000090: 5381 a3be 4301 d0be 061d c1be 35bf d2be
000000a0: 745e d43c e6d0 0dbf 7a08 babe d18a c9be
000000b0: 69ea 7d3e 432a 96be 2f4f b4be 4546 223f
000000c0: a3d8 e43e ab49 ad3e b667 33bf e407 0ebf
000000d0: 2d64 7dbe b913 f23e 5dcf 2d3e 1e5e 12bf
000000e0: 9dd3 363c 1f76 04bf 5711 debd a6b5 56be
000000f0: 2e43 e03e 6234 8d3d f69b 0abe 7681 e23d

encoder.lstm_cells.0.conv_i.convs.<inj___-___inj>.lin_dst.weight f4 [8, 8]
-0.121805355 0.2440165 0.18249486 0.13830674 -0.27641746 0.47531074 -0.03480503 -0.28935245
0.32840163 0.4965698 0.66947585 0.20823851 -0.17114042 0.35815623 0.47139943 -0.5496617
-0.016235897 -0.41728336 0.04902896 0.22317562 -0.16909774 -0.10471417 0.33334252 -0.15848191
-0.45410648 0.4890885 -0.37411988 -0.09850841 0.013930325 -0.09100441 -0.51851916 0.22426435
-0.2185556 -0.3181939 0.081111334 -0.35000557 -0.32582465 -0.25960863 -0.1726968 -0.3116131
-0.22276218 0.15849714 -0.43259245 -0.3418158 0.04944577 0.13553655 0.28252247 -0.3763704
0.25412047 0.34868327 0.27596587 -0.5999754 -0.27604347 -0.5787208 -0.3312463 0.28591534
-0.036965746 0.2691684 -0.41808495 0.067864425 -0.4087309 0.2580803 -0.21414824 -0.20394793
00000000: 1675 f9bd 76df 793e efdf 3a3e 48a0 0d3e
00000010: 9786 8dbe ee5b f33e b88f 0ebd 0126 94be
00000020: 4224 a83e 663e fe3e c562 2b3f 7a3c 553e
00000030: 6f3f 2fbe 4160 b73e 445b f13e a1b6 0cbf
00000040: 2501 85bc 2aa6 d5be 97d2 483d 2688 643e
00000050: f527 2dbe 6274 d6bd dfab aa3e 1549 22be
00000060: a580 e8be cf69 fa3e a48c bfbe c7be c9bd
00000070: 053c 643c 8560 babd acbd 04bf 8ea5 653e
00000080: 0acd 5fbe 50ea a2be b31d a63d ee33 b3be
00000090: 7dd2 a6be 6ceb 84be 6ed7 30be c18b 9fbe
000000a0: c51b 64be 134d 223e c27c ddbe 7b02 afbe
000000b0: a687 4a3d 18ca 0a3e c9a6 903e 9fb3 c0be
000000c0: 141c 823e 9d86 b23e 664b 8d3e fd97 19bf
000000d0: 9255 8dbe 0c27 14bf 1d99 a9be 7f63 923e
000000e0: 6569 17bd 71d0 893e 3b0f d6be 81fc 8a3d
000000f0: 2d45 d1be 1a23 843e ad49 5bbe bad7 50be

encoder.lstm_cells.0.W_i.inj f4 [1, 8]
0.49967882 0.97560835 -0.16844521 -0.17228056 0.21165793 -0.31839898 0.101081185 0.5065123
00000000: e7d5 ff3e 78c1 793f e77c 2cbe 516a 30be
00000010: dbbc 583e 3105 a3be a703 cf3d caaa 013f

encoder.lstm_cells.0.W_i.prod f4 [1, 8]
-0.7904576 -0.6908546 0.51233125 0.48553184 0.020249173 -0.16745627 -0.8117744 -0.8272491
00000000: 6e5b 4abf d9db 30bf 2428 033f a197 f83e
00000010: 98e1 a53c a879 2bbe 72d0 4fbf 99c6 53bf

encoder.lstm_cells.0.b_i.inj f4 [1, 8]
0.7712678 -0.41430995 0.55597 0.56293017 0.7288361 -0.8216555 0.85225284 -0.41678727
00000000: ce71 453f 6f20 d4be 0d54 0e3f 311c 103f
00000010: 0195 3a3f 0458 52bf 3e2d 5a3f 2465 d5be

encoder.lstm_cells.0.b_i.prod f4 [1, 8]
0.5256918 0.53682834 0.15782295 0.2216746 0.14307764 -0.3925193 0.20619883 -0.67217815
00000000: bd93 063f 956d 093f 579c 213e abfe 623e
00000010: f282 123e 4af8 c8be c925 533e de13 2cbf

encoder.lstm_cells.0.conv_f.convs.<inj___-___prod>.att_src f4 [1, 1, 8]
0.2102565 -0.25715753 -0.6732922 -0.11333055 -0.40983352 0.88138354 0.45324624 0.45204473
00000000: 7b4d 573e 27aa 83be e15c 2cbf d919 e8bd
00000010: b3d5 d1be 5aa2 613f e40f e83e 6872 e73e

encoder.lstm_cells.0.conv_f.convs.<inj___-___prod>.att_dst f4 [1, 1, 8]
0.40386736 0.06193296 0.667142 -0.66454154 0.019249067 -0.6449217 0.24181205 -0.1537684
00000000: b4c7 ce3e 6aad 7d3d d1c9 2a3f 651f 2abf
00000010: 38b0 9d3c 9719 25bf 949d 773e 7775 1dbe

encoder.lstm_cells.0.conv_f.convs.<inj___-___prod>.bias f4 [8]
0.3100818 0.0026996445 0.30328992 0.29391956 0.2853623 0.20889734 0.054595597 0.011956185
00000000: 0bc3 9e3e 85ec 303b d148 9b3e a07c 963e
00000010: 021b 923e 2fe9 553e a29f 5f3d e0e3 433c

encoder.lstm_cells.0.conv_f.convs.<inj___-___prod>.lin_src.weight f4 [8, 8]
-0.29569528 0.2340256 0.43555072 -0.0005934564 -0.6444473 0.01127549 0.21127185 -0.3273046
0.4927856 -0.18595095 0.021818215 -0.28844205 -0.29804894 0.2510893 0.34473652 0.19592635
0.036872182 0.9519021 -0.36564234 -0.7285 -0.63138485 0.3027579 0.32511765 0.16877946
-0.09846439 -0.017475424 -0.6474444 -0.6734718 0.17911822 0.2806168 0.7026802 -0.45553762
0.5318041 -0.26666036 0.23694398 0.24005179 0.30217528 0.4916846 0.573268 0.22092387
0.37905794 -0.06395588 0.23320591 -0.31093255 -0.12209867 -0.852218 -0.07116525 -0.2859791
-0.16234468 -0.5937483 -0.6092853 -0.011689697 0.28543636 0.71834713 0.44489834 -0.3758113
-0.50183815 0.022722242 0.22740924 -0.6334683 0.5014102 0.58834136 0.12944983 -0.6799615
00000000: 5f65 97be 68a4 6f3e 8100 df3e 2f92 1bba
00000010: 80fa 24bf d5bc 383c a657 583e 7894 a7be
00000020: 654e fc3e ed69 3ebe 1dbc b23c adae 93be
00000030: df99 98be c78e 803e 4e81 b03e eba0 483e
00000040: 4907 173d dbaf 733f 7935 bbbe fa7e 3abf
00000050: 70a2 21bf 1503 9b3e d275 a63e 86d4 2c3e
00000060: b3a7 c9bd 9f28 8fbc ebbe 25bf a668 2cbf
00000070: c46a 373e 01ad 8f3e d9e2 333f 3a3c e9be
00000080: 5024 083f b587 88be 71a1 723e 23d0 753e
00000090: b8b6 9a3e 15be fb3e b1c1 123f de39 623e
000000a0: e213 c23e 4dfb 82bd 88cd 6e3e 8d32 9fbe
000000b0: de0e fabd f52a 5abf 16bf 91bd da6b 92be
000000c0: af3d 26be e3ff 17bf 1ffa 1bbf 2586 3fbc
000000d0: b724 923e 99e5 373f b7c9 e33e 576a c0be
000000e0: 7778 00bf ff23 ba3c f8dd 683e fa2a 22bf
000000f0: 6b5c 003f 8a9d 163f 7f8e 043e f511 2ebf

encoder.lstm_cells.0.conv_f.convs.<inj___-___prod>.lin_dst.weight f4 [8, 8]
0.59992796 0.32306883 0.49096537 -0.35209873 0.3493618 -0.5199013 0.65724456 -0.34602943
0.45603114 0.15586849 0.23964188 -0.0114016 0.20187193 -0.32648286 -0.5823043 -0.30529115
0.5737401 -0.10364917 0.27435783 -0.16648903 0.45349857 0.26893333 0.26930967 -0.39416096
-0.59609395 -0.03671295 -0.44188416 0.44341797 -0.5828853 0.3734985 0.5593471 0.39030966
0.2547551 -0.5640784 0.6231721 -0.055301517 -0.5577546 0.5663955 -0.22222495 -0.067558326
0.46474716 -0.48370764 -0.5169412 0.03932104 -0.075423315 0.24045055 -0.5660348 0.1029485
-0.18045032 -0.24217018 -0.482234 0.38288555 0.11404227 -0.61593133 0.5353495 0.10770892
0.026603762 -0.4145789 0.016563576 0.5361522 0.42343348 -0.38327122 0.5071731 0.12057362
00000000: e194 193f 4769 a53e d05f fb3e 4946 b4be
00000010: 8ddf b23e 4018 05bf 2e41 283f c52a b1be
00000020: ea7c e93e fd9b 1f3e ae64 753e c7cd 3abc
00000030: 84b7 4e3e c328 a7be e511 15bf 1f4f 9cbe
00000040: a2e0 123f 0446 d4bd a178 8c3e 1a7c 2abe
00000050: f730 e83e a1b1 893e f5e2 893e 77cf c9be
00000060: 9d99 18bf 5160 16bd a43e e2be ae07 e33e
00000070: f937 15bf 323b bf3e 5f31 0f3f abd6 c73e
00000080: 436f 823e 7167 10bf 3588 1f3f d883 62bd
00000090: 01c9 0ebf 4cff 103f f08e 63be 055c 8abd
000000a0: 57f3 ed3e 87a8 f7be 4256 04bf 190f 213d
000000b0: 8a77 9abd ab38 763e a8e7 10bf aad6 d23d
000000c0: f8c7 38be 76fb 77be 60e7 f6be 9309 c43e
000000d0: fe8e e93d adad 1dbf aa0c 093f 7f96 dc3d
000000e0: 22f0 d93c b043 d4be 56b0 873c 4541 093f
000000f0: 46cc d83e 203c c4be 19d6 013f 4def f63d

encoder.lstm_cells.0.conv_f.convs.<prod___-___prod>.att_src f4 [1, 1, 8]
0.3193265 -0.26329607 0.92618525 -0.4946686 -0.5754107 -0.3752333 0.8261916 0.14212811
00000000: c37e a33e bece 86be 7a1a 6d3f 3445 fdbe
00000010: 1e4e 13bf 941e c0be 4b81 533f 088a 113e

encoder.lstm_cells.0.conv_f.convs.<prod___-___prod>.att_dst f4 [1, 1, 8]
0.9794795 -0.79777014 -0.82513064 -0.75906026 -0.645842 0.4166388 0.36536604 0.5989456
00000000: 2bbf 7a3f aa3a 4cbf c33b 53bf c651 42bf
00000010: e755 25bf ae51 d53e 4211 bb3e 8054 193f

encoder.lstm_cells.0.conv_f.convs.<prod___-___prod>.bias f4 [8]
0.3100818 0.0026996445 0.30328992 0.29391956 0.2853623 0.20889734 0.054595597 0.011956185
00000000: 0bc3 9e3e 85ec 303b d148 9b3e a07c 963e
00000010: 021b 923e 2fe9 553e a29f 5f3d e0e3 433c

encoder.lstm_cells.0.conv_f.convs.<prod___-___prod>.lin_src.weight f4 [8, 8]
0.4888232 0.6740886 0.69888383 -0.44003347 0.85268706 -0.7436538 -0.2815908 -0.17338952
0.061180606 0.16302906 -0.1412437 -0.16922186 0.12691092 0.4580602 0.25881535 0.41239247
0.34260935 0.7806126 0.02791569 -0.010355741 0.45490426 -0.92285776 -0.80749416 0.34018955
-0.09166373 0.1742677 -0.24209793 0.04439444 0.71550417 -0.57252353 0.18889181 0.7193203
-0.39342135 -0.35130557 -0.59473026 -0.43877813 0.06572419 -0.36051404 -0.40270683 -0.081687294
0.014442 -0.029697716 0.9578979 -0.14153118 -0.22558954 0.064442225 -0.26208994 0.5076231
0.30484596 0.68500066 -0.23489484 0.18531889 0.5574915 -0.5277769 0.40316245 0.5031853
0.17642406 0.39103526 -0.086569734 -0.2668731 0.04866877 -0.010180772 -0.26214814 0.152706
00000000: 0947 fa3e 1291 2c3f 0dea 323f 114c e1be
00000010: b349 5a3f 1860 3ebf ab2c 90be 068d 31be
00000020: 8498 7a3d 17f1 263e 30a2 10be 7f48 2dbe
00000030: f0f4 013e de86 ea3e 7283 843e 1b25 d33e
00000040: 7e6a af3e 3ad6 473f 72af e43c 20ab 29bc
00000050: 36e9 e83e 6840 6cbf f0b7 4ebf 532d ae3e
00000060: 32ba bbbd 3b73 323e 85e8 77be f2d6 353d
00000070: 482b 373f e790 12bf db6c 413e 6025 383f
00000080: 866e c9be 53de b3be 3e40 18bf 87a7 e0be
00000090: 679a 863d 4c95 b8be 972f cebe ab4b a7bd
000000a0: 239e 6c3c a048 f3bc cc38 753f 8ded 10be
000000b0: f200 67be 49fa 833d a730 86be 96f3 013f
000000c0: c514 9c3e 345c 2f3f 4688 70be 3cc4 3d3e
000000d0: c3b7 0e3f 631c 07bf 4f6b ce3e c0d0 003f
000000e0: 82a8 343e c635 c83e 794b b1bd 97a3 88be
000000f0: e758 473d 41cd 26bc 4838 86be f65e 1c3e

encoder.lstm_cells.0.conv_f.convs.<prod___-___prod>.lin_dst.weight f4 [8, 8]
-0.52124035 0.48539338 0.72904086 0.24253331 -0.49382687 0.32562384 0.19822954 0.096982494
0.20255998 0.5066127 -0.3965975 -0.21068008 0.2753935 0.041166265 0.40134633 -0.25442058
-0.021546314 0.15248926 -0.29542518 0.3460603 0.17254469 -0.58981353 -0.15809399 -0.21229616
0.056424446 -0.030483587 -0.7438663 -0.18812141 0.050508607 -0.20759569 0.4689086 -0.06377907
0.3926215 0.19800434 -0.6518461 0.06756214 0.61917675 -0.43247393 -0.49274397 0.66985655
0.49391526 -0.3904005 0.5046752 0.00024326354 -0.7177025 0.0806471 0.2965421 -0.25619072
0.21450117 -0.5737691 0.5604506 0.6014774 0.22283123 0.13938576 0.3009397 -0.51598895
-0.15281053 -0.09218325 -0.20916305 -0.38327757 0.3104735 0.43584177 -0.46706027 0.13197371
00000000: 0270 05bf 7b85 f83e 6ca2 3a3f a75a 783e
00000010: e0d6 fcbe 2bb8 a63e affc 4a3e c29e c63d
00000020: e26b 4f3e 5fb1 013f d40e cbbe 85bc 57be
00000030: 6000 8d3e f59d 283d 447d cd3e 6a43 82be
00000040: e581 b0bc 2526 1c3e f841 97be d12e b13e
00000050: 8eaf 303e 05fe 16bf 64e3 21be 2a64 59be
00000060: 521d 673d b7b8 f9bc 066e 3ebf e6a2 40be
00000070: 1de2 4e3d f793 54be ca14 f03e 9a9e 82bd
00000080: af05 c93e a6c1 4a3e 63df 26bf 055e 8a3d
00000090: 5e82 1e3f 396d ddbe f048 fcbe b87b 2b3f
000000a0: 76e2 fc3e 93e2 c7be 6532 013f 8f14 7f39
000000b0: 5abb 37bf 4f2a a53d 5ed4 973e 6e2b 83be
000000c0: 32a6 5b3e 88e2 12bf b179 0f3f 6cfa 193f
000000d0: df2d 643e 24bb 0e3e c514 9a3e da17 04bf
000000e0: 5d7a 1cbe 92ca bcbd d72e 56be f53c c4be
000000f0: 62f6 9e3e a726 df3e 8622 efbe 1e24 073e

encoder.lstm_cells.0.conv_f.convs.<inj___-___inj>.att_src f4 [1, 1, 8]
-0.4136031 -0.5356788 0.35775977 -0.2615465 0.47028613 -0.30383775 0.5231915 -0.6014726
00000000: c9c3 d3be 3f22 09bf 4a2c b73e 6ce9 85be
00000010: 58c9 f03e 9f90 9bbe e1ef 053f 1cfa 19bf

encoder.lstm_cells.0.conv_f.convs.<inj___-___inj>.att_dst f4 [1, 1, 8]
-0.411919 0.24830467 0.1726606 -0.20915568 0.48668283 0.55446684 -0.5919677 -0.43587425
00000000: 0ce7 d2be 9443 7e3e f1cd 303e e82c 56be
00000010: 7e2e f93e 8af1 0d3f 328b 17bf e92a dfbe

encoder.lstm_cells.0.conv_f.convs.<inj___-___inj>.bias f4 [8]
0.3604841 0.2070884 0.2108645 0.22542226 0.09007343 -0.032584343 0.27823234 0.1694313
00000000: 5f91 b83e fb0e 543e ddec 573e 18d5 663e
00000010: 6b78 b83d 2977 05bd 7874 8e3e 667f 2d3e

encoder.lstm_cells.0.conv_f.convs.<inj___-___inj>.lin_src.weight f4 [8, 8]
0.41056806 0.6761058 0.17739338 0.39404497 -0.21927023 0.45207042 0.6630988 -0.7341761
-0.40868288 0.35611537 0.25858685 -0.416994 -0.062301893 -0.089049384 0.22579737 -0.4301727
0.49685267 0.42194003 -0.57600874 -0.14875783 0.049134534 0.24322772 0.71115655 0.029666489
0.06897177 0.7391382 -0.44247398 -0.36497194 -0.044539932 -0.39288074 0.2618676 -0.6276304
-0.119619474 0.035771307 0.28186858 -0.40412524 -0.69590294 0.14854684 0.32608676 -0.3868946
0.14162587 -0.50716764 0.11839163 0.6514394 0.4812826 -0.36646262 0.30927196 0.44771588
0.17083767 0.63338685 -0.4114714 -0.33392057 -0.31157288 0.10167364 0.31700784 -0.11856805
-0.35016286 -0.376377 0.22036356 -0.55916744 -0.065334156 -0.036865395 -0.2422905 0.22329764
00000000: fa35 d23e 4515 2d3f 9ca6 353e 43c0 c93e
00000010: 6088 60be c675 e73e d8c0 293f f7f2 3bbf
00000020: e23e d1be c154 b63e 7f65 843e 3d80 d5be
00000030: 4530 7fbd 865f b6bd 6d37 673e 993f dcbe
00000040: 7963 fe3e 8608 d83e 4f75 13bf f953 18be
00000050: 4b41 493d b010 793e 5b0e 363f 2307 f33c
00000060: 1241 8d3d 2938 3d3f f38b e2be 9add babe
00000070: 816f 36bd aa27 c9be 8313 863e 63ac 20bf
00000080: 0efb f4bd ef84 123d 1451 903e 81e9 cebe
00000090: b226 32bf aa1c 183e d8f4 a63e 0d17 c6be
000000a0: 5f06 113e bdd5 01bf 5077 f23d bcc4 263f
000000b0: ac6a f63e fda0 bbbe e558 9e3e 043b e53e
000000c0: 12f0 2e3e a425 223f 61ac d2be a3f7 aabe
000000d0: 7b86 9fbe 453a d03d da4e a23e ced3 f2bd
000000e0: 8c48 b3be 7cb4 c0be fca6 613e 9925 0fbf
000000f0: eacd 85bd 2b00 17bd 001b 78be 23a8 643e

encoder.lstm_cells.0.conv_f.convs.<inj___-___inj>.lin_dst.weight f4 [8, 8]
0.039348353 0.430011 -0.05420059 -0.38626933 0.43268594 0.0854625 -0.17573427 -0.40348938
0.14360663 -0.5841021 0.16117285 0.3026492 -0.53717935 -0.4008714 -0.4400364 0.5146277
0.52063984 0.038298666 0.5748224 -0.20481278 -0.5945081 0.21392097 0.2170936 0.6003074
-0.00023898188 0.46936288 0.37545595 0.44332942 -0.6076721 0.50423825 -0.52219695 0.5490618
-0.025233919 -0.54279584 0.17007786 -0.12490929 -0.5500429 -0.22194418 0.06355233 0.47679403
-0.18809843 0.3636137 0.0764381 0.020342907 0.11715608 -0.4018083 -0.50853294 -0.19258602
-0.57081395 -0.28545672 0.028437534 -0.40299565 -0.25399026 -0.110113166 -0.07104732 -0.33785594
0.029296784 -0.08586133 0.1753318 0.027895091 -0.30578637 -0.2108876 -0.0074295653 -0.3819769
00000000: bd2b 213d 672a dc3e 7001 5ebd 18c5 c5be
00000010: 0389 dd3e f706 af3d aff3 33be 2996 cebe
00000020: 9e0d 133e b787 15bf 7f0a 253e d6f4 9a3e
00000030: 9684 09bf 043f cdbe 734c e1be a4be 033f
00000040: a748 053f 10df 1c3d 9027 133f 71ba 51be
00000050: af31 18bf 190e 5b3e c94d 5e3e bfad 193f
00000060: 3697 7ab9 5550 f03e c33b c03e 13fc e23e
00000070: 6690 1bbf c215 013f b3ae 05bf 508f 0c3f
00000080: 5db7 cebc abf4 0abf e428 2e3e 71d0 ffbd
00000090: 9dcf 0cbf 5645 63be b927 823d 591e f43e
000000a0: e09c 40be 932b ba3e 948b 9c3d 2ba6 a63c
000000b0: 87ef ef3d d1b9 cdbe 372f 02bf 4535 45be
000000c0: dd20 12bf 6227 92be d5f5 e83c 7255 cebe
000000d0: 030b 82be 0383 e1bd 4281 91bd 74fb acbe
000000e0: cfff ef3c 11d8 afbd 2e8a 333e 3f84 e43c
000000f0: 0890 9cbe ebf2 57be b673 f3bb 7a92 c3be

encoder.lstm_cells.0.W_f.inj f4 [1, 8]
-0.25924918 0.55062515 0.4799352 0.4258373 -0.52710956 -0.7845072 -0.21970013 1.020621
00000000: 4fbc 84be c5f5 0c3f 11ba f53e 5907 da3e
00000010: a7f0 06bf 77d5 48bf 12f9 60be b5a3 823f

encoder.lstm_cells.0.W_f.prod f4 [1, 8]
-0.008356207 -0.5383818 0.3839878 -0.15013182 -0.6494965 0.8745573 -0.7101585 0.059367824
00000000: 79e8 08bc 64d3 09bf 0d9a c43e 28bc 19be
00000010: 6745 26bf fde2 5f3f f3cc 35bf ad2b 733d

encoder.lstm_cells.0.b_f.inj f4 [1, 8]
0.8673682 0.8180114 0.98303086 0.03282734 -0.5807965 0.1509884 0.72928804 -0.6432345
00000000: d80b 5e3f 3269 513f e9a7 7b3f f675 063d
00000010: 14af 14bf b49c 1a3e 9fb2 3a3f 04ab 24bf

encoder.lstm_cells.0.b_f.prod f4 [1, 8]
0.12475022 -0.4867536 0.23187658 -0.107971475 -0.04839465 -0.050306417 -0.7213245 0.6818977
00000000: 0b7d ff3d c537 f9be 0e71 6d3e 2620 ddbd
00000010: 7839 46bd 1a0e 4ebd b9a8 38bf d990 2e3f

encoder.lstm_cells.0.conv_c.convs.<inj___-___prod>.att_src f4 [1, 1, 8]
0.5867486 -0.0132559 -0.25763384 -0.6607252 -0.31573045 0.44131765 -0.21366282 -0.47016776
00000000: 2835 163f 462f 59bc 95e8 83be 4925 29bf
00000010: 6ca7 a1be 63f4 e13e 6dca 5abe d4b9 f0be

encoder.lstm_cells.0.conv_c.convs.<inj___-___prod>.att_dst f4 [1, 1, 8]
0.08447435 -0.6661948 -0.7388174 -0.51808274 -0.64069027 -0.55822814 0.77016914 0.218416
00000000: e300 ad3d be8b 2abf 2323 3dbf 12a1 04bf
00000010: 4704 24bf 0ae8 0ebf ce29 453f 72a8 5f3e

encoder.lstm_cells.0.conv_c.convs.<inj___-___prod>.bias f4 [8]
0.3008554 0.15529497 -0.17814645 0.2886534 0.18390265 -0.2259798 -0.15611392 0.2751563
00000000: b809 9a3e a505 1f3e 066c 36be 61ca 933e
00000010: fa50 3c3e 4067 67be 54dc 1fbe 49e1 8c3e

encoder.lstm_cells.0.conv_c.convs.<inj___-___prod>.lin_src.weight f4 [8, 8]
0.19457053 0.026670745 0.2453284 -0.00036625454 0.18026894 -0.05104017 -0.22262609 0.46866885
-0.16973142 0.046041723 -0.37386742 -0.49885806 -0.37504932 0.571033 0.57586336 0.3245005
0.5020222 -0.39160815 0.22523643 0.4380523 0.2700708 -0.68410814 0.07250794 -0.12708922
-0.31946445 0.02395203 -0.1207956 -0.25355724 -0.44213283 0.049087007 -0.08469318 -0.1863256
-0.030984037 0.05457958 -0.7414503 0.08522649 0.50067765 0.1732916 -0.23333023 0.18671444
0.16361019 0.38664985 -0.29720291 -0.535811 0.24484411 0.085836045 -0.22220555 -0.30207077
-0.47803193 0.3966921 0.014730225 0.6509144 0.6895291 0.005859644 -0.03197834 -0.06367217
0.72539866 -0.1980966 0.0013721166 -0.46205887 -0.037189364 -0.31500757 0.11874144 0.15369298
00000000: 7f3d 473e 9b7c da3c 5e37 7b3e da05 c0b9
00000010: 6c98 383e 7f0f 51bd 18f8 63be 5df5 ef3e
00000020: 13ce 2dbe 3f96 3c3d 8d6b bfbe 536a ffbe
00000030: 7706 c0be 382f 123f c86b 133f ee24 a63e
00000040: 8784 003f dd80 c8be 61a4 663e 6448 e03e
00000050: b846 8a3e b621 2fbf 0b7f 943d ad23 02be
00000060: d890 a3be 0c37 c43c af63 f7bd 41d2 81be
00000070: 3c5f e2be 750f 493d 9e73 adbd 23cc 3ebe
00000080: 3cd2 fdbc d68e 5f3d b0cf 3dbf 3a8b ae3d
00000090: 692c 003f 5a73 313e 1fee 6ebe 1232 3f3e
000000a0: 6e89 273e f8f6 c53e fb2a 98be e92a 09bf
000000b0: 6ab8 7a3e cfca af3d da89 63be 05a9 9abe
000000c0: 9ac0 f4be 3a1b cb3e 0b57 713c 53a2 263f
000000d0: fb84 303f 4202 c03b b8fb 02bd 8e66 82bd
000000e0: bab3 393f d6d9 4abe 98d8 b33a fb92 ecbe
000000f0: e053 18bd ac48 a1be b62e f33d b161 1d3e

encoder.lstm_cells.0.conv_c.convs.<inj___-___prod>.lin_dst.weight f4 [8, 8]
0.27600408 -0.5017962 -0.4007985 -0.051380523 -0.2928394 0.35915372 0.52923393 -0.04263715
0.62732273 -0.19965182 -0.3271908 -0.3440759 -0.36068013 -0.5212134 -0.63707495 -0.5617468
0.20840998 0.42873406 0.5928519 0.45249397 0.024472408 0.029659087 -0.45601526 0.21698022
-0.5388703 0.34482455 0.13001297 0.11829787 0.28474975 -0.37162083 0.43464944 0.27245674
0.45106015 0.13454267 0.403913 0.3447282 0.33530885 0.38086227 -0.19771668 0.38244832
0.18994226 0.4240573 0.6145404 0.06913129 -0.16739158 -0.15026125 0.08237401 0.083410606
-0.21474959 0.42668584 0.34936658 -0.31389195 -0.10764667 0.027128553 -0.29757848 0.109042615
-0.23790567 -0.375345 -0.21304773 -0.14571331 0.52287954 0.33083114 0.6982193 0.18741967
00000000: 6850 8d3e b775 00bf 7635 cdbe 6274 52bd
00000010: 0cef 95be ffe2 b73e e07b 073f 4ba4 2ebd
00000020: 3998 203f 8771 4cbe 8d85 a7be b72a b0be
00000030: 11ab b8be 3e6e 05bf 5817 23bf a3ce 0fbf
00000040: 6d69 553e 0883 db3e 24c5 173f 4aad e73e
00000050: 5c7a c83c 9df7 f23c d57a e9be 1030 5e3e
00000060: 67f3 09bf d88c b03e 1f22 053e 2746 f23d
00000070: b8ca 913e 1645 bebe 5f8a de3e 737f 8b3e
00000080: 5bf1 e63e 8ec5 093e afcd ce3e 3780 b03e
00000090: 9aad ab3e 6100 c33e 3e76 4abe 44d0 c33e
000000a0: 3980 423e 0a1e d93e 8552 1d3f b594 8d3d
000000b0: b368 2bbe 16de 19be b4b3 a83d 2ed3 aa3d
000000c0: 51e7 5bbe 9176 da3e 2de0 b23e 72b6 a0be
000000d0: db75 dcbd b33c de3c 355c 98be bc51 df3d
000000e0: 8b9d 73be 382d c0be 2f29 5abe df35 15be
000000f0: 6fdb 053f b362 a93e 80be 323f f1ea 3f3e

encoder.lstm_cells.0.conv_c.convs.<prod___-___prod>.att_src f4 [1, 1, 8]
0.60659736 -0.706669 -0.88993484 -0.16188954 0.31558293 -0.77488935 -0.54686093 -0.35297212
00000000: f749 1b3f 42e8 34bf c5d2 63bf 5fc6 25be
00000010: 1694 a13e 265f 46bf 14ff 0bbf c3b8 b4be

encoder.lstm_cells.0.conv_c.convs.<prod___-___prod>.att_dst f4 [1, 1, 8]
0.04875516 -0.29229864 0.13608155 -0.48976418 -0.5453747 -0.39691958 -0.33940828 -0.8277715
00000000: 7eb3 473d 2ba8 95be f658 0b3e 5fc2 fabe
00000010: ad9d 0bbf 0b39 cbbe ecc6 adbe d5e8 53bf

encoder.lstm_cells.0.conv_c.convs.<prod___-___prod>.bias f4 [8]
0.3008554 0.15529497 -0.17814645 0.2886534 0.18390265 -0.2259798 -0.15611392 0.2751563
00000000: b809 9a3e a505 1f3e 066c 36be 61ca 933e
00000010: fa50 3c3e 4067 67be 54dc 1fbe 49e1 8c3e

encoder.lstm_cells.0.conv_c.convs.<prod___-___prod>.lin_src.weight f4 [8, 8]
0.40822676 0.48406824 0.4013463 -0.54715717 -0.27623135 -0.4232555 -0.30275795 0.325972
0.18010195 0.5651614 -0.080737405 -0.340283 -0.2367782 -0.60315263 -0.54918903 0.36758348
0.21972477 0.479026 -0.19738391 -0.06122136 -0.5033785 0.2186113 0.32790625 -0.1691622
0.36135614 0.24931853 0.368903 0.09094857 -0.3483592 -0.16920988 -0.21122393 -0.29394516
0.3226719 0.033450916 -0.13671847 -0.3509786 0.13683507 -0.7080311 -0.05349336 0.14859277
0.25046203 -0.164028 -0.08216796 0.36599642 0.17999564 -0.020343158 0.5572075 -0.04496101
-0.38309574 0.16951856 -0.47308794 0.019662313 -0.43921173 -0.15075454 0.6272277 -0.66471213
0.50535107 -0.23715003 -0.1313906 0.27381134 0.79482114 -0.51408505 -0.19471489 0.41754457
00000000: 1903 d13e cbd7 f73e 437d cd3e 7e12 0cbf
00000010: 326e 8dbe f2b4 d8be 1703 9bbe cde5 a63e
00000020: a56c 383e 6bae 103f a759 a5bd 9339 aebe
00000030: fc75 72be 3668 1abf a797 0cbf e733 bc3e
00000040: 88ff 603e e542 f53e 021f 4abe 40c3 7abd
00000050: 6add 00bf a4db 5f3e 54e3 a73e db38 2dbe
00000060: ac03 b93e 5b4d 7f3e dbe0 bc3e 3e43 ba3d
00000070: 235c b2be 5b45 2dbe 164b 58be fb7f 96be
00000080: 4035 a53e d403 093d edff 0bbe 78b3 b3be
00000090: 7e1e 0c3e 8741 35bf da1b 5bbd b428 183e
000000a0: 8f3c 803e f5f6 27be ad47 a8bd e263 bb3e
000000b0: c750 383e b2a6 a6bc 27a5 0e3f 0929 38bd
000000c0: 2025 c4be 4696 2d3e 9538 f2be dc12 a13c
000000d0: 5ce0 e0be 665f 1abe ff91 203f 932a 2abf
000000e0: b05e 013f 75d7 72be 428b 06be 0031 8c3e
000000f0: 6679 4b3f 149b 03bf 5763 47be 67c8 d53e

encoder.lstm_cells.0.conv_c.convs.<prod___-___prod>.lin_dst.weight f4 [8, 8]
0.27353364 -0.057304565 0.05265454 -0.41600648 -0.39756963 0.6349778 -0.3798431 0.023354566
-0.032793783 0.66244787 0.024963666 -0.44794044 -0.264175 0.25206333 0.20264363 0.36158803
-0.07181041 0.29722983 -0.67135304 0.34055868 0.28839365 0.38818386 -0.30791986 -0.09226519
0.19641311 -0.365531 -0.3270463 -0.5639554 -0.06946621 0.31070974 0.113442495 -0.10607588
0.26196283 -0.31540474 0.2250638 -0.12554295 -0.40838113 0.4586712 -0.51811427 -0.054420415
-0.48631552 0.051375143 -0.11546698 0.22921987 -0.44409046 0.3195394 -0.54330313 0.22923315
-0.41670603 0.39768592 -0.098813444 0.020318612 -0.22264796 0.33171013 0.15780441 -0.69028336
0.11599104 -0.3447305 0.6306189 0.13722976 -0.2566564 -0.39114845 0.16203734 -0.51747626
00000000: 9a0c 8c3e 31b8 6abd 49ac 573d cdfe d4be
00000010: 3f8e cbbe e88d 223f cb7a c2be 1352 bf3c
00000020: c652 06bd 2f96 293f 9a80 cc3c 7358 e5be
00000030: f241 87be 720e 813e d081 4f3e 1122 b93e
00000040: 5611 93bd 822e 983e cbdd 2bbf b55d ae3e
00000050: 55a8 933e 09c0 c63e aca7 9dbe 88f5 bcbd
00000060: 8520 493e e126 bbbe 9d72 a7be 625f 10bf
00000070: 4d44 8ebd 5915 9f3e 8a54 e83d 503e d9bd
00000080: fe1f 863e bb7c a1be 2077 663e 558e 00be
00000090: 5517 d1be f4d6 ea3e 23a3 04bf f1e7 5ebd
000000a0: 59fe f8be be6e 523d f479 ecbd 9db8 6a3e
000000b0: d35f e3be ab9a a33e ea15 0bbf 18bc 6a3e
000000c0: 7e5a d5be 7d9d cb3e b45e cabd 3873 a63c
000000d0: d4fd 63be e9d5 a93e 7b97 213e 69b6 30bf
000000e0: b68c ed3d 8480 b0be 3d70 213f f585 0c3e
000000f0: 7868 83be 9c44 c8be 1eed 253e 5379 04bf

encoder.lstm_cells.0.conv_c.convs.<inj___-___inj>.att_src f4 [1, 1, 8]
0.8051255 -0.030005222 0.65888345 0.1303207 -0.803023 0.6637659 -0.35833496 -0.4133225
00000000: b41c 4e3f 83cd f5bc 96ac 283f ca72 053e
00000010: ea92 4dbf 90ec 293f ae77 b7be 029f d3be

encoder.lstm_cells.0.conv_c.convs.<inj___-___inj>.att_dst f4 [1, 1, 8]
-0.76219743 -0.76045537 0.29816583 -0.2614687 0.36224622 -0.7034725 0.60518783 -0.5647045
00000000: 5f1f 43bf 34ad 42bf 31a9 983e 3adf 85be
00000010: 5678 b93e c616 34bf 97ed 1a3f 7990 10bf

encoder.lstm_cells.0.conv_c.convs.<inj___-___inj>.bias f4 [8]
0.28208324 0.26332122 -0.18498145 -0.10601684 -0.089345545 0.24934457 0.23772445 0.32500976
00000000: 376d 903e 0ad2 863e c76b 3dbe 5b1f d9bd
00000010: ccfa b6bd 2f54 7f3e 0a6e 733e ae67 a63e

encoder.lstm_cells.0.conv_c.convs.<inj___-___inj>.lin_src.weight f4 [8, 8]
0.3984776 0.40963894 0.25734714 0.059538104 -0.6057907 0.41348144 -0.08430833 -0.2873445
0.16131854 0.56098074 0.22777209 -0.11238963 0.24560404 -0.55595493 0.24579357 -0.7897301
0.09376482 -0.48023087 -0.101483226 0.5331579 0.6699077 -0.3401709 -0.44236413 0.18145454
0.08206794 -0.21762037 -0.024329338 -0.23375238 0.31964344 0.5237987 -0.4575387 0.44482574
0.10484897 0.3274054 0.11391135 0.18540756 0.4469238 0.36825183 0.4204185 0.0021316446
0.3457406 0.52941495 -0.5072155 0.061048068 -0.2796127 0.3227277 -0.19108379 0.015146486
0.50340164 -0.41383934 -0.65498656 -0.4200273 0.28654975 0.32693562 -0.28710362 -0.014985418
-0.3537697 -0.27725455 0.5126909 0.3166536 -0.11722114 0.19025406 0.15734906 0.11814014
00000000: 4205 cc3e 32bc d13e 01c3 833e 3ade 733d
00000010: 1915 1bbf d7b3 d33e d9a9 acbd d11e 93be
00000020: b030 253e 6f9c 0f3f 163d 693e 892c e6bd
00000030: a07f 7b3e 1053 0ebf 4fb1 7b3e c02b 4abf
00000040: c507 c03d d2e0 f5be 70d6 cfbd 097d 083f
00000050: 127f 2b3f e12a aebe 8d7d e2be 38cf 393e
00000060: 3c13 a83d e0d7 5ebe 524e c7bc c95c 6fbe
00000070: 4ea8 a33e ac17 063f 8342 eabe 33c0 e33e
00000080: 0fbb d63d aea1 a73e 5b4a e93d 7bdb 3d3e
00000090: 32d3 e43e 818b bc3e 1841 d73e 10b3 0b3b
000000a0: e904 b13e bd87 073f e0d8 01bf 8a0d 7a3d
000000b0: 6529 8fbe 913c a53e 78ab 43be f828 783c
000000c0: eede 003f c0e2 d3be 33ad 27bf d10d d7be
000000d0: a6b6 923e 1b64 a73e 3fff 92be 6685 75bc
000000e0: 4d21 b5be 4ff4 8dbe b63f 033f 6c20 a23e
000000f0: a311 f0bd f6d1 423e 1d20 213e 75f3 f13d

encoder.lstm_cells.0.conv_c.convs.<inj___-___inj>.lin_dst.weight f4 [8, 8]
-0.27543068 -0.43033564 0.433858 0.015322203 0.34505743 -0.16315565 0.26475847 0.488845
0.30867997 0.09750865 0.6292495 -0.069691755 0.21765706 0.6496627 0.56530374 -0.21727248
0.6179571 0.29508406 -0.09926375 0.59803 -0.4055213 0.32981426 0.6409772 -0.46610233
-0.42748585 -0.67825407 -0.082006074 -0.6228115 -0.112887435 0.25769734 0.40082097 0.38505727
0.4052768 0.3218846 -0.4096374 -0.4231229 -0.061736975 0.5146198 0.0673788 -0.0954206
-0.48068458 -0.37245962 -0.44449794 0.42342365 -0.012063793 -0.47312778 0.034787625 0.0867242
-0.011556656 0.28855112 0.3024051 -0.5075313 -0.55709773 -0.09784367 -0.53758174 -0.5979134
0.47715905 -0.1156951 -0.27640185 -0.27876908 -0.39075258 0.5458944 -0.16229987 -0.30317402
00000000: 4005 8dbe f454 dcbe a322 de3e fa09 7b3c
00000010: 5eab b03e 4612 27be 6c8e 873e e449 fa3e
00000020: 4d0b 9e3e 9db2 c73d 7f16 213f 8dba 8ebd
00000030: 7ee1 5e3e 4b50 263f bfb7 103f ad7c 5ebe
00000040: 7032 1e3f 4215 973e cb4a cbbd 7e18 193f
00000050: 7da0 cfbe 6add a83e 1517 243f f7a4 eebe
00000060: 6ddf dabe 0fa2 2dbf cdf2 a7bd 9370 1fbf
00000070: 8731 e7bd e8f0 833e 6838 cd3e 3a26 c53e
00000080: 7180 cf3e 0fce a43e febb d1be 91a3 d8be
00000090: e9df 7cbd 20be 033f e5fd 893d e06b c3bd
000000a0: 4a1c f6be 07b3 bebe 3c95 e3be fcca d83e
000000b0: 37a7 45bc ce3d f2be 787d 0e3d 759c b13d
000000c0: 2158 3dbc f9bc 933e d7d4 9a3e 92ed 01bf
000000d0: f59d 0ebf 4362 c8bd f59e 09bf da10 19bf
000000e0: 314e f43e 8df1 ecbd 8b84 8dbe d2ba 8ebe
000000f0: b910 c8be bcbf 0b3f f031 26be a039 9bbe

encoder.lstm_cells.0.W_c.inj f4 [1, 8]
-0.48141262 0.5000449 0.40001187 0.2560876 -0.6227852 -0.9254262 -0.35358065 0.7781554
00000000: b77b f6be f102 003f 5bce cc3e ea1d 833e
00000010: da6e 1fbf bbe8 6cbf 8608 b5be 3135 473f

encoder.lstm_cells.0.W_c.prod f4 [1, 8]
0.18270513 0.49597842 0.6566127 0.40076256 -0.03147795 -0.6321212 -0.5091941 -0.5307707
00000000: 0e17 3b3e e2f0 fd3e c517 283f c030 cd3e
00000010: 06ef 00bd b2d2 21bf 8b5a 02bf 97e0 07bf

encoder.lstm_cells.0.b_c.inj f4 [1, 8]
0.9665779 0.13523786 -0.27796575 -0.4392462 -0.8266927 -0.5452221 0.5411809 -0.12328457
00000000: a671 773f cb7b 0a3e 8751 8ebe e1e4 e0be
00000010: 22a2 53bf ad93 0bbf d58a 0a3f 9f7c fcbd

encoder.lstm_cells.0.b_c.prod f4 [1, 8]
-0.22405156 0.09158936 -0.4500479 0.024500048 0.21013777 -0.39916897 -0.43724346 -0.11578717
00000000: c66d 65be 3493 bb3d ae6c e6be 53b4 c83c
00000010: 5b2e 573e e05f ccbe 60de dfbe d321 edbd

encoder.lstm_cells.0.conv_o.convs.<inj___-___prod>.att_src f4 [1, 1, 8]
-0.28464204 0.46225512 0.49030048 1.0011829 0.99483013 -0.30993655 0.53463227 -0.34591872
00000000: 9abc 91be b4ac ec3e aa08 fb3e c326 803f
00000010: 30ad 7e3f 01b0 9ebe a9dd 083f 421c b1be

encoder.lstm_cells.0.conv_o.convs.<inj___-___prod>.att_dst f4 [1, 1, 8]
-0.24321151 -0.8558729 0.78182745 -0.6832975 0.7302985 0.2873251 0.25219533 -0.38639122
00000000: 700c 79be 7d1a 5bbf d825 483f 96ec 2ebf
00000010: d8f4 3a3f 471c 933e bf1f 813e 12d5 c5be

encoder.lstm_cells.0.conv_o.convs.<inj___-___prod>.bias f4 [8]
0.19915693 0.20025174 0.18477644 0.34877613 0.35908362 0.31953007 0.28811452 0.22429046
00000000: cbef 4b3e cb0e 4d3e 0936 3d3e c992 b23e
00000010: cfd9 b73e 7299 a33e bf83 933e 66ac 653e

encoder.lstm_cells.0.conv_o.convs.<inj___-___prod>.lin_src.weight f4 [8, 8]
-0.34754026 0.6020122 -0.14803405 -0.1857373 -0.3038946 -0.46165526 0.22531097 0.5988601
-0.10747623 0.31875098 -0.6945318 -0.5218016 0.28144282 -0.18452655 0.81663275 -0.009722592
-0.07466742 -0.08861124 0.3136784 -0.7183803 0.004484194 -0.02618418 0.42299768 0.40905783
-0.03887891 0.30291587 -0.68402547 -0.38645664 0.8592893 0.5291495 0.022162534 -0.5440984
-0.10902627 0.45456076 -0.28259313 -0.28382894 0.08268274 0.5013728 -0.08976192 -0.4229829
0.71025693 0.6290629 -0.61324096 -0.9240073 -0.1571037 0.13642934 0.44516778 0.53033686
-0.22135204 0.61642087 -0.62516254 0.06994867 0.18891832 -0.05191297 0.7304738 -0.49597916
-0.5636325 -0.6450058 0.5181566 0.1840605 -0.46116453 0.110367894 0.5858235 -0.42047018
00000000: ccf0 b1be 791d 1a3f 3d96 17be eb31 3ebe
00000010: 1398 9bbe 145e ecbe ebb7 663e e54e 193f
00000020: 7f1c dcbd 5433 a33e d6cc 31bf ca94 05bf
00000030: 4619 903e 87f4 3cbe d80e 513f 824b 1fbc
00000040: 3beb 98bd cf79 b5bd 759a a03e c5e7 37bf
00000050: 25f0 923b 3580 d6bc 2793 d83e 0770 d13e
00000060: 7e3f 1fbd ca17 9b3e 4b1c 2fbf a5dd c5be
00000070: 62fa 5b3f 5776 073f 348e b53c 084a 0bbf
00000080: 2a49 dfbd 30bc e83e 0cb0 90be 0752 91be
00000090: 9255 a93d f859 003f 19d5 b7bd 3791 d8be
000000a0: 66d3 353f 440a 213f 5cfd 1cbf be8b 6cbf
000000b0: cbdf 20be 22b4 0b3e 08ed e33e 28c4 073f
000000c0: 1caa 62be c2cd 1d3f a70a 20bf 4041 8f3d
000000d0: ce73 413e b2a2 54bd 5500 3b3f fbf0 fdbe
000000e0: 384a 10bf 1a1f 25bf e9a5 043f 5b7a 3c3e
000000f0: c21d ecbe 9008 e23d 87f8 153f de47 d7be

encoder.lstm_cells.0.conv_o.convs.<inj___-___prod>.lin_dst.weight f4 [8, 8]
0.5038105 -0.041249946 0.17330216 0.55724996 0.5782211 0.2693133 0.706123 0.12311097
0.15991679 -0.65395105 0.22915687 -0.43523338 0.20883615 0.10488819 0.22553226 -0.5504711
-0.4308427 0.5638834 0.19019298 0.3202356 -0.20199342 -0.106489964 -0.36139777 0.5444794
-0.19645149 0.27894017 0.5402296 -0.5545295 0.032284774 -0.12626436 -0.13771117 0.133364
-0.13667063 0.65427786 -0.50184643 0.2831611 -0.5452201 -0.30213395 -0.1743765 0.6202078
0.27342546 -0.38957697 -0.03379162 -0.3600068 0.013768797 -0.5168046 -0.38295677 0.53636307
-0.64136076 -0.48423767 -0.0062707774 0.06906753 -0.15425308 0.54557407 -0.55423003 -0.24815446
-0.40405285 -0.22271913 -0.054520767 0.37979886 -0.017084975 0.20022275 -0.055320557 0.38205713
00000000: baf9 003f b4f5 28bd 1f76 313e efa7 0e3f
00000010: 4c06 143f 6fe3 893e 7ac4 343f 9b21 fc3d
00000020: 3ac1 233e 5669 27bf 19a8 6a3e e9d6 debe
00000030: 25d9 553e 9fcf d63d eef1 663e adeb 0cbf
00000040: 6a97 dcbe aa5a 103f f3c1 423e ecf5 a33e
00000050: 5dd7 4ebe 6917 dabd 2109 b9be 0163 0b3f
00000060: 942a 49be 3fd1 8e3e 7d4c 0a3f a5f5 0dbf
00000070: 0a3d 043d 724b 01be 2804 0dbe 9390 083e
00000080: 63f3 0bbe c17e 273f 0279 00bf 7efa 903e
00000090: 8b93 0bbf 4db1 9abe c18f 32be f0c5 1e3f
000000a0: 6cfe 8b3e a276 c7be 1569 0abd d052 b8be
000000b0: 8596 613c 4e4d 04bf e912 c4be 174f 093f
000000c0: 3830 24bf 00ee f7be 187b cdbb 4773 8d3d
000000d0: 85f4 1dbe beaa 0b3f 05e2 0dbf 341c 7ebe
000000e0: 04e0 cebe 7c10 64be 2b51 5fbd ff74 c23e
000000f0: caf5 8bbc 3107 4d3e cf97 62bd fe9c c33e

encoder.lstm_cells.0.conv_o.convs.<prod___-___prod>.att_src f4 [1, 1, 8]
0.95843726 0.020682327 -0.251922 -0.39950138 0.41481838 -0.34585208 -0.0146111585 0.9191353
00000000: 255c 753f fc6d a93c ecfb 80be 728b ccbe
00000010: 1363 d43e 8613 b1be a463 6fbc 734c 6b3f

encoder.lstm_cells.0.conv_o.convs.<prod___-___prod>.att_dst f4 [1, 1, 8]
0.3241803 -0.60421455 -0.3405435 0.13691907 0.56574345 -0.11473207 -0.36556882 -0.41665354
00000000: f6fa a53e cead 1abf b85b aebe 8334 0c3e
00000010: 90d4 103f a6f8 eabd d62b bbbe 9d53 d5be

encoder.lstm_cells.0.conv_o.convs.<prod___-___prod>.bias f4 [8]
0.19915693 0.20025174 0.18477644 0.34877613 0.35908362 0.31953007 0.28811452 0.22429046
00000000: cbef 4b3e cb0e 4d3e 0936 3d3e c992 b23e
00000010: cfd9 b73e 7299 a33e bf83 933e 66ac 653e

encoder.lstm_cells.0.conv_o.convs.<prod___-___prod>.lin_src.weight f4 [8, 8]
0.76230824 -0.2965518 0.037018582 -0.43500128 0.5171115 -0.8080169 -0.5874789 0.8108314
-0.4027219 0.65335613 -0.07766723 0.41002467 -0.17683086 0.21112157 -0.1413202 0.13372228
0.37603396 -0.39405566 -0.41949183 0.5067135 -0.13555124 -0.68973374 -0.22918136 -0.020686934
0.13002722 -0.20358884 0.22720449 -0.45288864 0.41605812 -0.1398061 -0.10006813 0.24572846
0.17449765 -0.01079608 -0.37520784 -0.28603533 -0.042563125 -0.58034366 0.30669692 0.2592607
0.6373833 0.71675783 0.011228153 0.07927346 -0.025184581 -0.5790255 -0.1522551 -0.25316247
-0.036235083 0.55471826 0.28290367 0.040893115 0.44088182 0.07606647 -0.08328868 0.5204846
-0.22565112 -0.38532722 -0.26465297 -0.40672684 0.31642655 -0.17907164 -0.0033708867 0.67851853
00000000: a226 433f a3d5 97be cca0 173d 7db8 debe
00000010: 6b61 043f 32da 4ebf 0465 16bf a692 4f3f
00000020: 9131 cebe 5942 273f ff0f 9fbd c1ee d13e
00000030: 2613 35be 4130 583e 3eb6 10be 7eee 083e
00000040: 8687 c03e aac1 c9be a2c7 d6be fab7 013f
00000050: f2cd 0abe 6492 30bf 85ae 6abe a577 a9bc
00000060: db25 053e 9879 50be 4ba8 683e 05e1 e7be
00000070: 9205 d53e 5529 0fbe 85f0 ccbd 3ea0 7b3e
00000080: 83af 323e 0be2 30bc 3e1b c0be 3973 92be
00000090: ac56 2ebd 6791 14bf 6107 9d3e d2bd 843e
000000a0: 8d2b 233f 717d 373f 49f6 373c 205a a23d
000000b0: e54f cebc 043b 14bf c3e8 1bbe 839e 81be
000000c0: 3d6b 14bd 0402 0e3f c0d8 903e 8a7f 273d
000000d0: 43bb e13e bdc8 9b3d 4193 aabd 7b3e 053f
000000e0: 1611 67be 9c49 c5be 9880 87be 803e d0be
000000f0: a902 a23e 8e5e 37be 18ea 5cbb 64b3 2d3f

encoder.lstm_cells.0.conv_o.convs.<prod___-___prod>.lin_dst.weight f4 [8, 8]
-0.3233723 -0.6883821 -0.49135527 -0.36575103 0.4205029 -0.25859034 -0.012156358 0.092037834
-0.29945844 0.38360366 -0.088632286 0.03314275 -0.49877766 -0.19643295 0.036979232 -0.23200588
-0.1563834 0.28674293 0.0004971789 -0.27397215 -0.5137347 -0.26650766 -0.6317449 0.31289217
-0.38147634 -0.3239066 -0.1491274 0.10985116 -0.041216984 0.4913983 -0.4046781 0.34899062
-0.07630403 -0.6059156 -0.40561387 0.0863807 0.18432538 0.58288574 0.46162182 -0.12494835
-0.20646842 -0.035927948 -0.30428743 -0.124868065 -0.5575815 0.10979259 0.3823723 -0.11469906
-0.37501338 -0.36454168 -0.08566953 0.2326788 -0.049195774 -0.017884724 0.52900827 0.09729855
0.20611374 -0.01650176 0.46282724 0.2950631 -0.62159 -0.49865866 -0.02746019 0.01589786
00000000: 0e91 a5be cf39 30bf eb92 fbbe b843 bbbe
00000010: 284c d73e f465 84be 762b 47bc 557e bc3d
00000020: 9e52 99be b367 c43e d884 b5bd b1c0 073d
00000030: c95f ffbe b825 49be 8977 173d f392 6dbe
00000040: f822 20be f8cf 923e 1c55 023a 1446 8cbe
00000050: 1e84 03bf b173 88be 09ba 21bf 6733 a03e
00000060: de50 c3be 16d7 a5be dab4 18be a5f9 e03d
00000070: 24d3 28bd 8f98 fb3e f831 cfbe e6ae b23e
00000080: 4a45 9cbd 491d 1bbf 9fac cfbe 5de8 b03d
00000090: cbbf 3c3e 0038 153f b259 ec3e ece4 ffbd
000000a0: 756c 53be 2f29 13bd 90cb 9bbe d4ba ffbd
000000b0: a9bd 0ebf f0da e03d 4dc6 c33e 57e7 eabd
000000c0: c101 c0be 35a5 babe 8273 afbd 5a43 6e3e
000000d0: 8281 49bd fc82 92bc 166d 073f 7644 c73d
000000e0: 7b0f 533e b32e 87bc b1f7 ec3e 8312 973e
000000f0: 8620 1fbf 3050 ffbe 31f4 e0bc 3b3c 823c

encoder.lstm_cells.0.conv_o.convs.<inj___-___inj>.att_src f4 [1, 1, 8]
-0.48980057 0.18845437 0.7120634 -0.8817203 0.09571281 0.33094493 0.22138478 -0.25389275
00000000: 24c7 fabe 2ffa 403e c949 363f 6cb8 61bf
00000010: 1405 c43d 9d71 a93e b1b2 623e 3bfe 81be

encoder.lstm_cells.0.conv_o.convs.<inj___-___inj>.att_dst f4 [1, 1, 8]
0.40767804 0.47813085 0.30803424 -0.17113814 -0.23761986 0.06660771 -0.17395128 -0.29227033
00000000: 2dbb d03e 91cd f43e aab6 9d3e d63e 2fbe
00000010: 9f52 73be a069 883d 4920 32be 75a4 95be

encoder.lstm_cells.0.conv_o.convs.<inj___-___inj>.bias f4 [8]
0.22505972 0.17754354 0.26392904 0.20566265 0.059729926 0.17745811 0.17043857 0.13219191
00000000: 0e76 663e f9cd 353e b521 873e 3b99 523e
00000010: 5ea7 743d 94b7 353e 7387 2e3e 515d 073e

encoder.lstm_cells.0.conv_o.convs.<inj___-___inj>.lin_src.weight f4 [8, 8]
0.4217777 -0.2907252 -0.7389351 -0.17160754 -0.16834472 0.12077321 -0.05069359 0.2772667
0.13888974 0.6875122 -0.5218229 0.15530887 -0.0631587 -0.39705315 0.3935782 -0.7211911
0.72973937 0.16439658 -0.17458855 0.0445273 0.00092836854 0.4420081 0.611547 -0.68940777
0.6149225 0.1035334 -0.35229516 -0.041895367 0.26655084 -0.42067 -0.21693271 0.14630249
-0.32512376 0.2620914 0.0289026 0.21920398 0.39894322 -0.39198735 -0.427067 0.3504326
0.001260691 -0.03350458 -0.5161467 0.5259246 -0.05369975 -0.031972073 -0.26508117 -0.040549476
0.57824916 0.14765462 0.2521832 -0.34787127 -0.071418494 0.45621037 0.24345216 -0.37828815
0.38316634 0.54220104 0.0034417391 0.23930275 0.27521116 0.10740313 0.35645187 0.010807065
00000000: 3ff3 d73e efd9 94be da2a 3dbf e3b9 2fbe
00000010: 8f62 2cbe f257 f73d 15a4 4fbd e7f5 8d3e
00000020: 1d39 0e3e cd00 303f 3096 05bf 4a09 1f3e
00000030: 5959 81bd 8d4a cbbe 1583 c93e fb9f 38bf
00000040: 33d0 3a3f 9457 283e 57c7 32be 4262 363d
00000050: c25d 733a e34e e23e 588e 1c3f 077d 30bf
00000060: 906b 1d3f 5209 d43d 0860 b4be 7a9a 2bbd
00000070: 5a79 883e 0f62 d7be 9c23 5ebe 52d0 153e
00000080: 9f76 a6be d830 863e 25c5 ec3c 0277 603e
00000090: 4942 cc3e 91b2 c8be 87a8 dabe e76b b33e
000000a0: c53d a53a 193c 09bd 3122 04bf ffa2 063f
000000b0: 45f4 5bbd 26f5 02bd b8b8 87be 3517 26bd
000000c0: 2308 143f c632 173e 281e 813e 2f1c b2be
000000d0: dc43 92bd 6894 e93e 864b 793e fcae c1be
000000e0: 612e c43e b0cd 0a3f cd8e 613b c80b 753e
000000f0: 7ae8 8c3e 2cf6 db3d dc80 b63e 1e10 313c

encoder.lstm_cells.0.conv_o.convs.<inj___-___inj>.lin_dst.weight f4 [8, 8]
0.10232071 0.5026307 0.52398854 0.20637643 -0.03794837 0.5311715 -0.45376536 0.40675685
0.3638928 0.37367445 -0.09014032 -0.469494 0.43019044 -0.2857742 0.18482256 0.3018469
-0.5338285 0.021154577 -0.26013854 0.42226267 -0.39641243 0.3542191 0.40551138 0.2938892
0.54975474 0.11379082 -0.51078695 0.45050803 0.06123954 0.028850256 -0.60885614 -0.09326
-0.33593145 0.6202438 0.47967726 0.47008035 0.42510697 -0.36245748 -0.2878692 -0.19519378
-0.21100694 0.4657378 0.17636025 0.48457062 -0.03898086 -0.56194454 -0.15944962 0.397893
0.334548 0.21067695 -0.13528278 -0.55814254 -0.32392415 0.33596507 -0.2725856 0.33741754
0.12804824 -0.21505888 0.41668615 -0.1838869 -0.01423716 -0.21562454 -0.6052313 0.1438616
00000000: 858d d13d 68ac 003f 1d24 063f 5854 533e
00000010: c06f 1bbd dbfa 073f ef53 e8be 6f42 d03e
00000020: 2850 ba3e 4252 bf3e 7d9b b8bd 8461 f0be
00000030: ec41 dc3e ff50 92be 2042 3d3e ad8b 9a3e
00000040: fca8 08bf 5d4c ad3c e130 85be d032 d83e
00000050: 92f6 cabe 355c b53e 309f cf3e a578 963e
00000060: babc 0c3f 290b e93d efc2 02bf fda8 e63e
00000070: 50d6 7a3d 5f57 ec3c ffdd 1bbf 19ff bebd
00000080: 35ff abbe 4cc8 1e3f 4298 f53e 5fae f03e
00000090: 9fa7 d93e 0794 b9be 9763 93be e1e0 47be
000000a0: 3412 58be 2f75 ee3e c897 343e a419 f83e
000000b0: 65aa 1fbd 99db 0fbf c346 23be a2b8 cb3e
000000c0: e049 ab3e b3bb 573e 9287 0abe 6ee2 0ebf
000000d0: 63d9 a5be 9d03 ac3e 5790 8bbe fec1 ac3e
000000e0: 141f 033e 6538 5cbe e357 d53e d94c 3cbe
000000f0: fa42 69bc aecc 5cbe 70f0 1abf 7550 133e

encoder.lstm_cells.0.W_o.inj f4 [1, 8]
0.29471633 -0.23138043 -0.26896137 -0.43034723 -0.0042502596 -0.56820613 -0.63277584 0.53880364
00000000: 0fe5 963e feee 6cbe 4eb5 89be 7956 dcbe
00000010: c345 8bbb f575 11bf 99fd 21bf 09ef 093f

encoder.lstm_cells.0.W_o.prod f4 [1, 8]
-0.027527638 0.45103118 -0.10928998 -0.7405083 -0.041933324 -0.092674874 -0.05216453 -1.038956
00000000: a481 e1bc 8fed e63e 6dd3 dfbd f491 3dbf
00000010: 47c2 2bbd 53cc bdbd 79aa 55bd 83fc 84bf

encoder.lstm_cells.0.b_o.inj f4 [1, 8]
-0.4394262 0.8621835 -0.06282326 0.4220174 -0.22356614 0.24380732 0.9316583 0.50837076
00000000: 79fc e0be 0fb8 5c3f 7ba9 80bd aa12 d83e
00000010: 86ee 64be a0a8 793e 2981 6e3f 9624 023f

encoder.lstm_cells.0.b_o.prod f4 [1, 8]
-0.50841916 0.5243217 0.9598319 0.5635824 0.9064828 1.1245039 0.16300392 0.39375815
00000000: c227 02bf f239 063f 8bb7 753f f046 103f
00000010: 420f 683f beef 8f3f 80ea 263e ab9a c93e

decoder.lstm_cells.0.conv_i.convs.<inj___-___prod>.att_src f4 [1, 1, 8]
-0.2963794 -0.24500726 0.77867997 0.18199033 -0.58216256 -0.854147 -0.73042214 -0.58579594
00000000: 0abf 97be 2fe3 7abe 9257 473f ac5b 3a3e
00000010: 9b08 15bf 61a9 5abf f2fc 3abf b9f6 15bf

decoder.lstm_cells.0.conv_i.convs.<inj___-___prod>.att_dst f4 [1, 1, 8]
-0.6598758 -0.38127536 0.433833 0.29615033 -0.43956724 -0.9305917 0.6695485 -0.8053789
00000000: 9fed 28bf 8636 c3be 5c1f de3e 04a1 973e
00000010: f50e e1be 423b 6ebf 8867 2b3f 502d 4ebf

decoder.lstm_cells.0.conv_i.convs.<inj___-___prod>.bias f4 [8]
0.2414444 -0.15434597 0.24286175 -0.13216639 -0.077946454 0.19572175 0.22619851 -0.04951523
00000000: 333d 773e df0c 1ebe c0b0 783e a056 07be
00000010: 64a2 9fbd 486b 483e 95a0 673e 7bd0 4abd

decoder.lstm_cells.0.conv_i.convs.<inj___-___prod>.lin_src.weight f4 [8, 8]
0.40413815 -0.08925794 0.43333605 -0.61089337 -0.7330178 -0.18942913 -0.03277279 0.17964485
-0.2556812 0.08378931 -0.6094338 0.30713117 0.25193423 -0.14132565 0.32576773 0.20643026
-0.5494959 -0.7211407 -0.17810223 -0.2172855 0.3613229 -0.15013503 0.26897493 0.011777426
-0.24895398 -0.1445173 0.007661426 -0.035777677 0.5624479 -0.6674747 0.12207776 -0.5239208
-0.7423752 -0.33760002 0.30655164 0.5823682 0.33754233 -0.25827637 -0.25251114 -0.4891925
-0.053145327 -0.0439172 0.5098965 0.39051047 -0.53888595 0.07011947 -0.37893692 -0.20114821
-0.37488022 0.27484235 -0.4188186 0.5006228 0.38349873 -0.34735146 -0.45118034 0.017996835
-0.15626232 0.15767385 -0.36761016 0.39267048 -0.41498816 -0.40116444 -0.37983647 0.23679292
00000000: 32eb ce3e decc b6bd 39de dd3e 8263 1cbf
00000010: 0ea7 3bbf b6f9 41be c33c 06bd d2f4 373e
00000020: a5e8 82be bb99 ab3d db03 1cbf 4c40 9d3e
00000030: 86fd 803e acb7 10be 07cb a63e 7462 533e
00000040: c3ab 0cbf ad9c 38bf 6e60 36be 1780 5ebe
00000050: 51ff b83e ffbc 19be 15b7 893e 1bf6 403c
00000060: cbed 7ebe 58fc 13be b30c fb3b 9d8b 12bd
00000070: 96fc 0f3f 9fdf 2abf e803 fa3d ac1f 06bf
00000080: 4d0c 3ebf e9d9 acbe 56f4 9c3e 1516 153f
00000090: 59d2 ac3e cd3c 84be 2449 81be 7077 fabe
000000a0: eaae 59bd 86e2 33bd 9488 023f fdf0 c73e
000000b0: 6ef4 09bf cc9a 8f3d 0504 c2be ccf9 4dbe
000000c0: 4df0 bfbe 23b8 8c3e 646f d6be d128 003f
000000d0: f259 c43e 0dd8 b1be 1c01 e7be 196e 933c
000000e0: 3b03 20be 4175 213e 6637 bcbe 1b0c c93e
000000f0: 5479 d4be 6d65 cdbe ed79 c2be d879 723e
