fitted_models/model_seq2sew_GAT_RN_one_step_GRU.pth (torch, 58730 bytes, 116 tensors)

encoder.lstm_cells.0.conv_z.convs.<inj___-___prod>.att_src f4 [1, 1, 8]
0.5417403 0.621731 -0.2744885 0.6543002 -0.07690017 0.0814298 -0.49535826 0.54545826
00000000: 7eaf 0a3f c329 1f3f c289 8cbe 3880 273f
00000010: d67d 9dbd abc4 a63d 999f fdbe 27a3 0b3f

encoder.lstm_cells.0.conv_z.convs.<inj___-___prod>.att_dst f4 [1, 1, 8]
0.6835646 -0.5785833 0.7285026 0.17547031 0.62132716 0.12944774 0.40973073 -0.14322926
00000000: 17fe 2e3f 091e 14bf 257f 3a3f 7dae 333e
00000010: 4c0f 1f3f f38d 043e 3ac8 d13e b1aa 12be

encoder.lstm_cells.0.conv_z.convs.<inj___-___prod>.bias f4 [8]
-0.2205454 -0.31838164 -0.23171787 -0.118552856 -0.21683554 -0.06990192 0.45033574 -0.02048715
00000000: a7d6 61be eb02 a3be 7347 6dbe d7cb f2bd
00000010: 230a 5ebe bd28 8fbd 6892 e63e abd4 a7bc

encoder.lstm_cells.0.conv_z.convs.<inj___-___prod>.lin_src.weight f4 [8, 8]
-0.01848079 -0.39881974 -0.29824856 -0.2031588 0.13309568 0.4718917 0.4891069 0.28541282
-0.34056637 -0.43867016 -0.27714023 -0.05685709 0.091653004 -0.52618116 0.22615704 -0.49734604
-0.20337728 -0.6863483 0.33851776 -0.37900355 0.671 0.17867805 0.11770605 0.17556892
-0.00334745 0.3337209 0.37703758 -0.4768778 0.3090167 0.1790914 0.20214315 0.004653313
0.23383692 -0.32948735 -0.14297004 0.48630312 0.47781026 0.041572835 -0.5061081 -0.024576867
-0.53931975 0.5981242 -0.26565364 -0.033935033 -0.35470238 -0.10444835 0.39860192 0.25790885
0.18909869 0.6113581 0.68536615 -0.1374389 -0.2531269 0.20365068 -0.25701788 0.32797182
-0.13310899 -0.44825748 0.14369209 0.13750091 0.2882384 0.60314137 0.41740948 0.59707814
00000000: 0765 97bc 1a32 ccbe 09b4 98be dc08 50be
00000010: 3c4a 083e ca9b f13e 386c fa3e a121 923e
00000020: b75e aebe 6099 e0be 53e5 8dbe fbe2 68bd
00000030: 92b4 bb3d cfb3 06bf b695 673e 24a4 febe
00000040: 2242 50be 86b4 2fbf 3352 ad3e c10c c2be
00000050: a8c6 2b3f 61f7 363e df0f f13d 57c8 333e
00000060: e460 5bbb 77dd aa3e 120b c13e 5429 f4be
00000070: 7037 9e3e bc63 373e 9dfe 4e3e d27a 983b
00000080: f272 6f3e 91b2 a8be bd66 12be b9fc f83e
00000090: 8ca3 f43e 4748 2a3d 4d90 01bf 6d55 c9bc
000000a0: dc10 0abf ab1e 193f c103 88be 76ff 0abd
000000b0: 8d9b b5be 04e9 d5bd 8d15 cc3e a10c 843e
000000c0: 16a3 413e f781 1c3f 2874 2f3f c8bc 0cbe
000000d0: d999 81be ce89 503e d997 83be eceb a73e
000000e0: b94d 08be 0182 e5be 0524 133e 0acd 0c3e
000000f0: fc93 933e 7967 1a3f b2b6 d53e 1dda 183f

encoder.lstm_cells.0.conv_z.convs.<inj___-___prod>.lin_dst.weight f4 [8, 8]
0.022445574 -0.5417181 -0.47065535 -0.35443196 -0.50907433 -0.2770212 -0.5348763 -0.5359035
-0.3556498 -0.58876985 -0.33483183 0.20742257 0.4801259 -0.21213521 -0.207017 0.2978565
-0.31246665 -0.30477783 0.33537284 -0.5064202 0.10645453 0.57187474 0.13478382 0.19652504
-0.36708915 -0.024207858 -0.009419586 0.17838432 0.2711134 0.5645727 -0.436138 0.049863387
-0.31631684 -0.49968293 -0.0910282 -0.51186216 0.45902935 0.10191114 -0.3001974 0.35008276
-0.59008616 -0.25280923 -0.16268966 -0.49220842 -0.35576406 -0.06704993 0.49637407 0.62329006
0.37947246 -0.38070542 -0.44219324 0.5613795 0.24793889 0.046944764 0.11240409 -0.46239284
-0.19409414 0.6054409 -0.10737332 -0.05964961 -0.5425151 -0.37587628 -0.044584833 -0.41269448
00000000: c8df b73c 0aae 0abf bdf9 f0be 1b78 b5be
00000010: b252 02bf b9d5 8dbe a7ed 08bf f930 09bf
00000020: bb17 b6be 9fb9 16bf 146f abbe 9566 543e
00000030: 10d3 f53e f939 59be 44fc 53be a680 983e
00000040: a1fb 9fbe d70b 9cbe fdb5 ab3e c1a4 01bf
00000050: d504 da3d 6266 123f c504 0a3e dc3d 493e
00000060: 1cf3 bbbe 8f4f c6bc 9b54 1abc 61aa 363e
00000070: 60cf 8a3e d687 103f 7b4d dfbe 8d3d 4c3d
00000080: 48f4 a1be 71d6 ffbe fe6c babd 6609 03bf
00000090: e505 eb3e cab6 d03d 79b3 99be 0c3e b33e
000000a0: e30f 17bf 3670 81be 1e98 26be be02 fcbe
000000b0: b526 b6be 7951 89bd be24 fe3e f08f 1f3f
000000c0: 374a c23e d2eb c2be 2767 e2be 91b6 0f3f
000000d0: b1e3 7d3e 2749 403d 1e34 e63d c1be ecbe
000000e0: 9dc0 46be 2dfe 1a3f 8be6 dbbd 2653 74bd
000000f0: 45e2 0abf db72 c0be 969e 36bd b14c d3be

encoder.lstm_cells.0.conv_z.convs.<prod___-___prod>.att_src f4 [1, 1, 8]
0.5681209 0.09251815 -0.5186332 0.31553984 -0.4791393 0.029464742 -0.4439377 0.45828396
00000000: 5f70 113f 287a bd3d 25c5 04bf 708e a13e
00000010: bf51 f5be 0b60 f13c cd4b e3be 32a4 ea3e

encoder.lstm_cells.0.conv_z.convs.<prod___-___prod>.att_dst f4 [1, 1, 8]
-0.72105885 -0.43269622 -0.10810994 -0.4962732 0.11954346 -0.6405179 0.7947987 -0.60072887
00000000: 5097 38bf 5c8a ddbe bf68 ddbd 8517 febe
00000010: 34d3 f43d fbf8 23bf ed77 4b3f 5ec9 19bf

encoder.lstm_cells.0.conv_z.convs.<prod___-___prod>.bias f4 [8]
-0.2205454 -0.31838164 -0.23171787 -0.118552856 -0.21683554 -0.06990192 0.45033574 -0.02048715
00000000: a7d6 61be eb02 a3be 7347 6dbe d7cb f2bd
00000010: 230a 5ebe bd28 8fbd 6892 e63e abd4 a7bc

encoder.lstm_cells.0.conv_z.convs.<prod___-___prod>.lin_src.weight f4 [8, 8]
-0.17967652 0.11616239 -0.45709783 -0.03172567 -0.13456835 -0.053228743 0.46257055 0.7167589
-0.1963794 -0.3015125 -0.47249997 -0.5953353 -0.21152934 0.17257954 0.42652985 -0.25933766
0.36858895 0.1897537 -0.8005333 -0.26749718 0.42985162 0.10065987 0.13722187 -0.048181683
0.471964 -0.4166745 0.57285166 -0.004714242 0.24846534 0.60596657 -0.0016545733 -0.2227847
-0.2263768 0.37202865 -0.59121805 0.17663263 -0.39195433 0.49657813 0.3636888 0.20950069
0.20003861 -0.049714617 0.2685862 -0.38561848 -0.070778996 0.29354477 0.63840204 0.34052154
-0.62690485 0.3076124 -0.5317737 0.20000346 -0.99441487 -0.55488205 -0.01368597 -0.34359866
-0.45734772 -0.035456 -0.16837789 0.65613973 -0.49509522 -0.10342651 -0.56297636 -0.19431455
00000000: 1ffd 37be 8ce6 ed3d ba08 eabe c7f2 01bd
00000010: 49cc 09be 6206 5abd 0cd6 ec3e 837d 373f
00000020: ae17 49be d95f 9abe 84eb f1be e567 18bf
00000030: 269b 58be b1b8 303e 1f62 da3e e8c7 84be
00000040: b1b7 bc3e cb4e 423e c0ef 4cbf 64f5 88be
00000050: 8315 dc3e c326 ce3d e483 0c3e 285a 45bd
00000060: 44a5 f13e 5c56 d5be 68a6 123f ee79 9abb
00000070: b36d 7e3e a020 1b3f 44de d8ba ac21 64be
00000080: 52cf 67be 8a7a be3e 115a 17bf 2fdf 343e
00000090: 3dae c8be 7d3f fe3e 6b35 ba3e 5987 563e
000000a0: ecd6 4c3e 8ea1 4bbd 2184 893e c96f c5be
000000b0: 94f4 90bd 804b 963e 516e 233f d758 ae3e
000000c0: d67c 20bf 5f7f 9d3e 5222 08bf b5cd 4c3e
000000d0: f991 7ebf c00c 0ebf 1e3b 60bc 2aec afbe
000000e0: 7b29 eabe 503a 11bd 416b 2cbe c6f8 273f
000000f0: 1f7d fdbe 47d1 d3bd 381f 10bf 65fa 46be

encoder.lstm_cells.0.conv_z.convs.<prod___-___prod>.lin_dst.weight f4 [8, 8]
0.12853399 0.5718035 0.21494578 0.6245795 0.13929208 0.32687476 0.5541882 0.54022515
-0.41093937 0.5429824 0.48696518 -0.26746064 -0.27804008 -0.5454716 0.21577036 -0.46872988
0.20510502 0.17770208 -0.4349627 0.19440682 -0.034892507 0.2569996 0.40738398 -0.5822229
0.4967439 0.49472892 0.356426 -0.53781813 -0.20337695 -0.20692779 -0.09620934 0.3727908
0.28910688 0.50534934 -0.334648 0.18855165 0.19142719 -0.48996204 -0.662498 -0.3497922
0.3585809 -0.59459865 -0.42577854 0.36737344 0.34799126 0.47813386 -0.4019246 -0.42040798
0.37976506 0.55186963 0.25395727 0.0740418 0.18300983 0.6085328 -0.4583741 -0.30671933
0.36766168 -0.43657568 -0.23112544 0.47306517 0.21321483 0.17396994 -0.1978249 0.02003333
00000000: 6a9e 033e b761 123f bf1a 5c3e 71e4 1f3f
00000010: 95a2 0e3e 215c a73e 47df 0d3f 324c 0a3f
00000020: a566 d2be e500 0b3f 8053 f93e 9af0 88be
00000030: 455b 8ebe 07a4 0bbf e8f2 5c3e 5dfd efbe
00000040: 0d07 523e 89f7 353e 6eb3 debe 9512 473e
00000050: 72eb 0ebd 7495 833e a294 d03e 8f0c 15bf
00000060: 3755 fe3e 1c4d fd3e 787d b63e 73ae 09bf
00000070: 0c42 50be e1e4 53be 6709 c5bd 70de be3e
00000080: d105 943e 935e 013f fc56 abbe af13 413e
00000090: 7d05 443e 4edc fabe 7899 29bf f717 b3be
000000a0: ea97 b73e 9e37 18bf a5ff d9be 5f18 bc3e
000000b0: e92b b23e f6cd f43e 10c9 cdbe b73f d7be
000000c0: 9170 c23e 5447 0d3f b006 823e 3aa3 973d
000000d0: ee66 3b3e cec8 1b3f 03b0 eabe 510a 9dbe
000000e0: 273e bc3e d986 dfbe 26ac 6cbe 9935 f23e
000000f0: fd54 5a3e 2d25 323e 9c92 4abe f01c a43c

encoder.lstm_cells.0.conv_z.convs.<inj___-___inj>.att_src f4 [1, 1, 8]
0.71293443 0.20974156 -0.2500839 0.44338176 0.21639742 0.7334982 0.0039657406 -0.26802126
00000000: df82 363f 7ec6 563e ff0a 80be ef02 e33e
00000010: 4997 5d3e 8ac6 3b3f 0bf3 813b 153a 89be

encoder.lstm_cells.0.conv_z.convs.<inj___-___inj>.att_dst f4 [1, 1, 8]
0.21929401 -0.22115153 0.34583074 0.7318605 0.46769866 -0.35264537 0.4720806 0.14799729
00000000: 9c8e 603e 8c75 62be ba10 b13e 365b 3b3f
00000010: 3376 ef3e ef8d b4be 8cb4 f13e 9a8c 173e

encoder.lstm_cells.0.conv_z.convs.<inj___-___inj>.bias f4 [8]
0.19958307 -0.077246346 0.10586985 0.00748105 -0.19116078 -0.14655505 0.21775378 -0.014080904
00000000: 815f 4c3e 5533 9ebd 4bd2 d83d 9923 f53b
00000010: a7bf 43be 8712 16be d9fa 5e3e 98b3 66bc

encoder.lstm_cells.0.conv_z.convs.<inj___-___inj>.lin_src.weight f4 [8, 8]
0.45590615 -0.28137392 0.12762111 0.2526467 -0.5693066 0.4658393 -0.44440088 -0.015160184
-0.16358276 -0.45282266 -0.61194354 0.3715668 0.1535053 -0.5821428 -0.39507705 0.60928875
0.31760418 0.17040187 -0.44592562 -0.25980452 -0.00988814 -0.030350357 -0.3070806 -0.063792035
0.054385785 -0.08194584 0.09499774 -0.21121395 0.12905076 0.20674409 -0.36122105 -0.5781174
0.41998327 0.0536746 -0.41441077 0.58207893 -0.16736789 0.51733625 0.40226665 -0.59990704
0.49164757 -0.63117313 -0.44613898 -0.17789882 -0.29279912 0.7064409 -0.018622346 0.13762192
-0.5852542 0.39296144 -0.14392051 -0.47803813 0.024347525 0.24126537 0.45577934 -0.3126993
-0.22836508 0.051238164 0.10802419 0.2594319 0.39657795 -0.0739833 0.3946552 0.38011003
00000000: 886c e93e 3e10 90be 1caf 023e e95a 813e
00000010: 14be 11bf 7d82 ee3e 8388 e3be 6c62 78bc
00000020: 3d82 27be 5fd8 e7be 55a8 1cbf 013e be3e
00000030: 7e30 1d3e 4f07 15bf 8a47 cabe 59fa 1b3f
00000040: 049d a23e d47d 2e3e 5d50 e4be 1905 85be
00000050: dd01 22bc 50a1 f8bc ab39 9dbe 66a5 82bd
00000060: a1c3 5e3d 38d3 a7bd 2d8e c23d 7848 58be
00000070: e225 043e b9b4 533e f7f1 b8be 80ff 13bf
00000080: 0c08 d73e e6d9 5b3d a62d d4be 2003 153f
00000090: 7d62 2bbe 2670 043f e5f5 cd3e 8293 19bf
000000a0: 3bb9 fb3e 9094 21bf 546c e4be 1c2b 36be
000000b0: c4e9 95be 50d9 343f e48d 98bc c3ec 0c3e
000000c0: 38d3 15bf 3e32 c93e e65f 13be 6ac1 f4be
000000d0: 7674 c73c 450e 773e e95b e93e 1f1a a0be
000000e0: 89d8 69be 1cdf 513d c93b dd3d 42d4 843e
000000f0: 440c cb3e 8e84 97bd 3f10 ca3e c89d c23e

encoder.lstm_cells.0.conv_z.convs.<inj___-___inj>.lin_dst.weight f4 [8, 8]
-0.16047646 0.43594965 0.29977322 0.53822553 -0.34752223 -0.3026878 -0.17646694 0.030968135
0.36806324 -0.34985623 0.3060004 -0.21752553 0.36946476 -0.028775873 -0.53709066 -0.33685967
-0.44401318 0.3041509 -0.40971762 -0.05375793 0.13266952 -0.33637655 0.17745045 -0.5980008
-0.43983197 -0.5539336 -0.18338 -0.22770639 0.08806824 -0.11475823 0.28896812 0.5616367
0.21862589 -0.24065846 -0.5722009 0.21837765 -0.30285534 0.31078738 0.4103089 0.23619436
0.5754203 0.58117914 0.12873325 -0.44340193 0.54655993 -0.29000342 -0.29007632 0.51249033
0.47337496 0.18563296 0.03961212 -0.51854736 -0.0630223 0.5864957 0.15689169 0.052426696
-0.1275091 -0.21340086 0.3653841 0.036374193 0.39876992 -0.10856753 0.2679884 0.25268614
00000000: f153 24be cb34 df3e e07b 993e 26c9 093f
00000010: 6fee b1be e5f9 9abe c0b3 34be e3b0 fd3c
00000020: c972 bc3e 5b20 b3be 16ac 9c3e 03bf 5ebe
00000030: 7c2a bd3e 61bb ebbc c67e 09bf df78 acbe
00000040: b255 e3be abb9 9b3e 82c6 d1be 4631 5cbd
00000050: 85da 073e 8c39 acbe 92b5 353e 9516 19bf
00000060: a831 e1be 98ce 0dbf f7c7 3bbe dd2b 69be
00000070: 1f5d b43d 5d06 ebbd a1f3 933e 6cc7 0f3f
00000080: 77df 5f3e 2c6f 76be c27b 12bf 649e 5f3e
00000090: db0f 9bbe 861f 9f3e 0214 d23e efdc 713e
000000a0: bf4e 133f 28c8 143f a6d2 033e 9405 e3be
000000b0: 5aeb 0b3f 547b 94be e284 94be 9132 033f
000000c0: 345e f23e 9116 3e3e 5140 223d 85bf 04bf
000000d0: d611 81bd 9524 163f 37a8 203e 60bd 563d
000000e0: bf91 02be c185 5abe a013 bb3e 1bfd 143d
000000f0: 922b cc3e a758 debd c735 893e 1460 813e

encoder.lstm_cells.0.W_z.inj f4 [1, 8]
-0.24110632 0.0141249355 0.54559636 0.570568 0.6019764 -0.52463573 0.37365666 -0.25207424
00000000: 93e4 76be 466c 673c 34ac 0b3f bf10 123f
00000010: 201b 1a3f 874e 06bf ed4f bf3e e00f 81be

encoder.lstm_cells.0.W_z.prod f4 [1, 8]
-0.2070158 -0.4694081 0.5099996 -0.61381966 0.368714 0.40486848 0.77226776 -0.37826613
00000000: f3fb 53be 4256 f0be 558f 023f 4923 1dbf
00000010: 15c8 bc3e ec4a cf3e 57b3 453f 19ac c1be

encoder.lstm_cells.0.b_z.inj f4 [1, 8]
0.7214917 0.6244497 0.025038732 -0.1753295 -0.1792462 -0.19530694 0.41404828 0.21472873
00000000: aeb3 383f efdb 1f3f 071e cd3c 9489 33be
00000010: 518c 37be 8bfe 47be 23fe d33e d9e1 5b3e

encoder.lstm_cells.0.b_z.prod f4 [1, 8]
-0.9621348 -0.61969995 0.4558778 0.19951786 -0.25744584 -0.5621723 -0.049201462 -0.75187725
00000000: 774e 76bf a8a4 1ebf d168 e93e 694e 4c3e
00000010: f1cf 83be 86ea 0fbf 7987 49bd 077b 40bf

encoder.lstm_cells.0.conv_r.convs.<inj___-___prod>.att_src f4 [1, 1, 8]
0.16431615 -0.44858727 -1.0557727 -0.16462538 -0.8392278 0.8314731 0.082047455 0.12699826
00000000: 7e42 283e 3bad e5be 8f23 87bf 8e93 28be
00000010: a2d7 56bf 6cdb 543f 7f08 a83d d50b 023e

encoder.lstm_cells.0.conv_r.convs.<inj___-___prod>.att_dst f4 [1, 1, 8]
0.18502735 -0.12248111 0.59706676 -0.699536 0.14180678 -0.5267587 0.33583918 -0.28771445
00000000: cf77 3d3e 60d7 fabd 5ed9 183f cb14 33bf
00000010: cc35 113e a8d9 06bf 1df3 ab3e 4f4f 93be

encoder.lstm_cells.0.conv_r.convs.<inj___-___prod>.bias f4 [8]
0.010067508 0.19900963 -0.06903582 0.28501084 -0.2520944 -0.12419234 -0.2645229 -0.07167729
00000000: 30f2 243c 2ec9 4b3e a762 8dbd f1ec 913e
00000010: 8412 81be 8e58 febd 8c6f 87be 8bcb 92bd

encoder.lstm_cells.0.conv_r.convs.<inj___-___prod>.lin_src.weight f4 [8, 8]
0.2726639 0.21421829 0.20650345 0.7523268 0.64258915 0.005987882 -0.38872766 -0.025145527
-0.28542206 0.11551611 0.20198171 -0.098360196 0.13890983 -0.10101096 -0.50967216 0.048142243
-0.09022631 -0.31457838 0.49198443 0.36605012 0.52418 -0.065139934 0.05995386 0.41530374
-0.562086 -0.07253133 -0.0021081767 -0.016704004 -0.6656026 0.31417713 0.25756913 0.53878164
0.7499139 -0.42565295 -0.26480636 0.5062919 0.05320379 0.01565833 -0.4354068 0.08000092
-0.22029375 -0.11380769 0.44865027 -0.059515383 -0.054871693 0.50188506 -0.12483877 -0.1561161
0.67148775 -0.32258007 -0.56588554 -0.4686192 0.011370631 -0.1140217 -0.15663424 0.06776046
0.23415135 -0.31138757 -0.5769075 -0.14360693 -0.18878391 -0.1314297 -0.51628584 0.10407328
00000000: 9a9a 8b3e 0a5c 5b3e a475 533e 7d98 403f
00000010: b980 243f ff35 c43b 5007 c7be fefd cdbc
00000020: d722 92be b693 ec3d 4bd4 4e3e 1271 c9bd
00000030: 613e 0e3e d6de cebd e079 02bf cd30 453d
00000040: 92c8 b8bd 6b10 a1be 62e5 fb3e ec6a bb3e
00000050: a930 063f 1668 85bd 2e92 753d b1a2 d43e
00000060: dee4 0fbf 4e8b 94bd 5629 0abb d6d6 88bc
00000070: ef64 2abf d3db a03e 1ae0 833e 98ed 093f
00000080: 5bfa 3f3f 2fef d9be b394 87be 599c 013f
00000090: 38ec 593d e645 803c a4ed debe 86d7 a33d
000000a0: af94 61be 0214 e9bd 7db5 e53e 67c6 73bd
000000b0: 24c1 60bd 8a7b 003f 78ab ffbd e6dc 1fbe
000000c0: 9fe6 2b3f 3729 a5be e0dd 10bf dbee efbe
000000d0: e24b 3a3c 3684 e9bd ba64 20be ffc5 8a3d
000000e0: 5fc5 6f3e 316e 9fbe 36b0 13bf b20d 13be
000000f0: 9250 41be 8295 06be 4f2b 04bf 5f24 d53d

encoder.lstm_cells.0.conv_r.convs.<inj___-___prod>.lin_dst.weight f4 [8, 8]
-0.3771152 -0.3972958 -0.4174963 0.36330748 -0.4369692 -0.3122454 0.41581833 0.25430202
0.22864085 -0.7110193 -0.5636994 -0.37355846 0.6146009 0.16132604 -0.35616198 0.11617279
-0.3975297 -0.049091566 -0.08099219 0.6448049 0.117895015 -0.16909048 0.03635117 -0.25131655
0.15555726 0.14993219 0.07097297 -0.35837597 0.5996427 -0.021229107 -0.16645262 0.46376085
0.6025768 0.7199957 0.2902982 -0.0771866 0.21976244 0.44455642 -0.6851376 -0.1704719
-0.4949842 0.02969384 0.16602664 -0.24242307 0.019799106 0.33742952 -0.036966965 -0.44064593
0.57701886 -0.21373348 0.02815231 0.17892513 -0.11582445 -0.64503115 0.207369 -0.36024308
-0.3940531 0.06289449 -0.40616262 -0.40145877 -0.13704003 -0.16997276 -0.1920865 -0.09343439
00000000: 3e15 c1be 5b6a cbbe 13c2 d5be 7003 ba3e
00000010: 6dba dfbe a1de 9fbe 24e6 d43e e033 823e
00000020: d420 6a3e 5c05 36bf 9b4e 10bf 0e43 bfbe
00000030: 7c56 1d3f a732 253e dd5a b6be 00ec ed3d
00000040: 0389 cbbe 3d14 49bd 3cdf a5bd ef11 253f
00000050: f172 f13d 0e26 2dbe f7e4 143d 90ac 80be
00000060: 674a 1f3e d387 193e 475a 913d 0e7d b7be
00000070: 2f82 193f aae8 adbc 8e72 2abe 1072 ed3e
00000080: 7942 1a3f a351 383f f7a1 943e 0214 9ebd
00000090: 6809 613e e69c e33e 2e65 2fbf 3090 2ebe
000000a0: 926e fdbe 7f40 f33c e302 2a3e c13d 78be
000000b0: bc31 a23c 90c3 ac3e ac6a 17bd 589c e1be
000000c0: 82b7 133f f3dc 5abe ac9f e63c 2638 373e
000000d0: 5f35 edbd c320 25bf 8a58 543e c871 b8be
000000e0: 54c1 c9be d4ce 803d 8cf4 cfbe 018c cdbe
000000f0: 3954 0cbe 570d 2ebe 53b2 44be 885a bfbd

encoder.lstm_cells.0.conv_r.convs.<prod___-___prod>.att_src f4 [1, 1, 8]
0.22771104 -0.11499041 0.8269053 -0.38831493 -0.6694276 -0.8997274 0.6586741 0.0626284
00000000: 152d 693e 1880 ebbd 11b0 533f 37d1 c6be
00000010: 9b5f 2bbf 8954 66bf de9e 283f 5243 803d

encoder.lstm_cells.0.conv_r.convs.<prod___-___prod>.att_dst f4 [1, 1, 8]
0.8903942 -0.76740175 -0.92882615 -0.79587036 -0.46671304 0.28818217 0.19818662 0.6448153
00000000: e0f0 633f 7174 44bf 8dc7 6dbf 29be 4bbf
00000010: 03f5 eebe 9d8c 933e 6ff1 4a3e 9e12 253f

encoder.lstm_cells.0.conv_r.convs.<prod___-___prod>.bias f4 [8]
0.010067508 0.19900963 -0.06903582 0.28501084 -0.2520944 -0.12419234 -0.2645229 -0.07167729
00000000: 30f2 243c 2ec9 4b3e a762 8dbd f1ec 913e
00000010: 8412 81be 8e58 febd 8c6f 87be 8bcb 92bd

encoder.lstm_cells.0.conv_r.convs.<prod___-___prod>.lin_src.weight f4 [8, 8]
0.21041918 -0.42087004 -0.27726465 -0.10661154 0.053518236 0.32350135 -0.44973886 0.166678
0.5929701 0.63881904 -0.28694934 -0.3654785 -0.78153217 -0.66523117 0.120056935 -0.35259438
0.24303968 -0.3756373 0.09738769 -0.49563754 0.396672 -0.24697638 -0.0883457 -0.46130025
0.009219894 0.6032749 0.2918567 0.014410871 -0.29111806 -0.3260879 -0.7900841 0.18899843
0.0789358 0.18560527 -0.12398048 -0.43126106 0.35199073 0.50388616 0.39582518 -0.031528834
0.61189616 -0.09619362 -0.3059317 -0.3802687 0.75651133 0.12980628 0.061583217 -0.10311204
0.0021936607 -0.34119767 -0.2861266 0.113557726 0.79997504 0.8598908 -0.1708182 0.6047157
-0.47345173 0.24142237 0.30067775 0.46110907 0.53096586 0.4628024 0.09512814 0.37425947
00000000: 2078 573e 477c d7be a2f5 8dbe 2757 dabd
00000010: f035 5b3d f8a1 a53e 2c44 e6be a3ad 2a3e
00000020: e3cc 173f a589 233f 06eb 92be ff1f bbbe
00000030: 7e12 48bf 974c 2abf 69e0 f53d 4087 b4be
00000040: 65df 783e 8853 c0be 3273 c73d 34c4 fdbe
00000050: 9818 cb3e 60e7 7cbe 97ee b4bd 8c2f ecbe
00000060: 0a0f 173c 3970 1a3f 3e6e 953e 931b 6c3c
00000070: 6d0d 95be fef4 a6be f442 4abf ce88 413e
00000080: 18a9 a13d 4f0f 3e3e 7ae9 fdbd 40ce dcbe
00000090: 2138 b43e affe 003f 99a9 ca3e 6124 01bd
000000a0: 3aa5 1c3f 2901 c5bd 14a3 9cbe 94b2 c2be
000000b0: baaa 413f f0eb 043e af3e 7c3d 682c d3bd
000000c0: 85c3 0f3b 76b1 aebe 307f 92be f490 e83d
000000d0: 2acb 4c3f ce21 5c3f f7ea 2ebe a6ce 1a3f
000000e0: 4468 f2be 6d37 773e 6ff2 993e 7d16 ec3e
000000f0: 61ed 073f 70f4 ec3e 8bd2 c23d f09e bf3e

encoder.lstm_cells.0.conv_r.convs.<prod___-___prod>.lin_dst.weight f4 [8, 8]
-0.20290703 0.22513472 -0.25135466 -0.05408933 -0.61235476 -0.2922938 -0.3674056 -0.28652278
-0.41183028 -0.5094676 0.092235565 0.44258526 0.6323079 0.48486418 -0.27725574 -0.5313855
0.21565393 0.38364694 -0.4720769 0.26440874 0.59721595 0.16978098 -0.32415998 0.58211595
0.24500895 0.44542304 -0.36064413 0.40268564 -0.33631316 0.7417628 -0.21436264 0.45106566
0.10058478 0.2004112 -0.044676162 0.29712662 -0.1861867 -0.4575662 -0.1999877 0.54797494
-0.15054671 0.14821264 -0.2845636 0.4256342 0.28952062 0.09252104 -0.35735863 -0.5760752
0.049344104 -0.39359435 0.4591044 -0.637477 0.21003485 0.498667 0.2776125 0.14793816
-0.5675477 0.5502985 -0.15443231 -0.6181795 0.5338418 -0.3718496 -0.07961038 0.49032745
00000000: dcc6 4fbe b789 663e 8fb1 80be c68c 5dbd
00000010: 48c3 1cbf 88a7 95be 961c bcbe 1db3 92be
00000020: 6bdb d2be 786c 02bf 00e6 bc3d 899a e23e
00000030: eede 213f 1e40 f83e 77f4 8dbe e108 08bf
00000040: 62d4 5c3e 5f6d c43e 10b4 f1be 9560 873e
00000050: 25e3 183f 11db 2d3e 4cf8 a5be 8d05 153f
00000060: a0e3 7a3e 7d0e e43e 59a6 b8be d02c ce3e
00000070: 3d31 acbe 2be4 3d3f e181 5bbe 14f2 e63e
00000080: 65ff cd3d 9838 4d3e 5afe 36bd fb20 983e
00000090: baa7 3ebe 1e46 eabe 93c9 4cbe 1648 0c3f
000000a0: eb28 1abe 0ec5 173e 52b2 91be baec d93e
000000b0: 0c3c 943e ac7b bd3d b6f7 b6be aa79 13bf
000000c0: 0b1d 4a3d 3385 c9be bb0f eb3e b131 23bf
000000d0: 6013 573e 4851 ff3e 3a23 8e3e 1a7d 173e
000000e0: ce4a 11bf 5de0 0c3f 8123 1ebe 0341 1ebf
000000f0: dba9 083f 1263 bebe c40a a3bd 330c fb3e

encoder.lstm_cells.0.conv_r.convs.<inj___-___inj>.att_src f4 [1, 1, 8]
-0.3160901 -0.56166035 0.46411514 -0.43397793 0.3708535 -0.29305014 0.3224076 -0.70666015
00000000: 90d6 a1be f9c8 0fbf 80a0 ed3e 5b32 debe
00000010: 83e0 bd3e ab0a 96be 9c12 a53e aee7 34bf

encoder.lstm_cells.0.conv_r.convs.<inj___-___inj>.att_dst f4 [1, 1, 8]
-0.38901046 0.2880403 0.20982133 -0.18143708 0.52360225 0.52305883 -0.5728499 -0.4683476
00000000: 612c c7be 057a 933e 67db 563e a4ca 39be
00000010: cc0a 063f 2fe7 053f 4ba6 12bf 42cb efbe

encoder.lstm_cells.0.conv_r.convs.<inj___-___inj>.bias f4 [8]
-0.21464927 -0.29526696 0.1492011 -0.2640176 0.37273264 0.3410817 -0.14894584 0.079406954
00000000: 05cd 5bbe 3b2d 97be 2cc8 183e 512d 87be
00000010: d0d6 be3e 43a2 ae3e 4285 18be 1da0 a23d

encoder.lstm_cells.0.conv_r.convs.<inj___-___inj>.lin_src.weight f4 [8, 8]
-0.42806983 -0.53768325 0.070783645 0.16434318 0.10955388 -0.5479718 -0.022792898 -0.24128062
-0.2979824 -0.43719244 0.35474712 -0.08057836 -0.47979295 0.5274528 0.22183302 0.076082386
-0.5361435 0.1859352 0.74598795 0.36148956 -0.6790727 0.36709428 -0.13391767 0.50658035
0.711907 0.41479778 -0.7444226 0.57778996 -0.16570742 0.28460854 -0.18312062 -0.38546032
-0.0810001 -0.09514589 -0.029200684 0.0730914 0.5225181 0.2805474 0.27406862 0.341043
0.35358512 0.097470574 0.14830658 0.10837183 -0.6513084 -0.6098108 -0.034075513 -0.13010594
-0.16553515 -0.021540955 0.24876605 0.36078966 -0.3740405 0.3330395 0.34234306 -0.30188212
-0.5127787 -0.506565 -0.3083581 -0.054437812 -0.12448271 -0.22436816 -0.41536298 -0.11236395
00000000: f82b dbbe 9ca5 09bf 04f7 903d 9449 283e
00000010: c95d e03d e147 0cbf 2cb8 babc 4412 77be
00000020: 2691 98be b0d7 dfbe 6aa1 b53e 4406 a5bd
00000030: 6ca7 f5be 2607 073f 3228 633e 15d1 9b3d
00000040: b340 09bf cc65 3e3e 11f9 3e3f 2915 b93e
00000050: b5d7 2dbf c8f3 bb3e b721 09be 40af 013f
00000060: 8a3f 363f 6060 d43e 7b92 3ebf 0bea 133f
00000070: 35af 29be 36b8 913e f983 3bbe 0e5b c5be
00000080: 61e3 a5bd d9db c2bd 4636 efbc f2b0 953d
00000090: bfc3 053f e9a3 8f3e b952 8c3e 309d ae3e
000000a0: 1c09 b53e a79e c73d aedd 173e 0df2 dd3d
000000b0: 26bc 26bf 901c 1cbf c492 0bbd 7e3a 05be
000000c0: 0c82 29be a876 b0bc 87bc 7e3e 6cb9 b83e
000000d0: 3d82 bfbe 2784 aa3e 9747 af3e 4b90 9abe
000000e0: 7745 03bf 3eae 01bf 1de1 9dbe 2ffa 5ebd
000000f0: cbf0 febd c4c0 65be 75aa d4be 121f e6bd

encoder.lstm_cells.0.conv_r.convs.<inj___-___inj>.lin_dst.weight f4 [8, 8]
-0.25488883 0.63663334 -0.19070502 -0.407208 0.22045037 -0.06933106 0.43328965 0.41700074
0.59742266 -0.48402652 0.35605615 0.48098093 -0.2663494 0.59872496 0.49622384 -0.029459499
0.33011267 -0.24830244 -0.5717159 0.12171994 0.21899681 -0.36398715 0.33431906 -0.5595796
0.49470517 0.62578994 0.20181169 -0.35366216 0.26433524 0.07086477 0.13182364 0.23502602
0.50070745 -0.30040163 -0.17515399 0.1347946 0.101775326 0.5287343 -0.28507698 -0.057680123
0.14778371 -0.19920753 0.38113886 0.03599511 -0.5322008 -0.03264114 -0.24236779 0.025334133
-0.104722686 -0.570557 -0.07504607 -0.027544066 -0.21447036 0.5287934 -0.16916397 0.42772636
0.11717423 -0.47999272 0.18131848 0.5398378 -0.43577352 -0.43089637 0.5627623 0.5275429
00000000: ca80 82be 67fa 223f 2d48 43be 917d d0be
00000010: bebd 613e 71fd 8dbd 24d8 dd3e 1f81 d53e
00000020: b1f0 183f 53d2 f7be fe4c b63e 2243 f63e
00000030: f35e 88be 0a46 193f 0d11 fe3e 0c55 f1bc
00000040: 8704 a93e ff42 7ebe f95b 12bf 4e48 f93d
00000050: b340 603e 865c babe de2b ab3e 9c40 0fbf
00000060: ff49 fd3e c533 203f b9a7 4e3e 3513 b5be
00000070: f356 873e 8c21 913d c7fc 063e a9aa 703e
00000080: 5d2e 003f 3ece 99be 915b 33be 9807 0a3e
00000090: 956f d03d 225b 073f 9cf5 91be fe41 6cbd
000000a0: 9d54 173e 0ffd 4bbe a224 c33e 9c6f 133d
000000b0: 503e 08bf b7b2 05bd 432f 78be 8789 cf3c
000000c0: d978 d6bd 0610 12bf c1b1 99bd 18a4 e1bc
000000d0: 1e9e 5bbe 015f 073f 5239 2dbe f3fe da3e
000000e0: 0bf9 ef3d 9bc1 f5be 8dab 393e cf32 0a3f
000000f0: b51d dfbe 739e dcbe 3111 103f 0d0d 073f

encoder.lstm_cells.0.W_r.inj f4 [1, 8]
0.44124788 -0.02806136 0.30740866 -0.94646305 0.2914914 0.11776768 -0.37781128 0.9239952
00000000: 3eeb e13e f0e0 e5bc ab64 9d3e 674b 72bf
00000010: 5c3e 953e 2e30 f13d 7b70 c1be f38a 6c3f

encoder.lstm_cells.0.W_r.prod f4 [1, 8]
0.38006568 -0.114604436 -0.40115306 -0.2864378 0.34534377 -0.48264474 -0.3711236 -0.4222799
00000000: f897 c23e bbb5 eabd ef63 cdbe faa7 92be
00000010: e6d0 b03e 361d f7be ea03 bebe 1235 d8be

encoder.lstm_cells.0.b_r.inj f4 [1, 8]
-0.48079664 -0.01953307 0.66981554 0.11295665 -0.34900433 -0.14992799 -0.27780172 0.8692433
00000000: fa2a f6be d103 a0bc 0879 2b3f d155 e73d
00000010: b2b0 b2be b986 19be 073c 8ebe bb86 5e3f

encoder.lstm_cells.0.b_r.prod f4 [1, 8]
0.12817962 -0.012439332 0.26876125 -0.025977487 -0.7805769 0.4717591 -0.63578457 -0.23535787
00000000: 8541 033e 57ce 4bbc 139b 893e bdce d4bc
00000010: e3d3 47bf 698a f13e c7c2 22bf a701 71be

encoder.lstm_cells.0.conv_n.convs.<inj___-___prod>.att_src f4 [1, 1, 8]
0.61108655 -0.43253654 -0.15731533 -0.9292731 -0.34260082 0.33918038 0.025203379 -0.73100996
00000000: 2b70 1c3f 6e75 ddbe 4517 21be d8e4 6dbf
00000010: 6069 afbe 0da9 ad3e 5177 ce3c 7823 3bbf

encoder.lstm_cells.0.conv_n.convs.<inj___-___prod>.att_dst f4 [1, 1, 8]
-0.05164569 -0.61874634 -0.6071115 -0.47863165 -0.58043134 -0.55295664 0.7549392 0.25499547
00000000: 6e8a 53bd 2966 1ebf a96b 1bbf 350f f5be
00000010: 2697 14bf 918e 0dbf b243 413f c48e 823e

encoder.lstm_cells.0.conv_n.convs.<inj___-___prod>.bias f4 [8]
-0.14847389 -0.19061269 -0.16464067 -0.020766936 -0.20692171 -0.05353254 -0.122296184 -0.10806386
00000000: 8a09 18be f92f 43be 9097 28be 6c1f aabc
00000010: 49e3 53be f044 5bbd 6c76 fabd 9650 ddbd

encoder.lstm_cells.0.conv_n.convs.<inj___-___prod>.lin_src.weight f4 [8, 8]
-0.052680124 0.08716089 -0.38465545 -0.55501485 0.35591456 0.4592507 0.014834746 -0.070968196
-0.21097979 0.13594402 0.17803217 0.15683194 0.49735013 0.5694681 -0.11454093 -0.5311275
-0.09410301 -0.24391747 -0.47536013 0.18665007 0.5889327 -0.41690376 0.45525602 0.09807291
0.475105 0.42301276 0.6708299 -0.16583717 0.34078795 0.3676474 -0.64166397 -0.38626093
0.37428218 0.12003153 -0.630948 -0.10256172 0.28645498 0.39874727 -0.10990168 0.09579453
0.42936862 -0.44803485 -0.08897199 -0.12332001 0.35090306 0.70037436 0.35405284 -0.26545367
0.50342786 -0.13417904 -0.2001031 -0.10785683 -0.2309201 0.2822595 -0.24434757 -0.13305733
-0.024428606 0.1713575 -0.3990764 -0.7292928 0.3171803 0.6122916 -0.44805235 0.16930263
00000000: 1dc7 57bd 6981 b23d 8ff1 c4be 7415 0ebf
00000010: 6f3a b63e e822 eb3e 6f0d 733c c657 91bd
00000020: 160b 58be e934 0b3e 114e 363e 8d98 203e
00000030: ada4 fe3e a9c8 113f 6f94 eabd f9f7 07bf
00000040: 14b9 c0bd 80c5 79be 6762 f3be 3221 3f3e
00000050: 4bc4 163f 6974 d5be 5117 e93e 73da c83d
00000060: f640 f33e 2195 d83e 82bb 2b3f 38d1 29be
00000070: c27b ae3e 483c bc3e 1744 24bf fec3 c5be
00000080: eaa1 bf3e 17d3 f53d cf85 21bf e10b d2bd
00000090: 3aaa 923e 9a28 cc3e 2214 e1bd ec2f c43d
000000a0: 34d6 db3e d364 e5be f236 b6bd 348f fcbd
000000b0: 91a9 b33e bc4b 333f 6a46 b53e 8be9 87be
000000c0: a6e0 003f 3b66 09be d4e7 4cbe 0be4 dcbd
000000d0: 5276 6cbe 5184 903e 4036 7abe 2e40 08be
000000e0: 801e c8bc 5778 2f3e be53 ccbe efb2 3abf
000000f0: 7565 a23e 24bf 1c3f 1e67 e5be ab5d 2d3e

encoder.lstm_cells.0.conv_n.convs.<inj___-___prod>.lin_dst.weight f4 [8, 8]
-0.38497734 0.06255395 0.6194507 0.41015494 -0.41349363 0.44292808 0.38932306 0.07151012
0.72087383 -0.17014335 -0.035767805 -0.27317122 0.09952619 0.18441029 0.027152112 -0.35802674
-0.16617529 0.27211744 -0.44311053 -0.05651212 -0.0057001864 -0.23167963 0.19741946 0.021442415
0.5445437 0.012092919 -0.28900513 0.472141 0.09464768 -0.15726614 -0.42821637 0.1265388
-0.4728316 0.22673053 0.39791712 -0.49911198 -0.3931566 -0.42352563 0.48955008 0.50286686
0.1643503 0.64766306 -0.09964685 -0.5568034 0.2245743 0.23788647 0.57803243 -0.014618852
0.35078588 0.3096775 0.34162906 -0.64176327 0.49202588 -0.54485166 0.5695855 -0.013013872
-0.6663264 0.09710843 -0.2282963 -0.5916732 -0.23172228 0.043610036 0.5015138 -0.1714471
00000000: c01b c5be 491c 803d 5294 1e3f d4ff d13e
00000010: 70b5 d3be 78c7 e23e 5a55 c73e e673 923d
00000020: 308b 383f 0f3a 2ebe 4381 12bd 19dd 8bbe
00000030: 63d4 cb3d 0dd6 3c3e 1b6e de3c 484f b7be
00000040: db29 2abe fa52 8b3e 62df e2be 4179 67bd
00000050: a1c8 babb 6d3d 6dbe 5428 4a3e 01a8 af3c
00000060: 3767 0b3f 6121 463c 7bf8 93be 77bc f13e
00000070: a5d6 c13d 600a 21be 2d3f dbbe 6393 013e
00000080: fc16 f2be 0c2c 683e cbbb cb3e 9b8b ffbe
00000090: d24b c9be 5ad8 d8be 4fa6 fa3e e2bb 003f
000000a0: 724b 283e 3fcd 253f a613 ccbd ab8a 0ebf
000000b0: cef6 653e 8398 733e eff9 133f e983 6fbc
000000c0: 359a b33e 0d8e 9e3e 01ea ae3e 994a 24bf
000000d0: d1ea fb3e 667b 0bbf 5bd0 113f 2338 55bc
000000e0: 5e94 2abf c9e0 c63d 81c6 69be e577 17bf
000000f0: 9b48 6dbe 70a0 323d 3563 003f d48f 2fbe

encoder.lstm_cells.0.conv_n.convs.<prod___-___prod>.att_src f4 [1, 1, 8]
0.330685 -0.96623 -0.38004807 -0.46583602 0.102215424 -0.73777986 -0.42933923 -0.6485419
00000000: 8b4f a93e d95a 77bf a995 c2be 0f82 eebe
00000010: 5256 d13d 24df 3cbf 5ad2 dbbe d806 26bf

encoder.lstm_cells.0.conv_n.convs.<prod___-___prod>.att_dst f4 [1, 1, 8]
0.03611955 -0.5057102 0.11472235 -0.40742773 -0.47945473 -0.65020454 -0.36441684 -0.9877942
00000000: 18f2 133d 3976 01bf 8df3 ea3d 5e9a d0be
00000010: 177b f5be ce73 26bf d894 babe 15e0 7cbf

encoder.lstm_cells.0.conv_n.convs.<prod___-___prod>.bias f4 [8]
-0.14847389 -0.19061269 -0.16464067 -0.020766936 -0.20692171 -0.05353254 -0.122296184 -0.10806386
00000000: 8a09 18be f92f 43be 9097 28be 6c1f aabc
00000010: 49e3 53be f044 5bbd 6c76 fabd 9650 ddbd

encoder.lstm_cells.0.conv_n.convs.<prod___-___prod>.lin_src.weight f4 [8, 8]
0.116691895 -0.24471463 -0.09403202 0.017689733 -0.15276869 -0.3022031 -0.027169304 -0.36690256
-0.34547472 -0.07007018 -0.33529574 -0.4604733 0.13370024 0.17285803 -0.13249478 0.27417767
-0.3482954 -0.12345977 -0.035537094 -0.28306347 0.01959898 0.089195594 -0.30354494 0.14731666
-0.2834794 0.008634607 -0.096227005 0.59913653 0.14462441 -0.5596564 0.1822082 -0.48427442
-0.13500236 -0.2648175 -0.19188818 -0.44825217 0.7730018 0.548307 0.33480126 0.78318524
-0.6985372 -0.050318126 0.34616268 0.4994866 -0.31515837 0.2417864 -0.3854581 -0.01829629
-0.3029895 -0.66285574 -0.55095494 -0.56873477 0.51397973 0.38685048 -0.41777143 -0.07939826
-0.13451347 -0.6899255 0.32809082 0.34593394 0.293359 -0.31638712 0.29739726 0.4028325
00000000: 29fc ee3d 7996 7abe dc93 c0bd 0fea 903c
00000010: 656f 1cbe 5dba 9abe 2992 debc a7da bbbe
00000020: 10e2 b0be f480 8fbd e2ab abbe 28c3 ebbe
00000030: b7e8 083e b201 313e b6ac 07be 0461 8c3e
00000040: c653 b2be 7ad8 fcbd 588f 11bd b2ed 90be
00000050: 0a8e a03c 2eac b63d 3e6a 9bbe 2eda 163e
00000060: 3624 91be 2b78 0d3c aa12 c5bd 0361 193f
00000070: 6c18 143e a445 0fbf c994 3a3e d1f2 f7be
00000080: 0f3e 0abe 2996 87be 567e 44be 4f81 e5be
00000090: 72e3 453f d95d 0c3f 126b ab3e d47e 483f
000000a0: 55d3 32bf 611a 4ebd 3c3c b13e b5bc ff3e
000000b0: 705c a1be db96 773e c45a c5be 1ae2 95bc
000000c0: 7121 9bbe eab0 29bf 620b 0dbf 9a98 11bf
000000d0: 2d94 033f 4411 c63e 23e6 d5be 8e9b a2bd
000000e0: e6bd 09be f59e 30bf 85fb a73e 411e b13e
000000f0: 2733 963e 7efd a1be 7444 983e 1040 ce3e

encoder.lstm_cells.0.conv_n.convs.<prod___-___prod>.lin_dst.weight f4 [8, 8]
0.27794108 -0.4579962 -0.62615496 0.2690224 0.10783863 -0.061652865 -0.1397578 -0.17607579
0.66287464 0.06525991 0.5221413 0.6495864 -0.057956584 -0.05877971 -0.19182995 0.22990647
-0.6151947 0.045343522 -0.16724901 0.106655054 0.27351218 0.12195667 0.19118668 0.69564074
-0.2758107 -0.23902911 -0.07682913 -0.13728324 0.14318329 0.26370946 -0.15787444 0.43921766
-0.13122146 -0.19875138 -0.23472905 -0.32491282 -0.5466007 -0.71752644 -0.6443519 -0.007477176
0.5310486 0.744053 0.59504837 0.069354035 -0.016353361 -0.5544611 0.095561795 -0.7753505
0.45950207 0.27262795 0.265877 0.31052893 -0.3940765 0.35818872 0.16564283 0.23772597
0.24700762 0.5504514 0.4898625 0.37668243 0.33918306 -0.2917217 0.26204038 -0.039514717
00000000: 4b4e 8e3e 7a7e eabe b14b 20bf 4ebd 893e
00000010: 80da dc3d b787 7cbd ab1c 0fbe 364d 34be
00000020: 27b2 293f fda6 853d 0dab 053f 4b4b 263f
00000030: e263 6dbd fec2 70bd 126f 44be 9a6c 6b3e
00000040: 667d 1dbf 21ba 393d 5343 2bbe f76d da3d
00000050: ca09 8c3e 6bc4 f93d 71c6 433e 8315 323f
00000060: 0f37 8dbe 0cc4 74be 9758 9dbd fa93 0cbe
00000070: a49e 123e ed04 873e d6a9 21be 23e1 e03e
00000080: eb5e 06be 7b85 4bbe d05c 70be f95a a6be
00000090: 06ee 0bbf d0af 37bf 3ff4 24bf 1903 f5bb
000000a0: cdf2 073f 427a 3e3f 1755 183f 7d09 8e3d
000000b0: 7cf7 85bc 2af1 0dbf e7b5 c33d 5f7d 46bf
000000c0: db43 eb3e e495 8b3e 0821 883e a6fd 9e3e
000000d0: 65c4 c9be 8364 b73e 469e 293e 706e 733e
000000e0: 91ef 7c3e 62ea 0c3f 42cf fa3e 85dc c03e
000000f0: 67a9 ad3e 8c5c 95be 282a 863e 2fda 21bd

encoder.lstm_cells.0.conv_n.convs.<inj___-___inj>.att_src f4 [1, 1, 8]
0.71881336 -0.21751697 0.6780646 0.19016518 -0.7768311 0.50699896 -0.22049071 -0.37788162
00000000: 2704 383f c5bc 5ebe a495 2d3f a9ba 423e
00000010: 67de 46bf afca 013f 51c8 61be b379 c1be

encoder.lstm_cells.0.conv_n.convs.<inj___-___inj>.att_dst f4 [1, 1, 8]
-0.67838407 -0.81250346 0.23450842 -0.1785284 0.31624058 -0.6709167 0.6053351 -0.5987038
00000000: 94aa 2dbf 3a00 50bf fa22 703e 26d0 36be
00000010: 49ea a13e 32c1 2bbf 3ef7 1a3f a744 19bf

encoder.lstm_cells.0.conv_n.convs.<inj___-___inj>.bias f4 [8]
-0.15136503 -0.061657723 0.28373888 -0.18429211 -0.2814799 -0.23539582 -0.10492503 0.15711613
00000000: 6fff 1abe cf8c 7cbd 3946 913e 12b7 3cbe
00000010: 221e 90be 9a0b 71be efe2 d6bd 0de3 203e

encoder.lstm_cells.0.conv_n.convs.<inj___-___inj>.lin_src.weight f4 [8, 8]
0.5000132 0.47741547 -0.028178034 -0.31972608 0.12565123 0.3328943 0.27209565 -0.3176393
0.30285066 0.5475838 -0.17714998 -0.17590252 -0.26116982 -0.5468828 -0.019597145 -0.019173698
-0.5784941 0.069624275 0.07959902 0.5566055 -0.085216485 0.32499853 -0.08616208 0.4293209
0.37364158 -0.028305449 -0.6438299 -0.32445133 0.037455503 0.16660377 0.389613 0.087197945
0.6520137 -0.06665984 -0.43718013 -0.41498765 -0.19397011 -0.15729514 0.39836985 0.11781786
0.67307156 -0.32994235 -0.22870977 -0.25100064 0.19586465 0.3630617 0.14747751 -0.13552453
0.13895285 0.14704525 -0.3079483 -0.34188333 0.3017924 0.048191216 -0.14943016 0.12824835
-0.15242365 0.099619366 -0.09242254 -0.030641785 -0.77074236 -0.07363198 -0.22023475 0.5846915
00000000: dd00 003f cd6f f43e 9fd5 e6bc 23b3 a3be
00000010: b7aa 003e 1f71 aa3e 1f50 8b3e 9ea1 a2be
00000020: 3e0f 9b3e 742e 0c3f ce66 35be ca1f 34be
00000030: 0db8 85be 8300 0cbf 318a a0bc 2912 9dbc
00000040: 3018 14bf 2c97 8e3d d004 a33d b37d 0e3f
00000050: fb85 aebd 3566 a63e bf75 b0bd f3cf db3e
00000060: f34d bf3e d4e0 e7bc 09d2 24bf 7c1e a6be
00000070: f16a 193d 2e9a 2a3e 5b7b c73e d694 b23d
00000080: 5fea 263f f484 88bd 13d6 dfbe 4379 d4be
00000090: 1aa0 46be fa11 21be 22f7 cb3e 7d4a f13d
000000a0: 6b4e 2c3f 34ee a8be e532 6abe 2883 80be
000000b0: be90 483e 39e3 b93e 5804 173e f1c6 0abe
000000c0: a849 0e3e 0893 163e 66ab 9dbe 550b afbe
000000d0: 8984 9a3e 2764 453d 3804 19be 8953 033e
000000e0: f214 1cbe 3d05 cc3d 0748 bdbd 7b04 fbbc
000000f0: 5f4f 45bf 5dcc 96bd 3885 61be 58ae 153f

encoder.lstm_cells.0.conv_n.convs.<inj___-___inj>.lin_dst.weight f4 [8, 8]
0.04077822 0.04818379 0.16559996 0.46668452 -0.28920838 0.36594585 0.15002649 -0.4090569
0.21459353 -0.36814606 -0.19412233 -0.29107955 -0.4164018 0.4827015 -0.5470431 0.30558196
-0.55172163 -0.07420804 0.037080184 0.43506703 -0.22167669 0.17612138 0.094760664 0.3605227
0.036869384 0.22904822 -0.37037107 -0.425331 0.5457198 -0.44610995 -0.104173295 -0.07418866
0.59809107 -0.13192195 -0.46549043 -0.15559958 0.3157898 0.24249594 0.5064776 -0.12508318
0.28968406 -0.57703644 0.23574176 0.28206345 0.39520466 -0.35080737 -0.16322899 0.14762308
-0.43631557 -0.4864174 -0.5879952 0.033540424 0.38011974 0.15697028 0.037094276 0.21385325
-0.38367075 0.06385264 -0.15325299 -0.3025748 0.52824795 -0.473443 0.08997894 -0.53858197
00000000: 1007 273d 5e5c 453d 0993 293e 46f1 ee3e
00000010: 1f13 94be 415d bb3e 8ba0 193e e86f d1be
00000020: 68be 5b3e a47d bcbe 01c8 46be 6108 95be
00000030: 9e32 d5be a724 f73e 040b 0cbf 3d75 9c3e
00000040: a13d 0dbf 63fa 97bd 64e1 173d 1bc1 de3e
00000050: 37ff 62be 2a59 343e e111 c23d 6e96 b83e
00000060: 5a04 173d 9e8b 6a3e 47a1 bdbe fcc4 d9be
00000070: 4bb4 0b3f 8668 e4be cf58 d5bd 39f0 97bd
00000080: 7f1c 193f 8c16 07be c354 eebe 7f55 1fbe
00000090: 33af a13e db50 783e 84a8 013f ce15 00be
000000a0: 7851 943e a9b8 13bf 4a66 713e 9f6a 903e
000000b0: 4458 ca3e 069d b3be 8025 27be 812a 173e
000000c0: c164 dfbe b40b f9be da86 16bf af61 093d
000000d0: 0e9f c23e d1bc 203e 2bf0 173d 59fc 5a3e
000000e0: 7e70 c4be 2cc5 823d 5aee 1cbe 16eb 9abe
000000f0: 423b 073f 1f67 f2be e146 b83d 82e0 09bf

encoder.lstm_cells.0.W_n.inj f4 [1, 8]
-0.8092217 0.38734913 0.5002864 -0.81736565 -0.081732325 0.17646332 0.06913456 -0.15611717
00000000: 2729 4fbf a052 c63e c512 003f e03e 51bf
00000010: 4763 a7bd cdb2 343e 6c96 8d3d 2edd 1fbe

encoder.lstm_cells.0.W_n.prod f4 [1, 8]
0.72610474 0.7576016 0.6703432 -0.29447234 -0.12418439 -0.05418419 0.12866779 -0.020858074
00000000: 00e2 393f 2ef2 413f 9d9b 2b3f 14c5 96be
00000010: 6354 febd 3ef0 5dbd 7dc1 033e 8dde aabc

encoder.lstm_cells.0.b_n.inj f4 [1, 8]
-0.9636192 0.4848007 0.9023459 0.11327862 -0.85080415 -1.0412309 -0.768067 0.7659794
00000000: bfaf 76bf cc37 f83e 2400 673f 9ffe e73d
00000010: 4dce 59bf 0e47 85bf 0aa0 44bf 3a17 443f

encoder.lstm_cells.0.b_n.prod f4 [1, 8]
0.24353012 0.4964722 0.26309717 0.18588184 -0.21491729 -0.67448264 -0.8218505 -0.8717734
00000000: f65f 793e 9b31 fe3e acb4 863e cf57 3e3e
00000010: 4713 5cbe e5aa 2cbf cb64 52bf 8b2c 5fbf

decoder.lstm_cells.0.conv_z.convs.<inj___-___prod>.att_src f4 [1, 1, 8]
0.5150472 -0.5268992 -0.09317605 -0.32293823 -0.34939578 -0.76102453 -0.67709327 0.12863883
00000000: 22da 033f dee2 06bf 16d3 bebd 2958 a5be
00000010: 01e4 b2be 81d2 42bf fc55 2dbf e6b9 033e

decoder.lstm_cells.0.conv_z.convs.<inj___-___prod>.att_dst f4 [1, 1, 8]
-0.20310718 0.3123505 -0.25470242 -0.6493543 0.021952294 -0.25728196 -0.3936676 -1.006945
00000000: 54fb 4fbe 68ec 9f3e 5b68 82be 153c 26bf
00000010: 4cd5 b33c 76ba 83be cd8e c9be 93e3 80bf

decoder.lstm_cells.0.conv_z.convs.<inj___-___prod>.bias f4 [8]
0.16283096 0.061258018 0.034468506 -0.126678 -0.13772376 -0.30015317 -0.09906081 0.029748052
00000000: 29bd 263e b0e9 7a3d d92e 0d3d e1b7 01be
00000010: 7507 0dbe adad 99be 65e0 cabd 30b2 f33c

decoder.lstm_cells.0.conv_z.convs.<inj___-___prod>.lin_src.weight f4 [8, 8]
-0.20771769 -0.09294058 0.41110986 -0.5240994 0.16294892 -0.71076375 0.16059253 -0.23460649
0.06958633 -0.010838278 0.29090056 -0.21745141 0.092759155 -0.09025292 -0.83081234 0.36083242
-0.64789027 0.67869127 0.34454212 -0.34523174 -0.59360784 -0.057305276 -0.638338 0.58503455
0.65962285 0.063074164 -0.16047345 -0.22615363 0.75373304 0.08935498 0.063363425 -0.26467732
0.70282984 0.22046748 -0.14652039 0.55574083 -0.33178163 0.2282085 -0.34310165 -0.0011420635
-0.36021528 -0.3920638 0.31243533 0.8014362 -0.387844 -0.37083963 0.06167886 0.26583266
0.15933111 -0.44637537 -0.6551148 0.51718235 0.88913184 -0.024757575 0.5594475 0.015575412
0.666169 -0.24198896 -0.14348415 0.6657826 0.5487274 0.7481087 -0.060854774 0.1286546
00000000: f2b3 54be a157 bebd fe7c d23e 612b 06bf
00000010: 15dc 263e 9df4 35bf 5e72 243e af3c 70be
00000020: 4783 8e3d 0893 31bc ebf0 943e 95ab 5ebe
00000030: 83f8 bd3d 86d6 b8bd 1eb0 54bf 07bf b83e
00000040: 23dc 25bf b6be 2d3f d367 b03e 37c2 b0be
00000050: aff6 17bf f0b8 6abd 1f6a 23bf d3c4 153f
00000060: 0bdd 283f 072d 813d 2753 24be d194 67be
00000070: a6f4 403f beff b63d afc4 813d c983 87be
00000080: a8ec 333f 3ac2 613e 7109 16be 0845 0e3f
00000090: 48df a9be 7daf 693e 05ab afbe 4bb1 95ba
000000a0: 236e b8be 96bc c8be 86f7 9f3e ec2a 4d3f
000000b0: 7d93 c6be b1de bdbe f9a2 7c3d 381b 883e
000000c0: b227 233e 508b e4be 9bb5 27bf 1066 043f
000000d0: 259e 633f 66d0 cabc f437 0f3f 0330 7f3c
000000e0: 0d8a 2a3f f4cb 77be 82ed 12be ba70 2a3f
000000f0: 6679 0c3f 0d84 3f3f db42 79bd 08be 033e

decoder.lstm_cells.0.conv_z.convs.<inj___-___prod>.lin_dst.weight f4 [8, 8]
0.22906798 -0.5814767 -0.07925971 -0.02533532 0.34419098 -0.37570718 -0.06692181 0.29925066
-0.3646496 -0.3559063 -0.11685221 0.27337846 0.46144915 -0.31715435 0.22555782 -0.25607863
-0.49983376 0.34489053 0.07774168 -0.048919797 0.03319003 0.008233714 0.01815328 -0.28497902
-0.5788089 0.21923226 -0.13827746 0.37713543 -0.29029217 0.18455921 0.3191333 0.29549423
0.054068282 0.53588134 -0.10019606 0.2406055 0.56254196 0.53945017 -0.30303064 0.5179686
0.030699588 -0.22922646 0.33835766 -0.20048365 0.3475332 0.506251 -0.53077346 -0.42920268
-0.8393684 -0.31262064 -0.7923276 -0.08543285 0.12268207 0.31365266 0.20227753 0.2574183
0.029582301 -0.5731457 -0.71351635 0.14751005 0.51981163 -0.08173255 -0.18517214 -0.49613783
00000000: cc90 6a3e a8db 14bf ea52 a2bd 048c cfbc
00000010: cd39 b03e b15c c0be 4d0e 89bd 6237 993e
00000020: 5ab3 babe 5a39 b6be 3650 efbd 43f8 8b3e
00000030: 1043 ec3e 0e62 a2be a1f8 663e bd1c 83be
00000040: 36ea ffbe 7e95 b03e 0837 9f3d 2060 48bd
00000050: 45f2 073d b3e6 063c 30b6 943c c5e8 91be
00000060: d22c 14bf 6c7e 603e 9b98 0dbe e517 c13e
00000070: 2da1 94be 17fd 3c3e 7165 a33e 054b 973e
00000080: b476 5d3d 852f 093f 9833 cdbd 4a61 763e
00000090: c002 103f 6819 0a3f d526 9bbe 9799 043f
000000a0: b47d fb3c 57ba 6abe 373d ad3e 964b 4dbe
000000b0: dfef b13e aa99 013f c5e0 07bf 74c0 dbbe
000000c0: d9e0 56bf d00f a0be fbd5 4abf 6bf7 aebd
000000d0: bd40 fb3d 1597 a03e d721 4f3e 55cc 833e
000000e0: 9556 f23c adb9 12bf 02a9 36bf e00c 173e
000000f0: 6012 053f 6563 a7bd c49d 3dbe c705 febe

decoder.lstm_cells.0.conv_z.convs.<prod___-___prod>.att_src f4 [1, 1, 8]
0.50235075 -0.38754648 0.28110695 0.74204594 0.2964674 -0.91541225 0.27668637 -0.6209409
00000000: 0f9a 003f 7e6c c6be 40ed 8f3e b9f6 3d3f
00000010: 93ca 973e 7558 6abf d6a9 8d3e fcf5 1ebf

decoder.lstm_cells.0.conv_z.convs.<prod___-___prod>.att_dst f4 [1, 1, 8]
0.2623586 0.804679 -0.1474994 -0.054892775 -0.24170744 -0.64399904 0.42444372 -0.83379835
00000000: de53 863e 71ff 4d3f 150a 17be 3fd7 60bd
00000010: 2882 77be 1fdd 24bf b050 d93e cf73 55bf

decoder.lstm_cells.0.conv_z.convs.<prod___-___prod>.bias f4 [8]
0.16283096 0.061258018 0.034468506 -0.126678 -0.13772376 -0.30015317 -0.09906081 0.029748052
00000000: 29bd 263e b0e9 7a3d d92e 0d3d e1b7 01be
00000010: 7507 0dbe adad 99be 65e0 cabd 30b2 f33c

decoder.lstm_cells.0.conv_z.convs.<prod___-___prod>.lin_src.weight f4 [8, 8]
-0.1457431 -0.29616308 0.64741415 4.0638675e-05 -0.78029907 -0.19440445 -0.18036197 -0.31528422
0.38366097 0.506625 -0.40494663 -0.50124997 -0.32982895 -0.90586865 -0.84550536 0.23812193
0.18428826 -0.042370845 0.03661285 -0.7150017 0.17772873 -0.4157478 -0.59698355 -0.7475918
0.38146213 -0.059635323 -0.046711516 -0.10131751 -0.15969802 0.28648028 0.58571035 -0.20741779
0.09626464 -0.36010405 -0.21932703 0.5902228 0.17127505 0.7983136 0.14185181 -0.13632867
-0.5005163 0.40760624 -0.5023143 0.21668528 0.48451895 0.46982294 0.6812963 0.17498021
0.19297384 -0.700913 -0.41996634 0.731578 0.46894762 0.2260526 0.11769401 -0.100068204
0.17851223 -0.23161732 -0.25580594 0.4138221 0.6551994 -0.05121771 0.026008366 0.64456815
00000000: ae3d 15be b0a2 97be efbc 253f 7273 2a38
00000010: aec1 47bf f611 47be cfb0 38be ef6c a1be
00000020: 366f c43e 2db2 013f 2a55 cfbe eb51 00bf
00000030: 57df a8be 02e7 67bf 0a73 58bf 3cd6 733e
00000040: 10b6 3c3e 0d8d 2dbd 5bf7 153d 5a0a 37bf
00000050: 85fe 353e e5dc d4be ead3 18bf 2d62 3fbf
00000060: 014f c33e 2b44 74bd 9354 3fbd 8e7f cfbd
00000070: e187 23be 8bad 923e 1df1 153f 5465 54be
00000080: 6526 c53d 8f5f b8be 4497 60be d718 173f
00000090: ba62 2f3e 485e 4c3f 9a41 113e be99 0bbe
000000a0: d621 00bf c4b1 d03e ac97 00bf bfe2 5d3e
000000b0: de12 f83e a28c f03e 6f69 2e3f 032e 333e
000000c0: ef9a 453e 096f 33bf d405 d7be b248 3b3f
000000d0: e719 f03e 557a 673e 8f09 f13d 8ff0 ccbd
000000e0: e9cb 363e 172d 6dbe fff8 82be 7ee0 d33e
000000f0: 26bb 273f a9c9 51bd 7f0f d53c 6b02 253f

decoder.lstm_cells.0.conv_z.convs.<prod___-___prod>.lin_dst.weight f4 [8, 8]
0.37872308 -0.2679757 -0.5568569 0.107307024 0.28746563 0.112300575 0.4012999 -0.5212226
0.34394652 -0.34513277 0.396391 0.44703904 0.15700383 0.45914748 -0.43892586 -0.58540165
-0.6264814 0.34632435 0.1598385 -0.43781173 0.33614343 0.5976563 -0.56607914 0.4845993
0.027968924 -0.009553877 0.46971864 0.5892264 0.32597262 0.5512987 0.3200776 0.16847008
-0.5754631 0.076738246 -0.49015257 0.1997372 0.147141 0.05222419 -0.38145804 -0.33132324
0.41875538 0.2639499 0.2726659 -0.17523904 -0.06982211 -0.12193336 0.4551683 -0.22797334
0.42119458 0.45814478 -0.50789535 -0.004950927 -0.15393354 -0.37519777 0.22875284 -0.11247567
0.5012139 -0.41863886 0.233052 -0.5146799 -0.27021116 0.07785973 0.518906 0.36003616
00000000: fee7 c13e 1c34 89be 2c8e 0ebf c9c3 db3d
00000010: b22e 933e d8fd e53d 2e77 cd3e d86e 05bf
00000020: c219 b03e 3eb5 b0be c3f3 ca3e 4de2 e43e
00000030: 9dc5 203e 6115 eb3e e4ba e0be e2dc 15bf
00000040: 1661 20bf 6d51 b13e b4ac 233e dc28 e0be
00000050: fe1a ac3e 0100 193f 90ea 10bf 661d f83e
00000060: 161f e53c dd87 1cbc f67e f03e 8bd7 163f
00000070: e2e5 a63e e921 0d3f 36e1 a33e 6c83 2c3e
00000080: 8d51 13bf f128 9d3d 47f5 fabe e987 4c3e
00000090: 21ac 163e 08e9 553d 784e c3be 33a3 a9be
000000a0: 1b67 d63e 7124 873e dd9a 8b3e dd71 33be
000000b0: e5fe 8ebd 33b8 f9bd d20b e93e d871 69be
000000c0: d1a6 d73e f491 ea3e 6e05 02bf 633b a2bb
000000d0: c1a0 1dbe ec19 c0be 2f3e 6a3e a559 e6bd
000000e0: 8e4f 003f d557 d6be 2fa5 6e3e 10c2 03bf
000000f0: 1e59 8abe ec74 9f3d 06d7 043f a956 b83e

decoder.lstm_cells.0.conv_z.convs.<inj___-___inj>.att_src f4 [1, 1, 8]
0.506881 0.61092323 0.7721661 -0.19259484 -0.67086786 0.18357316 0.45105502 -0.81266624
00000000: f4c2 013f 7765 1c3f adac 453f 9537 45be
00000010: ffbd 2bbf 9afa 3b3e aff0 e63e e50a 50bf

decoder.lstm_cells.0.conv_z.convs.<inj___-___inj>.att_dst f4 [1, 1, 8]
-0.18533139 -0.48945338 -0.071413845 -0.40189064 -0.33375734 -0.2592041 -0.77592003 0.6699416
00000000: 83c7 3dbe a299 fabe 6c41 92bd 9cc4 cdbe
00000010: 3ee2 aabe 66b6 84be b2a2 46bf 4b81 2b3f

decoder.lstm_cells.0.conv_z.convs.<inj___-___inj>.bias f4 [8]
0.0 0.0 0.0 0.0 0.0 0.0 0.0 0.0
00000000: 0000 0000 0000 0000 0000 0000 0000 0000
00000010: 0000 0000 0000 0000 0000 0000 0000 0000

decoder.lstm_cells.0.conv_z.convs.<inj___-___inj>.lin_src.weight f4 [8, 8]
-0.5028101 0.06782971 -0.36098734 0.026533924 -0.51015115 -0.17965382 0.42000574 -0.56187385
-0.5838498 0.111540146 0.08394669 -0.11199406 0.53473103 -0.36870268 -0.3717592 -0.45773378
-0.113976315 -0.15628046 0.37890354 -0.034384105 0.19556333 -0.25447544 0.49675187 0.5162415
-0.54842174 -0.15737948 -0.51959646 0.26015228 -0.5350195 -0.28953692 0.6118657 -0.5847662
0.45181116 0.05173267 0.48967427 -0.31077248 0.4022237 0.07388503 0.04709904 0.41796392
-0.58207667 -0.49323618 0.59140694 -0.36772755 -0.44140276 -0.029941734 -0.19602193 -0.08377981
-0.41028067 0.22095554 -0.5269352 0.049597844 0.3573435 0.117658824 0.08136583 0.08956809
-0.17939483 -0.11665587 -0.25823337 -0.41367507 -0.32422435 0.60536724 -0.10248451 0.21451163
00000000: 2ab8 00bf 4eea 8a3d 55d3 b8be ac5d d93c
00000010: 4499 02bf 2cf7 37be fe0a d73e f7d6 0fbf
00000020: 2e77 15bf 296f e43d 3eec ab3d 245d e5bd
00000030: 22e4 083f 99c6 bcbe 3957 bebe 155c eabe
00000040: 6a6c e9bd fc07 20be a5ff c13e 59d6 0cbd
00000050: c141 483e 9b4a 82be 4356 fe3e 6728 043f
00000060: 5e65 0cbf 1628 21be 4604 05bf ae32 853e
00000070: 0af7 08bf 2f3e 94be 3ba3 1c3f 3db3 15bf
00000080: cb53 e73e a3e5 533d 96b6 fa3e 921d 9fbe
00000090: 44f0 cd3e 0951 973d ecea 403d 5eff d53e
000000a0: fa02 15bf 7489 fcbe 7266 173f c946 bcbe
000000b0: 8bff e1be 5e48 f5bc f9b9 48be c094 abbd
000000c0: 4f10 d2be 2b42 623e 3ae5 06bf 1c27 4b3d
000000d0: baf5 b63e 1cf7 f03d 21a3 a63d 7a6f b73d
000000e0: 47b3 37be 46e9 eebd 2a37 84be 38cd d3be
000000f0: bc00 a6be 59f9 1a3f 66e3 d1bd f0a8 5b3e

decoder.lstm_cells.0.conv_z.convs.<inj___-___inj>.lin_dst.weight f4 [8, 8]
0.42348868 -0.047837216 -0.32944053 -0.4149062 -0.22560005 0.21857806 -0.5157147 -0.0747687
0.23293827 0.49960724 0.18428154 0.121106856 0.4192245 0.2829699 0.20717399 -0.18986396
-0.49106076 -0.13227373 -0.11106221 0.044970926 -0.06734886 0.24757516 0.40695214 -0.24826823
-0.5810561 -0.3141836 -0.29300576 0.3471173 -0.39500695 -0.05759797 -0.12978567 -0.3716686
0.27757916 -0.25508714 -0.031679362 -0.4305497 -0.06176374 0.08700942 -0.024919154 -0.22881155
0.18192582 -0.15866423 -0.3394986 -0.45158342 -0.12971857 -0.578495 0.50828135 -0.29254732
-0.2537783 0.05660713 0.1587473 -0.05774207 0.42010152 -0.3569823 0.21946253 -0.0013810962
-0.49814728 -0.23716873 0.15584092 0.116988756 0.4452777 0.4096729 -0.3340019 -0.2615011
00000000: 82d3 d83e f5f0 43bd 6eac a8be 966e d4be
00000010: b303 67be edd2 5f3e e105 04bf 5520 99bd
00000020: 5f87 6e3e 85cc ff3e 4db4 3c3e df06 f83d
00000030: 98a4 d63e 6ee1 903e 6b25 543e b36b 42be
00000040: 516c fbbe c472 07be 9574 e3bd 6f33 383d
00000050: 33ee 89bd 5884 7d3e 085c d03e 073a 7ebe
00000060: 18c0 14bf acdc a0be da04 96be 5cb9 b13e
00000070: 5a3e cabe d9eb 6bbd 89e6 04be 594b bebe
00000080: db1e 8e3e c89a 82be 38c2 01bd 0371 dcbe
00000090: fafb 7cbd ff31 b23d 4123 ccbc 934d 6abe
000000a0: c34a 3a3e e078 22be c3d2 adbe f135 e7be
000000b0: f2d4 04be 4018 14bf ba1e 023f c3c8 95be
000000c0: 3bef 81be e1dc 673d a78e 223e f382 6cbd
000000d0: 8c17 d73e 62c6 b6be c9ba 603e e605 b5ba
000000e0: 290d ffbe 5cdc 72be c394 1f3e cd97 ef3d
000000f0: 70fb e33e a5c0 d13e 4c02 abbe 79e3 85be

decoder.lstm_cells.0.W_z.inj f4 [1, 8]
0.011465553 0.74285597 -0.6956972 -0.3118684 0.47622404 -0.17788836 -0.16713704 -0.340309
00000000: 04da 3b3c cf2b 3e3f 3619 32bf 37ad 9fbe
00000010: a3d3 f33e 5e28 36be f925 2bbe fb3c aebe

decoder.lstm_cells.0.W_z.prod f4 [1, 8]
0.79408735 0.6090342 0.47272304 -0.7003453 -1.0641882 -0.35578293 -0.033412803 -0.5841833
00000000: 4f49 4b3f aae9 1b3f c108 f23e d449 33bf
00000010: 5237 88bf 2e29 b6be dddb 08bd 098d 15bf

decoder.lstm_cells.0.b_z.inj f4 [1, 8]
-0.32280424 0.4549732 -0.65025765 0.5160405 -0.31676382 0.012496807 -0.16135268 0.09899119
00000000: 9946 a5be 3ff2 e83e 4977 26bf 3b1b 043f
00000010: de2e a2be 68bf 4c3c a339 25be e5bb ca3d

decoder.lstm_cells.0.b_z.prod f4 [1, 8]
-0.08391319 0.65495557 0.01324188 0.5106765 0.64732194 -0.6979443 -0.69470483 0.68482345
00000000: aeda abbd 2bab 273f 78f4 583c b2bb 023f
00000010: e4b6 253f 7aac 32bf 2dd8 31bf 9750 2f3f

decoder.lstm_cells.0.conv_r.convs.<inj___-___prod>.att_src f4 [1, 1, 8]
0.4924042 -0.29369056 -0.23250656 -0.56770146 -0.5639403 -0.86701655 0.49578768 -0.2366836
00000000: 671c fc3e 9c5e 96be 3316 6ebe e254 11bf
00000010: 645e 10bf ccf4 5dbf e2d7 fd3e 305d 72be

decoder.lstm_cells.0.conv_r.convs.<inj___-___prod>.att_dst f4 [1, 1, 8]
-0.5968017 -0.09132079 -0.29887095 -0.27512693 0.09295887 -0.2142561 -0.27475572 -0.33441353
00000000: ffc7 18bf 6506 bbbd 9d05 99be 70dd 8cbe
00000010: 3861 be3d f365 5bbe c8ac 8cbe 4038 abbe

decoder.lstm_cells.0.conv_r.convs.<inj___-___prod>.bias f4 [8]
0.16424657 0.21202937 -0.00519045 -0.10090623 0.11524689 0.22616522 0.16136777 0.092531815
00000000: 4130 283e 3a1e 593e a714 aabb eda7 cebd
00000010: 9006 ec3d db97 673e 983d 253e 5281 bd3d

decoder.lstm_cells.0.conv_r.convs.<inj___-___prod>.lin_src.weight f4 [8, 8]
0.16183418 -0.72798777 -0.47219437 -0.21135302 0.55353993 0.7396416 0.34783655 -0.7394714
-0.32618353 -0.38650557 0.014120957 0.09985461 0.2967069 0.7574843 0.5090813 -0.10032889
0.2291054 0.03452917 -0.060597125 -0.30455646 -0.048384536 0.33784962 0.5163848 -0.007035095
-0.4773869 -0.4930563 0.08403191 -0.18886651 0.023327772 -0.3001556 0.36070603 0.081465565
0.42499632 -0.38948056 0.28915158 0.054128535 -0.38531172 0.22740543 -0.7069832 0.6198454
0.0041673626 0.101271555 0.3330329 0.017967772 0.19276457 0.33031222 -0.536482 0.39921314
-0.11844709 -0.1079379 0.17327058 0.471298 -0.43788925 -0.50595486 0.27226174 -0.15002686
0.26745388 -0.14014892 0.072763376 0.40082103 -0.1554897 -0.13391665 0.50242263 -0.20423216
00000000: dcb7 253e 685d 3abf 76c3 f1be ed6c 58be
00000010: cbb4 0d3f 2759 3d3f a217 b23e ff4d 3dbf
00000020: 8701 a7be 0fe4 c5be 965b 673c 9380 cc3d
00000030: f7e9 973e 7eea 413f 2753 023f 3c79 cdbd
00000040: 9b9a 6a3e 756e 0d3d b134 78bd d3ee 9bbe
00000050: dd2e 46bd a0fa ac3e cb31 043f a786 e6bb
00000060: 0e6c f4be e071 fcbe ec18 ac3d 3966 41be
00000070: e219 bf3c ffad 99be 76ae b83e 6bd7 a63d
00000080: 1e99 d93e ff69 c7be ad0b 943e e2b5 5d3d
00000090: 9447 c5be f8dc 683e dafc 34bf 30ae 1e3f
000000a0: 5f8e 883b 7667 cf3d 4a83 aa3e 2631 933c
000000b0: 1364 453e af1e a93e e256 09bf aa65 cc3e
000000c0: 6394 f2bd 8c0e ddbd d86d 313e f94d f13e
000000d0: 0533 e0be 4286 01bf e465 8b3e a4a0 19be
000000e0: b7ef 883e 3383 0fbe f704 953d 6a38 cd3e
000000f0: b138 1fbe 7221 09be c59e 003f 3c22 51be
