fitted_models/model_seq2seq_GAT_RN_GRU_no_water.pth (torch, 59546 bytes, 117 tensors)

encoder.lstm_cells.0.conv_z.convs.<inj___-___prod>.att_src f4 [1, 1, 8]
0.7910085 0.9114955 -0.03406943 0.9828964 -0.3922311 0.42363223 -0.515867 0.515407
00000000: 887f 4a3f c557 693f 638c 0bbd 199f 7b3f
00000010: 84d2 c8be 53e6 d83e dc0f 04bf b7f1 033f

encoder.lstm_cells.0.conv_z.convs.<inj___-___prod>.att_dst f4 [1, 1, 8]
0.7054446 -0.728918 0.7334883 0.1358914 0.5773458 0.14369059 0.41155216 -0.16494079
00000000: 0498 343f 5f9a 3abf e4c5 3b3f 1d27 0b3e
00000010: efcc 133f a023 133e f7b6 d23e 3de6 28be

encoder.lstm_cells.0.conv_z.convs.<inj___-___prod>.bias f4 [8]
-0.03926762 -0.07909126 0.1627836 0.16037126 -0.08644094 -0.2526606 -0.07243251 -0.27028376
00000000: 15d7 20bd 99fa a1bd beb0 263e 5d38 243e
00000010: f307 b1bd bb5c 81be 7f57 94bd a262 8abe

encoder.lstm_cells.0.conv_z.convs.<inj___-___prod>.lin_src.weight f4 [8, 8]
-0.19861642 -0.21891911 -0.27667204 0.24036314 -0.6682941 0.017505934 -0.5420974 -0.25140595
-0.35653925 0.4604754 -0.7480479 0.6413828 -0.04233585 -0.22986783 0.3857391 0.036290195
0.20787238 0.4914759 -0.35671067 0.1761324 -0.08138331 -0.011252769 -0.10306571 0.3651607
-0.4943616 -0.32402986 0.75373954 0.53562033 -0.38785648 -0.86788493 -0.3365163 -0.055975802
0.6250988 -0.19869037 -0.14015523 -0.1902869 0.33439946 0.69917774 0.27067176 0.09557791
0.6320746 0.43116102 -0.43637314 0.099393666 0.27396777 -0.35131523 0.29182705 -0.026952779
-0.58519983 0.30998355 0.28153187 0.090295635 0.63396126 0.57578576 0.5930511 -0.052779328
-0.3543322 -0.50577956 -0.5498211 -0.37392133 -0.27398065 -0.6850054 -0.50214034 -0.3121113
00000000: 1a62 4bbe 552c 60be f5a7 8dbe c121 763e
00000010: 5215 2bbf 9b68 8f3c e5c6 0abf 48b8 80be
00000020: 508c b6be 6ec3 eb3e 1180 3fbf aa31 243f
00000030: 5b68 2dbd 7962 6bbe 987f c53e 07a5 143d
00000040: 7fdc 543e bba2 fb3e c8a2 b6be 0d5c 343e
00000050: 4bac a6bd 895d 38bc 1d14 d3bd 58f6 ba3e
00000060: f71c fdbe 3ee7 a5be 13f5 403f 6a1e 093f
00000070: 2095 c6be b52d 5ebf dd4b acbe e246 65bd
00000080: 7a06 203f 7d75 4bbe da84 0fbe 92da 42be
00000090: 6836 ab3e 50fd 323f 7d95 8a3e 5abe c33d
000000a0: a4cf 213f 23c1 dc3e 4d6c dfbe e88e cb3d
000000b0: 8145 8c3e 97df b3be 5b6a 953e 13cc dcbc
000000c0: a8cf 15bf 2ab6 9e3e f224 903e ebec b83d
000000d0: 494b 223f b266 133f 32d2 173f 232f 58bd
000000e0: 086b b5be c57a 01bf 13c1 0cbf 9e72 bfbe
000000f0: 3147 8cbe 845c 2fbf 458c 00bf 0dcd 9fbe

encoder.lstm_cells.0.conv_z.convs.<inj___-___prod>.lin_dst.weight f4 [8, 8]
-0.5888156 -0.3500757 0.2637708 0.5081178 -0.17114301 -0.20696366 0.2981539 -0.32256943
-0.30299893 0.3495865 -0.56510895 0.07473499 0.5235037 0.1413433 0.1981781 -0.33722413
0.0060362373 0.060647134 0.18041961 0.23570414 0.54640937 -0.49980703 -0.0119129885 -0.32609114
-0.46956784 -0.02506184 -0.5104518 0.42391285 0.07454442 -0.35439783 0.2934151 -0.5997424
-0.22192872 -0.09351446 -0.49032024 -0.39227018 -0.08921971 0.4359022 0.5625696 0.36920893
-0.35136423 -0.38063744 0.5674451 0.2179213 0.00745984 0.068424284 -0.5148724 -0.22575158
0.6044562 -0.123313285 -0.0005298603 -0.5114922 -0.32848945 -0.046366986 -0.411419 -0.09639708
0.23877297 -0.6270866 0.15238374 -0.40806866 -0.31379175 0.274475 0.5194658 -0.14991748
00000000: 9fbc 16bf 1f3d b3be f70c 873e 0214 023f
00000010: 1d40 2fbe 48ee 53be a1a7 983e d227 a5be
00000020: ad22 9bbe 00fd b23e fbaa 10bf a90e 993d
00000030: 5704 063f 4cbc 103e 33ef 4a3e a4a8 acbe
00000040: a1cb c53b 2169 783d ebbf 383e 6d5c 713e
00000050: 7ce1 0b3f b5e6 ffbe b22e 43bc 6bf5 a6be
00000060: 326b f0be 7d4e cdbc f8ac 02bf 1b0b d93e
00000070: bfaa 983d a273 b5be 813a 963e b888 19bf
00000080: 4841 63be 8284 bfbd 410b fbbe a3d7 c8be
00000090: d3b8 b6bd 932e df3e 9004 103f f408 bd3e
000000a0: 03e6 b3be e9e2 c2be 1544 113f c326 5f3e
000000b0: ac71 f43b 0822 8c3d adce 03bf 6c2b 67be
000000c0: a4bd 1a3f ad8b fcbd 53e6 0aba 27f1 02bf
000000d0: c52f a8be 4feb 3dbd 83a5 d2be d56b c5bd
000000e0: e780 743e bf88 20bf 7c0a 1c3e 60ee d0be
000000f0: 50a9 a0be fd87 8c3e b6fb 043f f883 19be

encoder.lstm_cells.0.conv_z.convs.<prod___-___prod>.att_src f4 [1, 1, 8]
0.70571107 -0.023506783 -0.5924501 0.06939431 -0.2506538 0.062498823 -0.45950446 0.34313297
00000000: 7ba9 343f 4c91 c0bc cfaa 17bf 9b1e 8e3d
00000010: b255 80be c4fe 7f3d 2b44 ebbe 20af af3e

encoder.lstm_cells.0.conv_z.convs.<prod___-___prod>.att_dst f4 [1, 1, 8]
-0.6445181 -0.37641338 -0.23055802 -0.49093693 0.0770636 -0.80643666 0.7373855 -0.69358796
00000000: 23ff 24bf 41b9 c0be 6717 6cbe 165c fbbe
00000010: 85d3 9d3d a272 4ebf 4cc5 3c3f fb8e 31bf

encoder.lstm_cells.0.conv_z.convs.<prod___-___prod>.bias f4 [8]
-0.03926762 -0.07909126 0.1627836 0.16037126 -0.08644094 -0.2526606 -0.07243251 -0.27028376
00000000: 15d7 20bd 99fa a1bd beb0 263e 5d38 243e
00000010: f307 b1bd bb5c 81be 7f57 94bd a262 8abe

encoder.lstm_cells.0.conv_z.convs.<prod___-___prod>.lin_src.weight f4 [8, 8]
-0.2814374 -0.5918386 -0.44836935 -0.49984926 -0.19470108 0.13679072 -0.51524377 0.5299349
0.307664 -0.59012735 -0.18034388 0.2871443 -0.031230079 -0.16121621 -0.34597287 0.5163643
-0.2763931 0.6135931 0.16582438 0.037202127 0.67147297 -0.21433553 -0.481213 -0.1329657
0.6271567 -0.273204 0.4094548 -0.69724077 0.65477556 -0.00034411345 -0.1967273 0.4623504
0.07495988 0.36338186 -0.3845069 -0.21565159 0.35707632 0.5682259 0.26599094 -0.41854632
0.25453252 -0.34853566 -0.31219998 -0.35546857 -0.10468898 0.64729196 0.27254018 -0.15933855
-0.10574946 -0.4365615 0.38624492 -0.16657402 -0.0776132 -0.29169405 -0.08394372 0.4583722
0.46853724 -0.112672545 0.39821813 0.19841994 0.16682035 0.6809316 0.7390139 -0.26667222
00000000: 9018 90be bc82 17bf ab90 e5be 3eec ffbe
00000010: b85f 47be de12 0c3e 04e7 03bf d0a9 073f
00000020: 2386 9d3e 9612 17bf 11ac 38be 9404 933e
00000030: 39d6 ffbc dd15 25be 5b23 b1be 7330 043f
00000040: 6583 8dbe 7014 1d3f decd 293e 4261 183d
00000050: a7e5 2b3f c67a 5bbe 8d61 f6be 2928 08be
00000060: 578d 203f 65e1 8bbe 0fa4 d13e 5f7e 32bf
00000070: 5f9f 273f 206a b4b9 e272 49be 31b9 ec3e
00000080: 9184 993d 300d ba3e 17de c4be c5d3 5cbe
00000090: b5d2 b63e 4177 113f f72f 883e b44b d6be
000000a0: 1652 823e 4473 b2be add8 9fbe faff b5be
000000b0: 2d67 d6bd edb4 253f 638a 8b3e a529 23be
000000c0: 2c93 d8bd fd84 dfbe e5c1 c53e 6192 2abe
000000d0: abf3 9ebd ec58 95be afea abbd c3af ea3e
000000e0: 1de4 ef3e ddc0 e6bd 3fe3 cb3e 992e 4b3e
000000f0: f4d2 2a3e 8951 2e3f 0430 3d3f 4389 88be

encoder.lstm_cells.0.conv_z.convs.<prod___-___prod>.lin_dst.weight f4 [8, 8]
0.5630091 0.3709541 -0.28633252 -0.2922262 -0.5136251 0.15378954 -0.49635804 0.25868124
0.19338581 -0.5320305 0.16687202 -0.049804587 0.2797426 0.35137296 -0.60878706 0.5616061
0.51356125 0.24365298 -0.5596846 -0.21875216 -0.17747097 -0.15737846 0.34533098 0.2226406
0.48510867 -0.22934766 0.20608766 0.21787915 -0.5098557 -0.5940134 -0.31775337 0.41919813
-0.57652396 -0.5330297 0.3430514 0.3303927 0.5036106 -0.46230367 -0.44819525 0.3141389
0.5325376 0.36640623 0.09592944 0.20182247 0.5812191 -0.39510533 -0.27802432 0.4283343
-0.4190095 -0.33766988 0.44702643 0.19321702 0.1978392 -0.2595482 -0.008450527 0.56046337
-0.36755824 0.004815165 0.29124406 -0.42275515 0.594722 -0.30594775 -0.1470527 -0.1656898
00000000: 5d21 103f b2ed bd3e 2d9a 92be ac9e 95be
00000010: ef7c 03bf 017b 1d3e a422 febe de71 843e
00000020: ee06 463e 2733 08bf 80e0 2a3e e5ff 4bbd
00000030: 6c3a 8f3e 28e7 b33e 78d9 1bbf 6bc5 0f3f
00000040: c078 033f 2b80 793e 7d47 0fbf 9100 60be
00000050: f3ba 35be d227 21be 39cf b03e e6fb 633e
00000060: 2a60 f83e 1dda 6abe a508 533e b61b 5f3e
00000070: e785 02bf 4311 18bf 92b0 a2be 23a1 d63e
00000080: 1397 13bf a274 08bf 6fa4 af3e 3b29 a93e
00000090: a0ec 003f 11b3 ecbe d979 e5be d0d6 a03e
000000a0: 6254 083f 9999 bb3e a776 c43d 8daa 4e3e
000000b0: c6ca 143f 3f4b cabe 3459 8ebe a24e db3e
000000c0: 6a88 d6be 11e3 acbe a6e0 e43e afda 453e
000000d0: 5c96 4a3e 80e3 84be 1474 0abc 877a 0f3f
000000e0: 9830 bcbe 88c8 9d3b f11d 953e 5d73 d8be
000000f0: b33f 183f 2fa5 9cbe fc94 16be 96aa 29be

encoder.lstm_cells.0.conv_z.convs.<inj___-___inj>.att_src f4 [1, 1, 8]
0.695518 0.021198768 -0.37344033 0.61363894 0.1998654 0.6101223 0.10106199 -0.17292373
00000000: 780d 323f 0aa9 ad3c 9233 bfbe 7117 1d3f
00000010: 84a9 4c3e fa30 1c3f 97f9 ce3d eb12 31be

encoder.lstm_cells.0.conv_z.convs.<inj___-___inj>.att_dst f4 [1, 1, 8]
0.21582063 -0.2210613 0.34130317 0.7302119 0.4728715 -0.3547327 0.46936426 0.14386915
00000000: 1500 5d3e e55d 62be 4abf ae3e 2bef 3a3f
00000010: 371c f23e 869f b5be 8350 f03e 6f52 133e

encoder.lstm_cells.0.conv_z.convs.<inj___-___inj>.bias f4 [8]
0.2504385 -0.08586463 0.033993702 -0.03431454 -0.106099635 0.15218846 0.35140046 -0.2995326
00000000: 7a39 803e ccd9 afbd fb3c 0b3d 678d 0cbd
00000010: c44a d9bd 4bd7 1b3e c3ea b33e 565c 99be

encoder.lstm_cells.0.conv_z.convs.<inj___-___inj>.lin_src.weight f4 [8, 8]
-0.61792254 -0.7771462 0.5893926 -0.02296293 -0.7935736 -0.60815877 0.39791346 0.45248228
0.38173744 -0.21869998 -0.45082757 0.051047485 0.042149764 -0.32914275 0.19198243 -0.10533155
-0.052346904 0.07246608 -0.26124373 0.13016023 0.27214402 -0.28561786 -0.57131034 0.28802285
0.15895453 -0.29982176 0.5671445 -0.17725377 0.39429447 0.20050971 -0.5163837 0.4460786
-0.48783284 -0.25227353 -0.22542703 -0.24042584 0.6713738 -0.1250998 0.30838045 -0.6373235
0.3040126 -0.23195648 -0.40466374 0.050703947 0.27355215 0.50170255 -0.40964487 -0.26968452
0.050821934 0.15369385 0.3660803 0.297127 -0.23257418 0.33174738 0.36818177 -0.07120644
0.5917961 0.43631604 0.3376911 -0.25791538 -0.10146559 -0.06568026 0.20501111 0.15984401
00000000: 2c30 1ebf 0ef3 46bf 6fe2 163f c11c bcbc
00000010: a427 4bbf 4bb0 1bbf 50bb cb3e c2ab e73e
00000020: 1773 c33e e3f2 5fbe dfd2 e6be 2b17 513d
00000030: 3ba5 2c3d 6685 a8be 0b97 443e 11b8 d7bd
00000040: b569 56bd 1969 943d bdc1 85be b948 053e
00000050: 7656 8b3e 813c 92be 6541 12bf bb77 933e
00000060: fac4 223e 3d82 99be 6230 113f 0382 35be
00000070: f7e0 c93e 6b52 4d3e b931 04bf 6a64 e43e
00000080: 3ac5 f9be ff29 81be 58d6 66be 3132 76be
00000090: 27df 2b3f 291a 00be 0be4 9d3e a227 23bf
000000a0: 8aa7 9b3e 0086 6dbe 1630 cfbe f1ae 4f3d
000000b0: 070f 8c3e 946f 003f f9bc d1be 1714 8abe
000000c0: a92a 503d ec61 1d3e e16e bb3e 0821 983e
000000d0: ed27 6ebe cbda a93e 5282 bc3e afd4 91bd
000000e0: f37f 173f d164 df3e d9e5 ac3e 7c0d 84be
000000f0: 31cd cfbd 5f83 86bd 6fee 513e 26ae 233e

encoder.lstm_cells.0.conv_z.convs.<inj___-___inj>.lin_dst.weight f4 [8, 8]
-0.34710306 0.3072575 -0.22016881 0.36765546 -0.028228987 -0.534867 -0.33593175 -0.4440676
0.3012226 -0.41129738 -0.05031785 0.13444652 -0.33664277 0.1750149 -0.5989348 -0.437309
-0.5517009 -0.18417653 -0.22408205 0.084771365 -0.11228087 0.28971636 0.5625866 0.21870781
-0.23686215 -0.571154 0.22016631 -0.3072036 0.31271034 0.41136265 0.23754723 0.57340556
0.58534014 0.13113043 -0.44745383 0.54379505 -0.28952026 -0.28729463 0.5136945 0.47336128
0.18175371 0.03728921 -0.5140635 -0.06060605 0.5863459 0.15408038 0.051220197 -0.12611929
-0.20987941 0.36644834 0.0365153 0.3950604 -0.10735084 0.26951444 0.25403443 0.0965453
0.38669318 0.38418588 0.56712013 0.4690233 -0.15587932 -0.51708525 0.112804405 -0.0060461513
00000000: 7eb7 b1be db50 9d3e ef73 61be 563d bc3e
00000010: 7a40 e7bc 0bed 08bf 3fff abbe d45c e3be
00000020: d939 9a3e 9295 d2be 171a 4ebd 59ac 093e
00000030: 715c acbe 1b37 333e cb53 19bf f7e6 dfbe
00000040: 453c 0dbf c698 3cbe c475 65be 9c9c ad3d
00000050: 83f3 e5bd b455 943e ad05 103f f1f4 5f3e
00000060: fe8b 72be 2637 12bf 4773 613e ca49 9dbe
00000070: 921b a03e 209e d23e 953f 733e b5ca 123f
00000080: dad8 153f 0e47 063e ab18 e5be 2736 0b3f
00000090: 003c 94be 4818 93be 7c81 033f 695c f23e
000000a0: a51d 3a3e 92bc 183d aa99 03bf 0d3e 78bd
000000b0: c41a 163f 3fc7 1d3e 45cc 513d 6a25 01be
000000c0: a1ea 56be 1e9f bb3e 1191 153d 5b45 ca3e
000000d0: c2da dbbd ccfd 893e cd10 823e 8bb9 c53d
000000e0: a6fc c53e 03b4 c43e c92e 113f d223 f03e
000000f0: d49e 1fbe b35f 04bf ff05 e73d cb1e c6bb

encoder.lstm_cells.0.W_z.inj f4 [1, 8]
-0.2650717 0.37845543 0.26549307 0.4744694 0.64146405 -0.83389264 0.07657427 -0.14333127
00000000: 7ab7 87be e9c4 c13e b5ee 873e a7ed f23e
00000010: fd36 243f fd79 55bf f9d2 9c3d 6fc5 12be

encoder.lstm_cells.0.W_z.prod f4 [1, 8]
-0.20528398 -0.53932726 0.9157161 -0.7884628 0.4553694 0.08719423 0.048934564 -0.42938748
00000000: f735 52be 5a11 0abf 5f6c 6a3f b3d8 49bf
00000010: 2e26 e93e e392 b23d 9c6f 483d add8 dbbe

encoder.lstm_cells.0.b_z.inj f4 [1, 8]
0.7723498 0.615834 -0.04683713 -0.21712543 -0.094185054 0.103436776 0.547694 -0.07072263
00000000: b7b8 453f 4ca7 1d3f 4ad8 3fbd 2156 5ebe
00000010: 18e4 c0bd a9d6 d33d ad35 0c3f 07d7 90bd

encoder.lstm_cells.0.b_z.prod f4 [1, 8]
-0.78085685 -0.38040853 0.85037875 0.47844127 -0.1270514 -0.7449315 -0.5719691 -1.0016732
00000000: 3ce6 47bf e8c4 c2be 6cb2 593f 41f6 f43e
00000010: c319 02be d5b3 3ebf 916c 12bf d436 80bf

encoder.lstm_cells.0.conv_r.convs.<inj___-___prod>.att_src f4 [1, 1, 8]
0.594221 -0.50923055 -1.0483856 -0.5113656 -0.2442323 0.89961034 0.14690876 0.013545108
00000000: de1e 183f ef5c 02bf 8031 86bf dbe8 02bf
00000010: 0818 7abe dd4c 663f 406f 163e 4dec 5d3c

encoder.lstm_cells.0.conv_r.convs.<inj___-___prod>.att_dst f4 [1, 1, 8]
0.2886636 -0.07454722 0.7048545 -0.5260686 0.22446182 -0.8581672 0.23759075 -0.27455267
00000000: b7cb 933e 36ac 98bd 5871 343f 6fac 06bf
00000010: 52d9 653e d8b0 5bbf fd4a 733e 2b92 8cbe

encoder.lstm_cells.0.conv_r.convs.<inj___-___prod>.bias f4 [8]
0.23257877 0.146623 0.111116506 0.2586943 0.1945222 -0.024023289 0.08679958 -0.01576347
00000000: 2129 6e3e 5724 163e 0d91 e33d 9473 843e
00000010: d430 473e 7dcc c4bc fac3 b13d 6522 81bc

encoder.lstm_cells.0.conv_r.convs.<inj___-___prod>.lin_src.weight f4 [8, 8]
-0.35900736 0.06567113 0.22867294 0.23939304 0.032291554 -0.2624321 -0.42069104 -0.065342374
-0.5392546 0.41890284 0.6422253 0.1880403 -0.2653463 0.17581551 -0.070059806 -0.3086681
0.0006009048 -0.106831804 -0.21323244 -0.77050793 0.5254878 0.5665912 0.26488745 0.58433735
-0.5102128 -0.010039903 0.4919702 -0.4045964 -0.39256516 -0.61182773 -0.11324429 -0.10411358
-0.018098582 0.42704216 -0.22971678 0.07106247 0.2858113 -0.33778414 -0.14254476 0.7376355
-0.24944659 -0.74850816 -0.35493028 -0.17695801 -0.3077043 -0.27403507 0.22668734 0.19405653
-0.25550067 -0.36929584 -0.112863034 -0.45576596 -0.22007108 -0.56122243 0.106978714 -0.48184115
-0.33107078 -0.5944648 0.08531158 -0.12148294 -0.09633816 0.54332465 0.47472852 0.22639792
00000000: d0cf b7be 967e 863d 3d29 6a3e 7323 753e
00000010: 2644 043d 805d 86be d164 d7be 39d2 85bd
00000020: 970c 0abf 6f7a d63e e168 243f a38d 403e
00000030: 78db 87be fb08 343e 847b 8fbd bf09 9ebe
00000040: 0a86 1d3a a2ca dabd 9b59 5abe 0240 45bf
00000050: 5e86 063f 1f0c 113f 549f 873e 2297 153f
00000060: 4e9d 02bf 687e 24bc 85e3 fb3e 4227 cfbe
00000070: 4dfe c8be bea0 1cbf 9fec e7bd 8039 d5bd
00000080: 7a43 94bc 45a5 da3e e03a 6bbe 3389 913d
00000090: dc55 923e 0bf2 acbe 41f7 11be aed5 3c3f
000000a0: ed6e 7fbe 3b9e 3fbf 6cb9 b5be 7b34 35be
000000b0: 6b8b 9dbe 534e 8cbe ba20 683e c1b6 463e
000000c0: fcd0 82be 5814 bdbe bc24 e7bd 285a e9be
000000d0: 505a 61be 46ac 0fbf a817 db3d e2b3 f6be
000000e0: 1c82 a9be d82e 18bf d6b7 ae3d 0ccc f8bd
000000f0: f14c c5bd 5317 0b3f 9e0f f33e dbd4 673e

encoder.lstm_cells.0.conv_r.convs.<inj___-___prod>.lin_dst.weight f4 [8, 8]
-0.5666049 -0.38001975 -0.13303415 0.5081604 0.37313473 -0.51471806 -0.05210054 -0.4357829
-0.16745009 -0.22886771 0.45700008 0.20625556 -0.3803501 0.15779328 -0.12067585 0.24017301
0.25564927 0.22106104 -0.14105563 0.5208073 0.22479978 -0.29627246 0.32793438 0.53801894
0.59785604 0.12883566 -0.30023333 0.31229526 0.2219444 -0.5471072 -0.024335735 -0.4560337
0.1583411 0.34421656 -0.0031566818 -0.06702133 0.6200265 -0.18819308 -0.59956783 0.50687355
-0.32727298 -0.13088562 -0.046749145 -0.03193116 -0.90150625 0.34514156 -0.21609738 -0.3536135
0.16801827 -0.26192406 -0.19587776 -0.21587078 0.06557537 -0.31147102 -0.21998103 0.18371432
-0.51726645 -0.42829326 -0.07871482 0.09502579 0.042575672 -0.37421995 0.25046867 0.32396585
00000000: 050d 11bf f391 c2be 1b3a 08be cd16 023f
00000010: 840b bf3e 90c4 03bf 6067 55bd f01e dfbe
00000020: 0978 2bbe 4c5c 6abe eafb e93e a834 533e
00000030: 40bd c2be 9094 213e e624 f7bd eaef 753e
00000040: 76e4 823e d35d 623e e370 10be a153 053f
00000050: ea31 663e 06b1 97be 04e7 a73e 9cbb 093f
00000060: 180d 193f 7fed 033e 2fb8 99be 2ae5 9f3e
00000070: 6545 633e 380f 0cbf bc5b c7bc 407d e9be
00000080: 2b24 223e 273d b03e 55e0 4ebb 7b42 89bd
00000090: 0fba 1e3f b0b5 40be 477d 19bf 77c2 013f
000000a0: 5390 a7be e106 06be 087c 3fbd 3fca 02bd
000000b0: 1dc9 66bf 65b6 b03e a248 5dbe d40c b5be
000000c0: fb0c 2c3e e91a 86be 2e94 48be 3b0d 5dbe
000000d0: 614c 863d 2179 9fbe b542 61be 9b1f 3c3e
000000e0: 936b 04bf 4149 dbbe 3c35 a1bd e29c c23d
000000f0: d463 2e3d c299 bfbe 6e3d 803e dade a53e

encoder.lstm_cells.0.conv_r.convs.<prod___-___prod>.att_src f4 [1, 1, 8]
0.36673453 0.08639029 0.72503686 -0.7139652 -0.53712213 -0.6421436 0.46826088 0.3341329
00000000: a1c4 bb3e 64ed b03d 049c 393f 6cc6 36bf
00000010: d680 09bf 8663 24bf e4bf ef3e 7813 ab3e

encoder.lstm_cells.0.conv_r.convs.<prod___-___prod>.att_dst f4 [1, 1, 8]
0.5986621 -0.7241448 -0.91820884 -0.52977496 -0.7519384 0.35303298 0.5355033 0.82176805
00000000: eb41 193f 8e61 39bf bc0f 6bbf 559f 07bf
00000010: 097f 40bf bdc0 b43e bf16 093f 645f 523f

encoder.lstm_cells.0.conv_r.convs.<prod___-___prod>.bias f4 [8]
0.23257877 0.146623 0.111116506 0.2586943 0.1945222 -0.024023289 0.08679958 -0.01576347
00000000: 2129 6e3e 5724 163e 0d91 e33d 9473 843e
00000010: d430 473e 7dcc c4bc fac3 b13d 6522 81bc

encoder.lstm_cells.0.conv_r.convs.<prod___-___prod>.lin_src.weight f4 [8, 8]
0.544066 -0.33500028 0.00282089 -0.7326957 -0.13834986 0.106700554 -0.32436958 0.080030076
-0.33539656 0.23405547 -0.21550404 0.29865453 -0.09483785 -0.30478778 -0.63899183 -0.11166568
0.6579627 0.40689602 -0.27031022 -0.055416387 -0.043816008 -0.6281426 0.41326246 -0.14660458
0.42088652 0.026389651 -0.025718117 -0.20969413 0.45488578 -0.13972117 -0.544904 0.33962327
-0.29271555 -0.17257223 -0.0702482 0.79589516 0.21344931 -0.25544992 -0.41554356 -0.25909588
-0.73404926 -0.56906754 0.41364178 0.73512 0.8041504 -0.37653133 0.39591482 -0.26899186
0.55399364 0.5651296 0.5744639 0.25610784 0.4583337 -0.11795159 0.16609854 -0.29410386
-0.002882516 -0.2585249 -0.009300104 -0.28963315 -0.06467786 -0.23737617 -0.17798664 -0.32601622
00000000: e947 0b3f 2885 abbe aede 383b f291 3bbf
00000010: 96ab 0dbe d285 da3d c513 a6be cfe6 a33d
00000020: 19b9 abbe 3dac 6f3e 17ad 5cbe 3fe9 983e
00000030: 593a c2bd 250d 9cbe f894 23bf fab0 e4bd
00000040: 3e70 283f ad54 d03e 1a66 8abe 4bfc 62bd
00000050: 6a78 33bd f4cd 20bf 2397 d33e 831f 16be
00000060: 707e d73e 1c2f d83c cdae d2bc 0fba 56be
00000070: cae6 e83e 1113 0fbe d47e 0bbf 1ae3 ad3e
00000080: d0de 95be c6b6 30be 4ade 8fbd c9bf 4b3f
00000090: 7592 5a3e 55ca 82be 20c2 d4be 37a8 84be
000000a0: a7ea 3bbf 69ae 11bf dbc8 d33e d330 3c3f
000000b0: cddc 4d3f b7c8 c0be 59b5 ca3e 4db9 89be
000000c0: 87d2 0d3f 55ac 103f 1110 133f 9120 833e
000000d0: b7aa ea3e 9a90 f1bd bc15 2a3e c894 96be
000000e0: 98e8 3cbb 605d 84be 775f 18bc cc4a 94be
000000f0: d375 84bd bd12 73be 2142 36be 99eb a6be

encoder.lstm_cells.0.conv_r.convs.<prod___-___prod>.lin_dst.weight f4 [8, 8]
-0.48686308 -0.038219206 0.24479784 0.5115481 0.16282128 -0.18181401 -0.50034475 0.21733667
0.27806795 -0.4524366 0.37832946 0.5605599 0.24286151 -0.50074667 0.3978022 0.285606
0.35336193 -0.3260754 0.5170485 -0.3850093 0.80976814 -0.40489036 0.25466588 0.1264658
0.103052154 -0.011742115 0.40537336 -0.21364987 -0.38229814 -0.37458402 0.37203172 -0.15147346
0.13592125 -0.14298251 0.62190425 0.40241566 0.42442328 -0.4543748 -0.6119461 0.033894517
-0.33099878 0.39924026 -0.7520509 0.26434425 0.40661043 0.46638948 0.33470845 -0.5713492
0.6402736 -0.19038126 -0.739172 0.57616585 -0.4633551 0.100427575 0.6748177 -0.433432
-0.3858524 0.0103863375 -0.243719 0.11460049 -0.7188476 0.16484867 -0.15729441 -0.30413654
00000000: 1e46 f9be be8b 1cbd 49ac 7a3e d1f4 023f
00000010: 9fba 263e 742d 3abe 9816 00bf 818d 5e3e
00000020: ec5e 8e3e c5a5 e7be 66b4 c13e db80 0f3f
00000030: b0b0 783e ef30 00bf bbac cb3e f33a 923e
00000040: dbeb b43e 5bf3 a6be 4a5d 043f f01f c5be
00000050: f74c 4f3f ca4d cfbe 9163 823e 4080 013e
00000060: 020d d33d 0062 40bc 198d cf3e 08c7 5abe
00000070: 95bc c3be 7ac9 bfbe f17a be3e dc1b 1bbe
00000080: f12e 0b3e 026a 12be 1e35 1f3f 6d09 ce3e
00000090: 024e d93e d0a3 e8be 80a8 1cbf fad4 0a3d
000000a0: ac78 a9be 3869 cc3e 6886 40bf 2158 873e
000000b0: 3e2f d03e 9aca ee3e e85e ab3e f143 12bf
000000c0: f8e8 233f 4ef3 42be 603a 3dbf 9b7f 133f
000000d0: e13c edbe f9ac cd3d dac0 2c3f cdea ddbe
000000e0: 728e c5be 752b 2a3c 7991 79be a9b3 ea3d
000000f0: 6506 38bf 17ce 283e c911 21be c9b7 9bbe

encoder.lstm_cells.0.conv_r.convs.<inj___-___inj>.att_src f4 [1, 1, 8]
-0.28778264 -0.40383995 0.59168303 -0.48631105 0.6605361 -0.04133187 0.6574866 -0.7755867
00000000: 3f58 93be 1cc4 cebe 8a78 173f c3fd f8be
00000010: e518 293f 9b4b 29bd 0b51 283f da8c 46bf

encoder.lstm_cells.0.conv_r.convs.<inj___-___inj>.att_dst f4 [1, 1, 8]
-0.41208673 0.24889848 0.17263494 -0.20816523 0.48668402 0.55505896 -0.59215045 -0.43586272
00000000: 08fd d2be 3edf 7e3e 37c7 303e 4429 55be
00000010: a62e f93e 5818 0e3f 2c97 17bf 6629 dfbe

encoder.lstm_cells.0.conv_r.convs.<inj___-___inj>.bias f4 [8]
0.0038174405 0.19847262 0.10574879 -0.021655593 0.09258486 0.04296373 0.10881227 0.13486668
00000000: 062e 7a3b 683c 4b3e d292 d83d 1267 b1bc
00000010: 229d bd3d bcfa 2f3d f8d8 de3d 7e1a 0a3e

encoder.lstm_cells.0.conv_r.convs.<inj___-___inj>.lin_src.weight f4 [8, 8]
-0.47947252 0.18267043 0.032195482 -0.37908047 0.54430616 0.20143779 0.17248261 -0.33280468
-0.13492393 0.40075177 0.6954492 -0.6820488 0.30228567 -0.13305864 0.045950525 0.7446296
0.51065254 -0.3460105 0.56749785 -0.34408164 0.035740048 -0.5055229 -0.14624998 -0.036892198
0.029839493 -0.05195865 -0.022060947 0.6010102 0.49641412 0.54605746 0.34271792 0.2995657
-0.16907941 0.12390415 0.27434143 -0.69982696 -0.63538134 -0.008704469 -0.37930927 0.114830285
-0.26267052 0.2955091 0.50201714 -0.27210528 0.36293733 0.3208841 -0.586043 -0.3944519
-0.6854415 -0.33153102 -0.049722303 -0.17300722 -0.353698 -0.5302993 -0.39721 -0.021034138
0.6239379 -0.41693133 -0.45926923 0.34594917 -0.068595156 0.34132075 0.3580101 0.69548506
00000000: 6c7d f5be f50d 3b3e 69df 033d d616 c2be
00000010: a657 0b3f b545 4e3e 489f 303e 6065 aabe
00000020: 8029 0abe 562f cd3e f508 323f c09a 2ebf
00000030: 30c5 9a3e 8640 08be 9e36 3c3d 0ca0 3e3f
00000040: 20ba 023f 4a28 b1be 8a47 113f 782b b0be
00000050: 2864 123d f369 01bf 8ec2 15be 461c 17bd
00000060: f471 f43c 98d2 54bd 29b9 b4bc cedb 193f
00000070: fe29 fe3e 6cca 0b3f b978 af3e ad60 993e
00000080: 2723 2dbe 76c1 fd3d 7b76 8c3e dc27 33bf
00000090: 5aa8 22bf 309d 0ebc d334 c2be 242c eb3d
000000a0: c07c 86be f84c 973e 3284 003f 6251 8bbe
000000b0: ecd2 b93e ec4a a43e ea06 16bf 99f5 c9be
000000c0: 1879 2fbf 6fbe a9be 9da9 4bbd ce28 31be
000000d0: e717 b5be b2c1 07bf 1c5f cbbe c94f acbc
000000e0: 65ba 1f3f 0678 d5be 5625 ebbe 4020 b13e
000000f0: 9e7b 8cbd 98c1 ae3e 1a4d b73e 4f0b 323f

encoder.lstm_cells.0.conv_r.convs.<inj___-___inj>.lin_dst.weight f4 [8, 8]
-0.4484863 0.39367095 0.51393694 -0.30241743 0.5628758 0.4590775 0.006700712 0.2952604
-0.21409307 -0.5340995 0.15478963 0.1825685 -0.4002188 0.29699045 -0.52309895 0.5270199
0.59302044 0.16672395 -0.38422439 0.29802775 0.10435962 0.16650859 0.20126076 0.46623167
-0.26322502 -0.1377506 0.16700263 0.066720605 0.4938013 -0.3216335 -0.022303233 0.1144257
-0.16262841 0.41746548 0.06697084 -0.56596243 -0.066337 -0.2777648 0.059511293 -0.071171775
-0.60742044 -0.111588985 -0.058665633 -0.18056421 0.5626413 -0.13364118 0.39340597 0.15169048
-0.516937 0.14389797 0.507509 -0.4005649 -0.39582834 0.59944445 0.4920394 -0.3416331
0.36848122 -0.07834264 -0.6037451 0.04600095 0.19784968 -0.18367037 0.21302871 -0.5236357
00000000: ff9f e5be 3d8f c93e 5f91 033f 75d6 9abe
00000010: a118 103f 350c eb3e a591 db3b 5f2c 973e
00000020: 373b 5bbe bfba 08bf 2c81 1e3e 3df3 3a3e
00000030: 7be9 ccbe 220f 983e d0e9 05bf c7ea 063f
00000040: 30d0 173f afb9 2a3e 0fb9 c4be 1897 983e
00000050: 7fba d53d 3a81 2a3e 4d17 4e3e ebb5 ee3e
00000060: 6ec5 86be 7e0e 0dbe bd02 2b3e d0a4 883d
00000070: 86d3 fc3e 25ad a4be 45b5 b6bc 0558 ea3d
00000080: 1088 26be 09be d53e 0228 893d eae2 10bf
00000090: b1db 87bd 3037 8ebe 1dc2 733d 82c2 91bd
000000a0: e87f 1bbf c488 e4bd 604b 70bd d3e5 38be
000000b0: 4309 103f 3cd9 08be 826c c93e c054 1b3e
000000c0: fc55 04bf fd59 133e 1cec 013f d816 cdbe
000000d0: 03aa cabe 3175 193f 97ec fb3e 89ea aebe
000000e0: 92a9 bc3e 1b72 a0bd 0a8f 1abf 7e6b 3c3d
000000f0: 1b99 4a3e 1614 3cbe 3324 5a3e fd0c 06bf

encoder.lstm_cells.0.W_r.inj f4 [1, 8]
0.7428 0.2065227 0.28032908 -0.91168004 0.5088368 0.0101985885 -0.075555906 0.42772236
00000000: 2428 3e3f b07a 533e 4b87 8f3e dd63 69bf
00000010: 2143 023f fb17 273c 0ebd 9abd 6dfe da3e

encoder.lstm_cells.0.W_r.prod f4 [1, 8]
0.38524708 -0.3535705 -0.18624997 0.20599954 0.30252442 -0.39355597 -0.29177547 -0.48139608
00000000: 1b3f c53e 3107 b5be 50b8 3ebe 8bf1 523e
00000010: 7be4 9a3e 2b80 c9be 9863 95be 8c79 f6be

encoder.lstm_cells.0.b_r.inj f4 [1, 8]
-0.2623307 0.47420698 0.6263671 0.35531867 -0.6291534 -0.44804627 -0.020044528 0.9247029
00000000: 3650 86be 42cb f23e 9859 203f 54ec b53e
00000010: 3210 21bf 5266 e5be 6c34 a4bc 54b9 6c3f

encoder.lstm_cells.0.b_r.prod f4 [1, 8]
0.35069233 -0.064825356 0.44891337 -0.052294187 -0.33395898 0.57192606 -0.2844617 -0.17944345
00000000: f28d b33e 28c3 84bd f9d7 e53e 6e32 56bd
00000010: acfc aabe bf69 123f f7a4 91be 06c0 37be

encoder.lstm_cells.0.conv_n.convs.<inj___-___prod>.att_src f4 [1, 1, 8]
0.8697852 -0.061297074 0.043579426 -0.63024646 -0.5777228 -0.03258 0.21376966 -0.8894944
00000000: 3eaa 5e3f a412 7bbd 5780 323d d557 21bf
00000010: a4e5 13bf 9b72 05bd 6fe6 5a3e e8b5 63bf

encoder.lstm_cells.0.conv_n.convs.<inj___-___prod>.att_dst f4 [1, 1, 8]
0.022932976 -0.57369745 -0.84033483 -0.33341375 -0.6292401 -0.3059649 0.9494803 0.19238184
00000000: f0dd bb3c d6dd 12bf 2f20 57bf 35b5 aabe
00000010: e115 21bf 6ea7 9cbe 2411 733f bfff 443e

encoder.lstm_cells.0.conv_n.convs.<inj___-___prod>.bias f4 [8]
0.044070467 0.08562565 0.06815974 -0.046795275 0.0711128 -0.068371475 0.018753113 0.07871003
00000000: 3c83 343d 805c af3d 5597 8b3d 67ac 3fbd
00000010: 96a3 913d 5806 8cbd 21a0 993c b932 a13d

encoder.lstm_cells.0.conv_n.convs.<inj___-___prod>.lin_src.weight f4 [8, 8]
0.44369248 0.6361696 0.35647097 -0.11063714 0.2040815 -0.37371776 -0.098092325 -0.21161185
-0.30182984 -0.6753394 0.34907335 0.51185346 -0.5402695 0.13860025 0.15792388 0.81443465
0.6753006 0.48529643 -0.5419549 0.66199297 0.8972576 -0.73887104 -0.18178508 -0.09784854
0.38332215 -0.46228248 0.00040711093 0.2607255 0.16543691 -0.38496292 0.29704294 0.5615132
-0.38461235 -0.19069415 -0.050792336 0.31860766 0.6331892 0.29637966 -0.097182654 0.5874879
-0.053393733 -0.3011721 -0.1639765 -0.21178235 0.26000112 -0.34223157 0.23391965 -0.07785474
-0.2515717 -0.4648263 -0.2813891 0.29999894 0.19244291 -0.58874804 -0.0456516 -0.16057234
-0.08071258 0.6747711 0.50574684 -0.23053409 0.33932245 0.31319714 -0.06863126 0.725811
00000000: a92b e33e 03dc 223f 5d83 b63e ba95 e2bd
00000010: befa 503e ef57 bfbe a1e4 c8bd c7b0 58be
00000020: 7189 9abe 0be3 2cbf beb9 b23e d408 033f
00000030: 1a4f 0abf 39ed 0d3e ccb6 213e ca7e 503f
00000040: 80e0 2c3f c678 f83e 8ebd 0abf 5f78 293f
00000050: adb2 653f a726 3dbf de25 3abe d164 c8bd
00000060: cd42 c43e 4ab0 ecbe 8171 d539 d07d 853e
00000070: 4b68 293e dc19 c5be 0316 983e 54bf 0f3f
00000080: e9eb c4be 5445 43be a00b 50bd 8b20 a33e
00000090: b018 223f 13bf 973e b307 c7bd 9b65 163f
000000a0: 63b3 5abd 3b33 9abe 75e9 27be 79dd 58be
000000b0: de1e 853e fa38 afbe a288 6f3e 4e72 9fbd
000000c0: 02ce 80be b6fd edbe 3b12 90be 7699 993e
000000d0: c10f 453e 31b8 16bf 2cfd 3abd 136d 24be
000000e0: a34c a5bd ccbd 2c3f a078 013f 2111 6cbe
000000f0: acbb ad3e 605b a03e 8c8e 8cbd c0ce 393f

encoder.lstm_cells.0.conv_n.convs.<inj___-___prod>.lin_dst.weight f4 [8, 8]
-0.27416247 -0.19653407 -0.28653753 0.0632905 0.11631755 0.10363916 -0.31948802 -0.25073382
0.16371875 -0.5771388 0.028101142 0.0226999 -0.17976503 0.22196266 0.054019433 0.4873747
-0.09875235 -0.42604193 0.55960643 0.12251376 -0.10456886 -0.405565 0.15682665 -0.5260986
0.117950186 0.2623671 -0.4186755 -0.3668403 -0.37651402 0.51436144 0.53570545 0.093947716
0.5306489 -0.24397172 -0.4741793 0.25023958 0.28647506 0.5996484 0.014222962 0.5253112
0.3316259 0.40441877 -0.49629468 0.53894216 -0.45619565 0.5504289 -0.0101157045 -0.489942
0.21491972 -0.08589811 -0.67523813 -0.25965807 -0.00947891 0.47872028 -0.20145383 0.30650538
0.12244861 0.05973608 -0.0031844738 -0.43865305 -0.5725064 -0.19138715 -0.58519554 -0.34246254
00000000: 065f 8cbe 3a40 49be 0cb5 92be 739e 813d
00000010: e537 ee3d c540 d43d ef93 a3be 2f60 80be
00000020: e3a5 273e 5ebf 13bf 5e34 e63c 24f5 b93c
00000030: 5314 38be 2e4a 633e 7b43 5d3d 2d89 f93e
00000040: ac3e cabd 2b22 dabe 5e42 0f3f 7fe8 fa3d
00000050: 3328 d6bd 37a6 cfbe 2a97 203e 66ae 06bf
00000060: de8f f13d fb54 863e a35c d6be 7ed2 bbbe
00000070: 72c6 c0be 31ad 033f fe23 093f a967 c03d
00000080: 9bd8 073f b9d3 79be a1c7 f2be 671f 803e
00000090: dcac 923e 8f82 193f 6d07 693c cb7a 063f
000000a0: dfca a93e fa0f cf3e 561a febe 1df8 093f
000000b0: 7a92 e9be e9e8 0c3f 57bc 25bc aed9 fabe
000000c0: ea13 5c3e 59eb afbd 68dc 2cbf e7f1 84be
000000d0: 6e4d 1bbc d31a f53e ea49 4ebe 46ee 9c3e
000000e0: 56c6 fa3d d2ad 743d 9bb2 50bb 2297 e0be
000000f0: c88f 12bf fefa 43be 60cf 15bf 4057 afbe

encoder.lstm_cells.0.conv_n.convs.<prod___-___prod>.att_src f4 [1, 1, 8]
0.38300815 -0.8790255 -0.76341933 -0.49397534 -0.11714754 -0.85005474 -0.51448035 -0.6614823
00000000: a519 c43e d107 61bf 736f 43bf 56ea fcbe
00000010: 0deb efbd 309d 59bf fcb4 03bf e756 29bf

encoder.lstm_cells.0.conv_n.convs.<prod___-___prod>.att_dst f4 [1, 1, 8]
0.20134512 -0.20632945 -0.041825235 -0.64151406 -0.7869209 -0.5544317 -0.5732958 -0.8926549
00000000: 6a2d 4e3e 0748 53be f050 2bbd 443a 24bf
00000010: a673 49bf 3cef 0dbf 83c3 12bf 0885 64bf

encoder.lstm_cells.0.conv_n.convs.<prod___-___prod>.bias f4 [8]
0.044070467 0.08562565 0.06815974 -0.046795275 0.0711128 -0.068371475 0.018753113 0.07871003
00000000: 3c83 343d 805c af3d 5597 8b3d 67ac 3fbd
00000010: 96a3 913d 5806 8cbd 21a0 993c b932 a13d

encoder.lstm_cells.0.conv_n.convs.<prod___-___prod>.lin_src.weight f4 [8, 8]
0.35920408 -0.21663962 -0.09240563 -0.43606538 0.043309376 -0.48877603 -0.14847249 -0.25424966
-0.022229997 0.19253364 -0.17410825 -0.015983025 0.16591193 -0.51466507 -0.08118703 -0.10706221
0.34258047 0.30337074 0.62695575 0.01806675 -0.27569377 0.14081544 -0.52954364 -0.19114348
-0.45709133 -0.14815982 -0.15769003 0.83925354 0.5198972 0.09120889 0.55462116 -0.49824917
-0.103206314 0.47321108 0.4355047 -0.25449458 0.3422002 -0.41752484 -0.041692268 -0.115201734
-0.79858947 -0.7522342 -0.59625673 0.59653723 0.2333804 -0.3882728 -0.03454706 0.2022858
-0.016815577 0.4094062 0.6198448 -0.37091628 -0.7132978 0.17083728 0.13949186 0.2821625
-0.34509638 -0.63551855 0.27280793 0.08923219 -0.17502612 -0.1956943 -0.23964775 0.4892381
00000000: 99e9 b73e c7d6 5dbe 2a3f bdbd f643 dfbe
00000010: 2c65 313d da40 fabe 2c09 18be 032d 82be
00000020: af1b b6bc 8a27 453e 6f49 32be d5ee 82bc
00000030: d1e4 293e 17c1 03bf 6345 a6bd 6f43 dbbd
00000040: b566 af3e 6953 9b3e 2c80 203f b900 943c
00000050: bc27 8dbe ec31 103e 2c90 07bf 1ebb 43be
00000060: e007 eabe 35b7 17be 7f79 21be 52d9 563f
00000070: fc17 053f bacb ba3d a7fb 0d3f 841a ffbe
00000080: d55d d3bd b948 f23e 79fa de3e 1d4d 82be
00000090: dd34 af3e d1c5 d5be 83c5 2abd e3ee ebbd
000000a0: 5c70 4cbf 6c92 40bf 48a4 18bf aab6 183f
000000b0: 46fb 6e3e b1cb c6be 3881 0dbd 0224 4f3e
000000c0: d2c0 89bc b09d d13e 26ae 1e3f bde8 bdbe
000000d0: af9a 36bf f8ef 2e3e f4d6 0e3e 9a77 903e
000000e0: 79b0 b0be 58b1 22bf 7bad 8b3e 5ebf b63d
000000f0: 0c3a 33be 1664 48be 3866 75be 6b7d fa3e

encoder.lstm_cells.0.conv_n.convs.<prod___-___prod>.lin_dst.weight f4 [8, 8]
-0.01777622 0.21119988 0.3799631 -0.030598082 -0.08861227 0.22316521 0.648757 -0.8054527
0.18237422 0.084084906 0.43324932 0.076444656 -0.033130117 -0.2799334 0.13454518 -0.25551236
-0.50471306 0.042874128 -0.075206816 0.363087 0.5506216 -0.25124243 0.402053 -0.050077364
-0.41968945 -0.07786138 -0.26131386 -0.33681095 -0.35759425 -0.7617944 -0.042526945 0.56658673
0.5055706 0.7245078 0.12941353 0.2065494 -0.16840228 0.008497735 -0.79660445 0.4828721
0.05093677 0.38901037 0.38786972 -0.20019524 0.72610277 0.06438948 0.19390051 0.27011693
0.3118981 0.6207132 0.44619083 0.55724573 0.0907554 0.16873223 -0.07338877 0.5702979
0.5276161 0.3411906 -0.06322603 0.026678259 0.37024996 -0.12481227 -0.37621814 0.6740102
00000000: 6f9f 91bc c844 583e 868a c23e d4a8 fabc
00000010: 5a7a b5bd 6c85 643e f014 263f 2632 4ebf
00000020: 4fc0 3a3e b534 ac3d dbd2 dd3e 048f 9c3d
00000030: 72b3 07bd 6e53 8fbe 36c6 093e 84d2 82be
00000040: e034 01bf c89c 2f3d 0806 9abd 8ae6 b93e
00000050: 8af5 0c3f d9a2 80be e4d9 cd3e ec1d 4dbd
00000060: 89e1 d6be ca75 9fbd eeca 85be 7c72 acbe
00000070: 9816 b7be f504 43bf bc30 2ebd d40b 113f
00000080: 136d 013f 5879 393f fb84 043e b081 533e
00000090: a671 2cbe 153a 0b3c 45ee 4bbf 033b f73e
000000a0: 13a3 503d 5e2c c73e dc96 c63e fbff 4cbe
000000b0: dfe1 393f a2de 833d db8d 463e c44c 8a3e
000000c0: 1cb1 9f3e 0fe7 1e3f 2073 e43e a8a7 0e3f
000000d0: f8dd b93d 24c8 2c3e da4c 96bd 0bff 113f
000000e0: d911 073f 89b0 ae3e a67c 81bd 5d8c da3c
000000f0: 6791 bd3e 939d ffbd aa9f c0be ef8b 2c3f

encoder.lstm_cells.0.conv_n.convs.<inj___-___inj>.att_src f4 [1, 1, 8]
0.61131275 -0.15728332 0.60016006 0.17034505 -0.83343065 0.5305623 -0.26429364 -0.31166053
00000000: fe7e 1c3f e10e 21be 17a4 193f ef6e 2e3e
00000010: b65b 55bf eed2 073f 7f51 87be f891 9fbe

encoder.lstm_cells.0.conv_n.convs.<inj___-___inj>.att_dst f4 [1, 1, 8]
-0.7063659 -0.79206127 0.2089298 -0.20587562 0.34649476 -0.6930793 0.6066355 -0.5747188
00000000: 65d4 34bf 87c4 4abf b2f1 553e 0fd1 52be
00000010: c367 b13e a56d 31bf 774c 1b3f c520 13bf

encoder.lstm_cells.0.conv_n.convs.<inj___-___inj>.bias f4 [8]
-0.38340542 -0.39373988 0.17587078 -0.40439725 -0.053961515 0.3989641 -0.2872446 0.08847152
00000000: b74d c4be 4698 c9be 7817 343e 280d cfbe
00000010: c006 5dbd 0645 cc3e b911 93be 8e30 b53d

encoder.lstm_cells.0.conv_n.convs.<inj___-___inj>.lin_src.weight f4 [8, 8]
0.4518599 -0.51880944 -0.11323156 -0.16545147 -0.30191976 0.17219415 -0.09953069 -0.3821155
0.09286571 0.038030982 0.22369635 0.4726859 0.96112907 0.39580628 0.47571 -0.11093841
0.0010422618 -0.29885316 -0.23732872 -0.07774245 -0.14636487 0.050536573 0.10063805 0.5279548
0.34190655 0.009313343 -0.7604686 -0.24450272 -0.10257099 0.3301034 0.60745305 0.19513433
-0.08708441 -0.2210827 -0.27096954 0.010122184 0.29378867 0.02726384 0.09791945 0.0908434
0.06891509 -0.45378572 -0.16552341 -0.07310066 -0.23299481 -0.3592563 0.05470302 0.31472093
-0.016317932 -0.40394247 -0.15659977 -0.67122394 0.24561633 0.14980759 0.4736547 -0.005422958
0.040748764 0.057332862 0.5626206 -0.20375292 0.2480554 0.015947528 -0.51330566 0.29487377
00000000: 2e5a e73e b2d0 04bf f3e5 e7bd 1c6c 29be
00000010: 3a95 9abe aa53 303e bfd6 cbbd a5a4 c3be
00000020: 6130 be3d 60c6 1b3d a810 653e e303 f23e
00000030: 8e0c 763f 1fa7 ca3e 4390 f33e ad33 e3bd
00000040: 819c 883a 4803 99be 4d06 73be 6f37 9fbd
00000050: ace0 15be 70ff 4e3d 521b ce3d 0c28 073f
00000060: 600e af3e fe96 183c 12ae 42bf ec5e 7abe
00000070: bd10 d2bd 5003 a93e 0b82 1b3f 4bd1 473e
00000080: 5059 b2bd 8163 62be 85bc 8abe 84d7 253c
00000090: 786b 963e 6b58 df3c fe89 c83d 1b0c ba3d
000000a0: 5b23 8d3d 9a56 e8be f87e 29be cdb5 95bd
000000b0: 3196 6ebe 71f0 b7be 4610 603d 1a23 a13e
000000c0: 2fad 85bc 8cd1 cebe b15b 20be 55d5 2bbf
000000d0: d982 7b3e 2967 193e de82 f23e 12b3 b1bb
000000e0: 2de8 263d ddd5 6a3d e707 103f 9ba4 50be
000000f0: 3c02 7e3e 64a4 823c 0068 03bf b2f9 963e

encoder.lstm_cells.0.conv_n.convs.<inj___-___inj>.lin_dst.weight f4 [8, 8]
-0.3416487 -0.21555291 -0.31901008 -0.39113715 0.5145761 -0.5313635 0.3339135 -0.5634225
-0.049359683 0.014112243 0.40869847 -0.19656658 0.2080334 0.11067711 0.38755265 0.024203593
0.20476004 -0.34807596 -0.39957014 0.52129334 -0.47711366 -0.119630575 -0.10056281 0.6108867
-0.10608301 -0.48951563 -0.18302731 0.34187645 0.27556804 0.5226023 -0.09697928 0.27613884
-0.6021536 0.25996026 0.30876288 0.36933777 -0.38371322 -0.17947662 0.12014762 -0.4228739
-0.4615504 -0.6118941 0.0071050753 0.40571487 0.18954065 0.053315494 0.24105039 -0.39709994
0.039290268 -0.12964587 -0.2764599 0.5029621 -0.5056595 0.073938996 -0.5654504 -0.008591897
-0.24706043 0.17925195 -0.37039295 0.41686988 -0.46530017 0.3835584 -0.432887 0.31580096
00000000: 94ec aebe e7b9 5cbe 4a55 a3be 2143 c8be
00000010: 42bb 033f 7007 08bf b6f6 aa3e 753c 10bf
00000020: 612d 4abd 0a37 673c ed40 d13e c048 49be
00000030: b506 553e aeaa e23d 4d6d c63e 9d46 c63c
00000040: 9eac 513e 0337 b2be 7594 ccbe 7b73 053f
00000050: 3e48 f4be e000 f5bd e0f3 cdbd 1263 1c3f
00000060: 0d42 d9bd cba1 fabe 836b 3bbe 6e0a af3e
00000070: 4117 8d3e 44c9 053f 139d c6bd 1262 8d3e
00000080: bd26 1abf 8319 853e 2b16 9e3e d719 bd3e
00000090: 0f76 c4be b8c8 37be f50f f63d ee82 d8be
000000a0: 5650 ecbe 17a5 1cbf b1d1 e83b dcb9 cf3e
000000b0: f216 423e 5961 5a3d ead5 763e af50 cbbe
000000c0: d5ee 203d e3c1 04be 278c 8dbe 20c2 003f
000000d0: e772 01bf 546d 973d 5bc1 10bf 07c5 0cbc
000000e0: 69fd 7cbe d38d 373e 25a4 bdbe f86f d53e
000000f0: d33b eebe c461 c43e 5da3 ddbe aab0 a13e

encoder.lstm_cells.0.W_n.inj f4 [1, 8]
-0.47413123 0.00519969 0.8907937 -0.85452425 -0.004537611 0.6679193 -0.058442287 -0.254846
00000000: 54c1 f2be 2962 aa3b 0e0b 643f 1ac2 5abf
00000010: 3db0 94bb c2fc 2a3f 2e61 6fbd 2d7b 82be

encoder.lstm_cells.0.W_n.prod f4 [1, 8]
0.677322 0.19756217 0.11530782 -0.40261176 -0.47759837 -0.20732799 0.17699566 -0.5729835
00000000: f964 2d3f bd4d 4a3e 8226 ec3d 2123 cebe
00000010: c687 f4be ca4d 54be 5a3e 353e 0caf 12bf

encoder.lstm_cells.0.b_n.inj f4 [1, 8]
-1.1956598 0.15271756 0.79447687 -0.106825784 -0.62328106 -0.40687093 -0.9503848 0.6973323
00000000: 610b 99bf fe61 1c3e d662 4b3f 7ac7 dabd
00000010: 598f 1fbf 6351 d0be 6b4c 73bf 5f84 323f

encoder.lstm_cells.0.b_n.prod f4 [1, 8]
0.43607396 0.7727126 0.49589783 0.15985335 0.06311709 -0.68932325 -0.6807989 -0.68499815
00000000: 1645 df3e 7ed0 453f 52e6 fd3e 99b0 233e
00000010: 8843 813d 7d77 30bf d648 2ebf 0a5c 2fbf

decoder.lstm_cells.0.conv_z.convs.<inj___-___prod>.att_src f4 [1, 1, 8]
0.1345131 -0.7064136 -0.39317188 -0.52924865 0.0064581246 -0.58645463 -0.6868335 0.5466345
00000000: cdbd 093e 86d7 34bf d34d c9be d77c 07bf
00000010: ad9e d33b e421 16bf 52d4 2fbf 3df0 0b3f

decoder.lstm_cells.0.conv_z.convs.<inj___-___prod>.att_dst f4 [1, 1, 8]
-0.29681382 0.61457944 -0.6680489 -0.5391865 -0.031481143 -0.5658613 -0.08851664 -1.1243837
00000000: fbf7 97be 1455 1d3f 4105 2bbf 2008 0abf
00000010: 5ff2 00bd 49dc 10bf 3648 b5bd ceeb 8fbf

decoder.lstm_cells.0.conv_z.convs.<inj___-___prod>.bias f4 [8]
-0.06398737 -0.06764324 -0.063018896 -0.19499105 0.11699303 0.4949714 -0.28428978 -0.11356083
00000000: cf0b 83bd 8a88 8abd 0d10 81bd bcab 47be
00000010: 0b9a ef3d e46c fd3e 6e8e 91be 9592 e8bd

decoder.lstm_cells.0.conv_z.convs.<inj___-___prod>.lin_src.weight f4 [8, 8]
0.05207248 -0.21478705 -0.4042316 0.27355433 0.42982006 -0.30150193 0.49824008 -0.34438053
0.8548489 -0.12738031 -0.5076501 -0.13194357 0.4498628 -0.37670547 0.7523281 0.12920013
0.652591 0.28264347 -0.5007743 0.64867264 -0.3158671 -0.38475144 0.089981705 0.25338972
0.6877662 0.5099885 0.1148134 -0.37104425 0.02574146 -0.93564093 0.47032213 -0.8036613
0.040421233 0.03823592 0.24677798 -0.7228251 0.059698306 0.48556784 0.51784617 0.36657456
-0.37962043 -0.425397 0.2972981 0.23353687 -0.26734638 0.4139967 0.14918119 0.9076738
0.092394 -0.049498938 0.26125807 0.59253234 0.7749303 -0.08868602 0.41632074 0.28080636
-0.53877205 0.4112771 0.09586327 0.3565775 -0.51877457 -0.09868124 0.23930517 -0.76235676
00000000: f449 553d 23f1 5bbe 72f7 cebe 500f 8c3e
00000010: 6011 dc3e 765e 9abe 5319 ff3e a552 b0be
00000020: 61d7 5a3f fc6f 02be 5bf5 01bf 371c 07be
00000030: 6b54 e63e 8adf c0be 9398 403f 0a4d 043e
00000040: 3410 273f a5b6 903e bf32 00bf 690f 263f
00000050: 55b9 a1be 24fe c4be 5448 b83d 4cbc 813e
00000060: 7211 303f 9b8e 023f 4a23 eb3d 83f9 bdbe
00000070: c1df d23c 2a86 6fbf 10ce f03e bfbc 4dbf
00000080: bc90 253d 459d 1c3d 5eb3 7c3e 110b 39bf
00000090: 3686 743d 599c f83e 9191 043f a9af bb3e
000000a0: 9c5d c2be a3cd d9be 7537 983e 4a24 6f3e
000000b0: a0e1 88be 60f7 d33e f4c2 183e 4f5d 683f
000000c0: 1139 bd3d 66bf 4abd 9ec3 853e 33b0 173f
000000d0: d561 463f 04a1 b5bd fe27 d53e dac5 8f3e
000000e0: f7ec 09bf e992 d23e f653 c43d 5391 b63e
000000f0: 69ce 04bf 6419 cabd 6a0c 753e d029 43bf

decoder.lstm_cells.0.conv_z.convs.<inj___-___prod>.lin_dst.weight f4 [8, 8]
-0.49995682 -0.12567565 0.38798976 0.24865709 -0.504826 0.4140777 -0.11445431 -0.2768718
0.5102779 0.110218205 -0.17768134 0.25152645 0.18940686 -0.14220576 -0.41031805 -0.36997896
0.42894062 0.2990183 0.26645502 -0.4045862 0.22412828 0.75036407 0.5916776 0.17137763
0.6176745 0.17629127 0.1427017 0.43092173 0.5285899 0.012498987 0.7369809 0.23969208
-0.06515005 0.6759513 -0.29844543 0.2828412 0.54919046 -0.19312397 -0.21668358 -0.59745556
-0.091841094 -0.36544 -0.19965397 0.022007657 0.3569958 0.6338837 0.5468837 0.2631946
-0.37087813 -0.3393078 0.028316086 0.4425848 -0.041518573 0.20488033 -0.23675728 -0.29650423
-0.45237762 0.68823576 -0.09161728 -0.7045515 -0.00791327 0.33585227 0.1295818 0.22679979
00000000: 57fa ffbe 1eb1 00be 98a6 c63e f79f 7e3e
00000010: 473c 01bf fe01 d43e 0567 eabd 24c2 8dbe
00000020: 93a1 023f 15ba e13d 19f2 35be 13c8 803e
00000030: dff3 413e 639e 11be 3515 d2be e26d bdbe
00000040: 1b9e db3e ed18 993e cb6c 883e ec25 cfbe
00000050: e281 653e dc17 403f 2f78 173f 9e7d 2f3e
00000060: eb1f 1e3f b385 343e 6520 123e c6a1 dc3e
00000070: ab51 073f 8dc8 4c3c c8aa 3c3f d771 753e
00000080: 646d 85bd 250b 2d3f d7cd 98be 90d0 903e
00000090: bf97 0c3f 4ac2 45be 4de2 5dbe d9f2 18bf
000000a0: 2f17 bcbd f41a bbbe 1772 4cbe 6749 b43c
000000b0: 27c8 b63e 3446 223f 9200 0c3f 71c1 863e
000000c0: bde3 bdbe c1b9 adbe 23f7 e73c 7a9a e23e
000000d0: 610f 2abd 26cc 513e 8070 72be 67cf 97be
000000e0: 0a9e e7be 3830 303f d7a1 bbbd 7d5d 34bf
000000f0: a9a6 01bc d4f4 ab3e 17b1 043e 343e 683e

decoder.lstm_cells.0.conv_z.convs.<prod___-___prod>.att_src f4 [1, 1, 8]
0.5056891 -0.6934178 0.36995316 0.35593694 0.45369416 -0.66614306 0.47453994 -0.49905697
00000000: d774 013f d483 31bf 806a bd3e 5e3d b63e
00000010: 9a4a e83e 5a88 2abf e6f6 f23e 6584 ffbe

decoder.lstm_cells.0.conv_z.convs.<prod___-___prod>.att_dst f4 [1, 1, 8]
0.20999664 0.97998273 -0.24925937 -0.2727345 -0.2377914 -0.792307 0.6558878 -0.76968443
00000000: 5c09 573e 26e0 7a3f d93d 7fbe dba3 8bbe
00000010: 977f 73be a2d4 4abf 43e8 273f 0a0a 45bf

decoder.lstm_cells.0.conv_z.convs.<prod___-___prod>.bias f4 [8]
-0.06398737 -0.06764324 -0.063018896 -0.19499105 0.11699303 0.4949714 -0.28428978 -0.11356083
00000000: cf0b 83bd 8a88 8abd 0d10 81bd bcab 47be
00000010: 0b9a ef3d e46c fd3e 6e8e 91be 9592 e8bd

decoder.lstm_cells.0.conv_z.convs.<prod___-___prod>.lin_src.weight f4 [8, 8]
0.033348855 -0.74155796 -0.47944143 0.27443492 -0.53765225 -0.35572618 0.5289083 0.153443
-0.57547706 -0.6097693 -0.63703454 0.7394385 -0.07229593 -0.08766228 -0.45095834 0.6668621
-0.3309765 -0.36782134 -0.43758264 0.049320318 0.31957793 0.77656394 -0.16553685 0.25174934
-0.4612364 -0.42705762 0.4051858 -0.032050926 0.41511825 0.15866803 -0.22073038 -0.21176127
0.52012783 -0.50891435 0.34311438 0.30237427 0.21354733 0.21039055 -0.25686806 0.45436603
-0.18642427 0.076453455 0.77776974 0.022964973 0.22937746 -0.5365744 -0.776415 0.28419048
-0.25544024 -0.21057037 -0.01971026 0.71388704 -0.4349879 0.034148548 0.5712442 0.5370879
-0.19903271 -0.78618765 -0.012037304 0.20678662 -0.02018365 0.63749796 -0.37336054 0.45623356
00000000: cf98 083d bed6 3dbf 5979 f5be bc82 8c3e
00000010: 94a3 09bf be21 b6be 8966 073f 2920 1d3e
00000020: 7752 13bf d719 1cbf b214 23bf d74b 3d3f
00000030: e30f 94bd 4888 b3bd 03e4 e6be 79b7 2a3f
00000040: c075 a9be 1453 bcbe d50a e0be 1a04 4a3d
00000050: b89f a33e e5cc 463f 7e82 29be 4ae5 803e
00000060: 2d27 ecbe 4ca7 dabe 8374 cf3e d547 03bd
00000070: 618a d43e df79 223e 2507 62be f2d7 58be
00000080: 1927 053f 3648 02bf b0ac af3e cdd0 9a3e
00000090: 27ac 5a3e 9f70 573e 3684 83be aaa2 e83e
000000a0: 01e6 3ebe a193 9c3d eb1b 473f 0a21 bc3c
000000b0: ede1 6a3e f15c 09bf 22c3 46bf 6a81 913e
000000c0: 10c9 82be c29f 57be 6977 a1bc 4dc1 363f
000000d0: bcb6 debe 59df 0b3d 0f3d 123f 987e 093f
000000e0: 3bcf 4bbe 9843 49bf 1d38 45bc dfbf 533e
000000f0: 2f58 a5bc 1133 233f 1d29 bfbe 7297 e93e

decoder.lstm_cells.0.conv_z.convs.<prod___-___prod>.lin_dst.weight f4 [8, 8]
-0.266258 0.48077387 0.3496251 0.056902084 0.39387167 -0.2648693 -0.37968466 -0.8775366
0.5155172 0.3789178 -0.57089466 0.13119593 0.43955347 -0.45704573 0.65274817 -0.22491764
-0.09143821 0.36067277 0.6939949 0.45088077 0.6218215 0.111062385 -0.14371449 -0.19885041
-0.079138435 -0.71343946 0.39458767 0.4037547 0.21988752 -0.57051724 -0.74109125 0.893744
0.18342158 0.17512845 -0.072345145 0.039868403 -0.051587738 0.26735836 -0.45781693 0.7046012
0.3009463 -0.713683 0.11935306 0.03727947 -0.2277278 0.11187097 -0.27258936 0.8525994
-0.25267932 0.4557217 -0.6500149 -0.4794073 -0.08036801 0.6416104 0.54736847 -0.837382
-0.053271882 -0.50839597 0.13749427 -0.36395207 -0.071628004 0.2793472 -0.74400693 -0.28490648
00000000: f852 88be fe27 f63e 1002 b33e 2912 693d
00000010: 8ca9 c93e f39c 87be 0766 c2be 3da6 60bf
00000020: eff8 033f 8401 c23e 2726 12bf 3a58 063e
00000030: 270d e13e e601 eabe 811a 273f cf50 66be
00000040: f543 bbbd 1aaa b83e a6a9 313f d8d9 e63e
00000050: b22f 1f3f ad74 e33d e429 13be 719f 4bbe
00000060: 5513 a2bd f8a3 36bf 6507 ca3e f0b8 ce3e
00000070: 322a 613e 6b0d 12bf 28b8 3dbf 68cc 643f
00000080: ded2 3b3e df54 333e b129 94bd 0d4d 233d
00000090: aa4d 53bd 32e3 883e fb66 eabe bf60 343f
000000a0: a215 9a3e eeb3 36bf 616f f43d 5cb2 183d
000000b0: 7a31 69be 9b1c e53d d590 8bbe f443 5a3f
000000c0: 2f5f 81be 5b54 e93e 6067 26bf e074 f5be
000000d0: fc97 a4bd 9440 243f 5720 0c3f ab5e 56bf
000000e0: 9e33 5abd 3d26 02bf 4ccb 0c3e ed57 babe
000000f0: b4b1 92bd 9906 8f3e 3d77 3ebf 43df 91be

decoder.lstm_cells.0.conv_z.convs.<inj___-___inj>.att_src f4 [1, 1, 8]
0.6191275 0.5815251 0.66524893 -0.116582446 -0.79460746 0.25167972 0.51692224 -0.7194373
00000000: 247f 1e3f d4de 143f c14d 2a3f c7c2 eebd
00000010: 656b 4bbf 2adc 803e 0455 043f 0b2d 38bf

decoder.lstm_cells.0.conv_z.convs.<inj___-___inj>.att_dst f4 [1, 1, 8]
-0.1899995 -0.47382817 -0.06537512 -0.41184458 -0.32030684 -0.27985302 -0.7964636 0.6521236
00000000: 3b8f 42be 9b99 f2be 64e3 85bd 4bdd d2be
00000010: 42ff a3be e548 8fbe 0ae5 4bbf 92f1 263f

decoder.lstm_cells.0.conv_z.convs.<inj___-___inj>.bias f4 [8]
0.3073414 -0.24091566 0.17260689 -0.29723352 -0.3930862 -0.26245213 0.038904764 -0.24315958
00000000: da5b 9d3e 98b2 76be dcbf 303e fe2e 98be
00000010: 9842 c9be 2060 86be 9a5a 1f3d d3fe 78be

decoder.lstm_cells.0.conv_z.convs.<inj___-___inj>.lin_src.weight f4 [8, 8]
-0.025912663 0.10159551 0.014306336 0.5442755 -0.5099003 -0.36597362 -0.5923838 0.0019503776
-0.013598896 0.29926887 -0.18247864 0.29007158 -0.085679814 0.6413067 0.65750635 -0.6646184
-0.19612342 -0.7412446 0.38801324 -0.7482027 -0.1069658 0.7923594 -0.6879639 0.6373837
0.1512001 0.67769915 -0.4449599 0.5097299 -0.09903186 -0.112548165 0.47945413 -0.75877994
-0.3263345 0.8093466 -0.5824577 -0.3105294 0.16024965 -0.12889604 0.1038222 -0.59653723
0.3985884 -0.2718231 -0.22598307 0.4816057 0.30666688 0.22703364 0.28566962 -0.4198856
-0.20137595 -0.33080375 -0.34557468 -0.2687815 0.49626568 -0.18912357 0.116766185 0.50675803
-0.23149247 -0.2786408 -0.23075564 -0.07563522 0.00038474693 -0.7387087 -0.25774303 0.3346748
00000000: cb46 d4bc 4f11 d03d 1f65 6a3c a455 0b3f
00000010: d388 02bf e560 bbbe 77a6 17bf d0a3 ff3a
00000020: e7cd 5ebc c539 993e aedb 3abe 4384 943e
00000030: e678 afbd ad2c 243f 5652 283f 6e24 2abf
00000040: 94d4 48be 35c2 3dbf aca9 c63e 368a 3fbf
00000050: e310 dbbd 11d8 4a3f 671e 30bf 942b 233f
00000060: 33d4 1a3e b17d 2d3f c9d1 e3be a97d 023f
00000070: 37d1 cabd a77f e6bd 037b f53e 673f 42bf
00000080: 5115 a7be 5731 4f3f f31b 15bf b6fd 9ebe
00000090: 7c18 243e 53fd 03be bca0 d43d aab6 18bf
000000a0: c713 cc3e 662c 8bbe 1b68 67be 0695 f63e
000000b0: 7103 9d3e 827b 683e 4a43 923e 3ffb d6be
000000c0: 7f35 4ebe 1c5f a9be 2aef b0be bb9d 89be
000000d0: 8916 fe3e 9ca9 41be 1c23 ef3d e5ba 013f
000000e0: 5d0c 6dbe 02aa 8ebe 354b 6cbe a3e6 9abd
000000f0: dcb7 c939 031c 3dbf e5f6 83be 7f5a ab3e

decoder.lstm_cells.0.conv_z.convs.<inj___-___inj>.lin_dst.weight f4 [8, 8]
0.51055366 0.18255752 0.09818137 0.44906786 0.28702468 0.2010861 -0.18593833 -0.48577124
-0.12330094 -0.11442962 0.017534018 -0.032855432 0.249851 0.3987143 -0.24596068 -0.5736042
-0.30410793 -0.29387277 0.3299443 -0.37211287 -0.053377938 -0.13384482 -0.36760858 0.2809794
-0.24581952 -0.03479961 -0.45724365 -0.02768622 0.0894351 -0.03294803 -0.22638854 0.18914215
-0.14920758 -0.34225652 -0.47720447 -0.09671753 -0.57597363 0.50057155 -0.29006678 -0.24687174
0.06702523 0.15641505 -0.082627006 0.4523665 -0.3535684 0.2124336 0.0019492572 -0.4919503
-0.22914524 0.15159339 0.087649964 0.48142132 0.4114139 -0.34293082 -0.25964338 -0.121699065
-0.44692707 -0.16137812 -0.4724804 0.19740567 0.4314998 0.057233132 -0.4402652 -0.47172904
00000000: a5b3 023f 5cf0 3a3e 5013 c93d 39ec e53e
00000010: e6f4 923e 84e9 4d3e 9e66 3ebe 02b7 f8be
00000020: 3485 fcbd 145a eabd 80a3 8f3c 6b93 06bd
00000030: f1d8 7f3e 4824 cc3e 1edd 7bbe bad7 12bf
00000040: 09b4 9bbe 7e76 96be 76ee a83e 9485 bebe
00000050: d3a2 5abd 9e0e 09be 3137 bcbe 88dc 8f3e
00000060: 1db8 7bbe 098a 0ebd d71b eabe 36ce e2bc
00000070: c029 b73d 83f4 06bd 66d2 67be 7bae 413e
00000080: dfc9 18be 3f3c afbe 2554 f4be d713 c6bd
00000090: 0273 13bf 7525 003f a283 94be f2cb 7cbe
000000a0: 8644 893d 442b 203e 5938 a9bd 959c e73e
000000b0: eb06 b5be 3288 593e 387e ff3a e9e0 fbbe
000000c0: 0da5 6abe 4c3b 1b3e d381 b33d db7c f63e
000000d0: d8a4 d23e a194 afbe faef 84be 5c3d f9bd
000000e0: a0d3 e4be 4e40 25be f3e8 f1be b624 4a3e
000000f0: 8bed dc3e 4a6d 6a3d 716a e1be 7886 f1be

decoder.lstm_cells.0.W_z.inj f4 [1, 8]
0.03217928 0.5129782 -0.5532397 -0.44270977 0.3783411 0.040479552 -0.3292482 -0.61372715
00000000: 6cce 033d 8a52 033f 1ea1 0dbf dbaa e2be
00000010: edb5 c13e e3cd 253d 3893 a8be 391d 1dbf

decoder.lstm_cells.0.W_z.prod f4 [1, 8]
0.5312338 0.12968208 0.01698123 -0.24132937 -0.8410335 0.4944025 0.034316406 -0.12794936
00000000: f0fe 073f 61cb 043e 381c 8b3c 0c1f 77be
00000010: f94d 57bf 5322 fd3e 5c8f 0c3d 2805 03be

decoder.lstm_cells.0.b_z.inj f4 [1, 8]
-0.015463185 0.21405794 -0.47765005 0.21880794 -0.70985067 -0.24995537 -0.12244804 -0.14416772
00000000: 4c59 7dbc 0132 5b3e 8c8e f4be 300f 603e
00000010: c6b8 35bf 4df4 7fbe 0ac6 fabd b4a0 13be

decoder.lstm_cells.0.b_z.prod f4 [1, 8]
-0.31073108 0.5260556 -0.084245466 0.44236657 0.902038 0.097181104 -0.8799337 0.5415177
00000000: 2518 9fbe 94ab 063f e388 acbd df7d e23e
00000010: f6eb 663f e306 c73d 5643 61bf e7a0 0a3f

decoder.lstm_cells.0.conv_r.convs.<inj___-___prod>.att_src f4 [1, 1, 8]
0.7830689 -0.101620674 0.029277759 -0.14569467 -0.8387372 -0.6471823 0.43501204 -0.2224342
00000000: 3477 483f 801e d0bd e9d7 ef3c fc30 15be
00000010: 7bb7 56bf bdad 25bf e6b9 de3e cac5 63be

decoder.lstm_cells.0.conv_r.convs.<inj___-___prod>.att_dst f4 [1, 1, 8]
-0.73816603 0.3303596 -0.4028119 -0.12247227 0.030157724 -0.20355326 -0.23388293 -0.50289285
00000000: 73f8 3cbf e524 a93e 5d3d cebe bed2 fabd
00000010: 550d f73c 4470 50be 027f 6fbe 96bd 00bf

decoder.lstm_cells.0.conv_r.convs.<inj___-___prod>.bias f4 [8]
0.14467455 0.07172994 0.18786423 0.109441906 0.0916062 -0.12211268 0.08243709 0.0701928
00000000: 9125 143e 26e7 923d 7b5f 403e 1423 e03d
00000010: 089c bb3d 3616 fabd c7d4 a83d 3ec1 8f3d

decoder.lstm_cells.0.conv_r.convs.<inj___-___prod>.lin_src.weight f4 [8, 8]
-0.16732648 0.17130612 -0.038182627 0.054698136 0.62910396 0.3272664 0.14761677 -0.07450764
0.25309843 0.1603689 -0.57432157 -0.44377103 0.029536339 0.28045112 0.25273183 -0.25675073
-0.6377419 0.044665996 -0.2329083 0.20884374 -0.118584596 0.5394343 0.14577892 0.41298154
-0.49301153 0.04046731 -0.090847075 -0.6093091 0.49384642 -0.34414276 0.5120844 0.3356172
0.19072153 0.2786799 -0.031601034 0.20632385 0.4507667 -0.44071713 0.44496474 -0.033286557
-0.3323681 0.41936642 0.7405643 -0.050705284 -0.6821784 0.09990627 -0.30845124 -0.0851563
-0.13105598 0.1300188 0.4893264 -0.19501297 -0.3643121 0.23774424 0.25739378 -0.16295756
-0.42251703 0.21229614 -0.279066 -0.41801757 0.014538595 0.1825974 0.20083258 0.3123531
00000000: a257 2bbe df6a 2f3e 6365 1cbd 270b 603d
00000010: f50c 213f 768f a73e da28 173e 7697 98bd
00000020: 1e96 813e bf37 243e bd06 13bf f535 e3be
00000030: 31f6 f13c 4a97 8f3e 1166 813e d574 83be
00000040: 0e43 23bf b1f3 363d 837f 6ebe 22db 553e
00000050: 7bdc f2bd 5e18 0a3f 1247 153e 5172 d33e
00000060: 026c fcbe 0dc1 253d 080e babd aefb 1bbf
00000070: 70d9 fc3e 7b33 b0be f717 033f 05d6 ab3e
00000080: 814c 433e 22af 8e3e 1670 01bd 8f46 533e
00000090: e5ca e63e ada5 e1be 6bd2 e33e 7c57 08bd
000000a0: 272c aabe 32b7 d63e 9f95 3d3f 58b0 4fbd
000000b0: 3ea3 2ebf a99b cc3d 52ed 9dbe 6d66 aebd
000000c0: 8a33 06be a623 053e fd88 fa3e 7bb1 47be
000000d0: 1e87 babe 3a73 733e 1ec9 833e 59de 26be
000000e0: 2754 d8be 2964 593e bde1 8ebe 6606 d6be
000000f0: 4a33 6e3c d0fa 3a3e 0ea7 4d3e bfec 9f3e
