notebooks_trashbin/model_seq2sew_gat_RN_exp_smooth.pth (torch, 76686 bytes, 153 tensors)

encoder.lstm_cells.0.conv_i.convs.<inj___-___prod>.att_src f4 [1, 1, 8]
00000000: 2c36 4f3f 268b 593f ba4e 3ebd 1b1a 5d3f
00000010: 3bbe b9be 670a 9d3e ffa9 45be 9eb9 253f
0.80942035 0.8497795 -0.0464618 0.8636796 -0.36277947 0.30672 -0.1930313 0.64736354

encoder.lstm_cells.0.conv_i.convs.<inj___-___prod>.att_dst f4 [1, 1, 8]
00000000: 403a 3d3f 46f5 31bf fd76 2f3f 1ef5 ea3d
00000010: 4564 233f 6077 493e 9e76 dc3e cedb 1abe
0.7391701 -0.6951488 0.68540937 0.11472534 0.63824874 0.19674444 0.43059248 -0.15122911

encoder.lstm_cells.0.conv_i.convs.<inj___-___prod>.bias f4 [8]
00000000: 6aab 5b3e eb59 1abe 41e4 733e 06d4 443e
00000010: 76b7 883e 23b9 8a3e be8a e1bd 835d 313e
0.21452108 -0.15073363 0.2381754 0.19221506 0.2670247 0.27094373 -0.11012791 0.17320828

encoder.lstm_cells.0.conv_i.convs.<inj___-___prod>.lin_src.weight f4 [8, 8]
00000000: e10d d3be e323 173f bf69 45be 14a8 2d3f
00000010: b880 a4bd 6b4a b73d f6b2 b93e 990f 7f3c
00000020: 376c ecbe d497 bebe 0b78 093f 2786 a8be
00000030: 0369 a53e 86b8 d3be 0801 813e 982a 473e
00000040: dab4 9c3e c69b 103f 85da 4fbe cbfe c53c
00000050: 80a2 53bf 29de b8be 20fb 093f f49d 533f
00000060: 1e82 003f 7542 78be b46d a43e a4d6 b7be
00000070: b91d c1be c3de 44bf bfba 793d 3f54 083f
00000080: db29 b83e 7c56 58be 05d6 1cbd 4648 01bf
00000090: cb0a a83e 9475 13bf 07a4 6a3d a381 19bf
000000a0: 9680 f33c 282a eb3e c1f7 af3e a6c8 36be
000000b0: 6b37 b53e 14f1 c5bd 0eae 203f ce30 2e3f
000000c0: b941 d43e f878 1cbf 5bae 063f 7927 e23e
000000d0: c200 95be e875 50be b1df 0ebf c12c 113e
000000e0: 9abb 18bf daa7 ae3e 4ba7 7d3e 6f0b d8be
000000f0: f627 583e 8cc9 463c bd46 443e ea72 d73e
-0.41221526 0.59039134 -0.1927862 0.6783459 -0.08032364 0.08949741 0.3626935 0.015567684
-0.4617631 -0.3722521 0.53698796 -0.3291485 0.3230668 -0.41351718 0.251961 0.19449842
0.3060673 0.5648769 -0.20298202 0.024169346 -0.8266983 -0.36106995 0.5389881 0.8266289
0.50198543 -0.24244101 0.32114947 -0.35905945 -0.3771799 -0.7690241 0.06096911 0.5325355
0.35969433 -0.21126741 -0.038290042 -0.50500906 0.32820734 -0.57601285 0.057285335 -0.59963435
0.0297244 0.459306 0.3436871 -0.17849979 0.35393843 -0.09665123 0.62765586 0.6804322
0.41456392 -0.61122084 0.52609795 0.4417074 -0.2910214 -0.20357478 -0.55810076 0.14177229
-0.5966126 0.34112436 0.24770848 -0.42196223 0.21108994 0.012133013 0.1916761 0.4207986

encoder.lstm_cells.0.conv_i.convs.<inj___-___prod>.lin_dst.weight f4 [8, 8]
00000000: 0cb0 01bf c933 243f 6530 ff3e dac5 8e3e
00000010: 39b8 05bf ab9d 8bbe 86a4 9bbe e615 ef3c
00000020: 2fa2 823e 5b89 1e3e b276 033f 078a 83be
00000030: 3b41 323e 7d96 843e 6855 c9be a11d 4abf
00000040: d22f 6abe 23ba f93e 5a3b 1abf 7f83 01bf
00000050: 09d0 be3e fcc4 933e 2524 c73e 8942 8bbe
00000060: e65a aabe 1f5c d13e 473c 093f 96e6 cf3e
00000070: 65f7 103e 31f6 053e 69e7 e33e 406d 62be
00000080: a242 43be f53b fd3e 924f e5be d6aa 9fbe
00000090: 7ef5 f33e 8877 1d3e d58b ac3d 45f1 86bd
000000a0: 5b42 d93d 1ee6 273f be3d bdbe 7c7f 2b3d
000000b0: 76e8 ad3e b87b fbbe 328e e83e 761f e9bd
000000c0: 28eb 82bd 03a0 d0bd f39f dcbe 1621 14bf
000000d0: 67ca be3e a19b 013e 8e1c 2fbf 9f55 4bbe
000000e0: 6b0f 1c3f 539e 603e 77f3 a03e c7c8 a6be
000000f0: 1937 6fbe 1de5 eabd 6953 93bd 6adc 19bf
-0.5065925 0.6414152 0.4984161 0.27885324 -0.52234226 -0.2726873 -0.3039896 0.029185247
0.2551436 0.15482084 0.5135299 -0.25691244 0.17407696 0.25896063 -0.39322972 -0.7895146
-0.22869805 0.48774824 -0.60246813 -0.5059127 0.37268093 0.28861225 0.38894764 -0.271992
-0.33272475 0.40890595 0.536076 0.4060561 0.14156874 0.13082196 0.4451249 -0.22111988
-0.19068387 0.49459806 -0.4478727 -0.31185025 0.47648233 0.15377629 0.08425108 -0.06588987
0.106083594 0.65585506 -0.36961168 0.041869625 0.33966416 -0.49117827 0.45420986 -0.11382954
-0.06392509 -0.1018677 -0.43090782 -0.57862985 0.37263796 0.12657024 -0.68402946 -0.1985688
0.60961026 0.21935396 0.3143575 -0.32575056 -0.23360862 -0.11469481 -0.071936436 -0.6010195

encoder.lstm_cells.0.conv_i.convs.<prod___-___prod>.att_src f4 [1, 1, 8]
00000000: a46e c93e baf8 b53e 4bc9 37be d07d ac3e
00000010: 1194 f0bd f131 b0be 3eb0 b7be 76c9 3c3f
0.39342225 0.35541326 -0.17947881 0.33689737 -0.117469914 -0.34413102 -0.3587665 0.73744905

encoder.lstm_cells.0.conv_i.convs.<prod___-___prod>.att_dst f4 [1, 1, 8]
00000000: c647 09bf ae5c cabe 6c13 b2be 47bf 23bf
00000010: e2f3 173e e25f 6bbf 4afe 493f 28dc 24bf
-0.5362514 -0.39523834 -0.34780443 -0.6396374 0.14839128 -0.9194318 0.7890364 -0.6439843

encoder.lstm_cells.0.conv_i.convs.<prod___-___prod>.bias f4 [8]
00000000: 6aab 5b3e eb59 1abe 41e4 733e 06d4 443e
00000010: 76b7 883e 23b9 8a3e be8a e1bd 835d 313e
0.21452108 -0.15073363 0.2381754 0.19221506 0.2670247 0.27094373 -0.11012791 0.17320828

encoder.lstm_cells.0.conv_i.convs.<prod___-___prod>.lin_src.weight f4 [8, 8]
00000000: 96d6 0d3e 25f0 573e 125f a93d dbc6 35bd
00000010: a20c f8bc c8a2 d5bd 9861 c03b f2b1 34be
00000020: b6db 44bf d13f 193e bc2f 5d3c 0ca6 e4be
00000030: 7531 de3e f6d9 01bd 3cff 133f a324 433e
00000040: 1c65 e9be 907c 123f e696 19bf 25e7 d9be
00000050: adb3 223e b406 46bf 6336 a53e 9c05 a93d
00000060: c2f1 9b3e 319d d7be 447f 8e3e 0042 89be
00000070: a58d 79be e7f6 43be 8f86 803d ef14 323f
00000080: 7e88 a1be 3cda 38be bb71 b33a 03fe d53d
00000090: af91 053f a2d0 173e 32f9 d8be f4fc 143f
000000a0: b978 3a3f b6d6 ab3d 8294 1c3f 6598 183f
000000b0: 0085 643f e6da 1ebf 1db7 1bbf b69a 4e3c
000000c0: 1bec e6bd 09cf 873e 134d 95be 5e80 3d3e
000000d0: bfed 6ebe baad b73e 2f13 403d fcfd 04bf
000000e0: 5565 20be 9c41 95be c3e2 8a3e 5c8b 9bbe
000000f0: 40a1 023e 066a 12bd 6f71 f0be 1c41 b43e
0.1385139 0.21087702 0.08270086 -0.044379096 -0.030279461 -0.10431439 0.005871009 -0.17646006
-0.7689775 0.1496575 0.01350015 -0.44657934 0.43397108 -0.031702004 0.5781133 0.19056945
-0.45584953 0.5722132 -0.5999588 -0.42559162 0.15888853 -0.7735398 0.32268056 0.08253023
0.30457884 -0.42112115 0.2783147 -0.26808167 -0.2437044 -0.19137155 0.06275665 0.6956319
-0.31549448 -0.18052 0.001369051 0.104488395 0.5217542 0.14825681 -0.4237762 0.58198476
0.7284046 0.08390562 0.61164105 0.59607536 0.8926544 -0.6205276 -0.60826284 0.012610128
-0.11275502 0.26525143 -0.29160365 0.18506 -0.2333288 0.3587473 0.046893295 -0.5195005
-0.15663655 -0.29151618 0.2712613 -0.3037976 0.12756824 -0.035745643 -0.46961543 0.35205925

encoder.lstm_cells.0.conv_i.convs.<prod___-___prod>.lin_dst.weight f4 [8, 8]
00000000: 1c92 f8be 8a00 d6be 63cd f2be f297 2abe
00000010: 19c8 a0be d1e0 eb3c a0f4 11be e42e 353e
00000020: 5dab 2d3f 81e5 743e 4697 21be b46b 0ebf
00000030: 8d87 033e a415 babe 4546 903e 3e6b 973e
00000040: 181b b63e 4445 183f 3f29 2b3f 6e72 173e
00000050: 3fa8 0abf 11c9 f73e 0a53 a4be 06a2 d0be
00000060: d590 213f 77fb fc3e 4871 8a3e f037 683d
00000070: 733a 1cbf 956d 00be 81b3 0e3f 66c9 203d
00000080: e008 91bd fac3 1dbe 0be7 9cbe 417a b63e
00000090: 335f 083e 080e f13e 569d 95bd 4581 c83e
000000a0: a61d bd3e a93f f13d 1833 f03e e0ea cd3e
000000b0: aeb6 f23e 3d96 d13e 4401 3fbe 412d 22bf
000000c0: faff 95bb daab d9bc 7daf 79be 23b6 f2bd
000000d0: 3652 f93d bd4c 023f bd2e 633e b751 d2bd
000000e0: af2e 0fbe 3564 07be c8ca 1fbe 737d 123f
000000f0: 76f9 6e3e 5248 fd3e 7980 d9bc 0c7d 4e3c
-0.48548973 -0.41797286 -0.47422323 -0.16659525 -0.31402662 0.028793724 -0.14253473 0.17693669
0.67839605 0.23915674 -0.15780362 -0.5563309 0.12844677 -0.36344635 0.2817861 0.29574007
0.35567546 0.5948069 0.6685981 0.14789745 -0.54162973 0.4839559 -0.32094604 -0.40748614
0.6311162 0.49410602 0.27039552 0.05669397 -0.61026686 -0.12541802 0.5574265 0.03925457
-0.07081771 -0.1540679 -0.30645022 0.35640147 0.13317566 0.47081017 -0.073054 0.39161125
0.36936682 0.1177972 0.4691398 0.40218258 0.47405 0.40934935 -0.18652827 -0.633503
-0.004577634 -0.026571203 -0.2438335 -0.11851146 0.121738836 0.50898343 0.22185798 -0.10269492
-0.13982652 -0.1322182 -0.15604699 0.5722267 0.2333735 0.4946924 -0.026550518 0.012603056

encoder.lstm_cells.0.conv_i.convs.<inj___-___inj>.att_src f4 [1, 1, 8]
00000000: c46b 223f de60 803e 1a14 75be 276c 203f
00000010: 24e4 893e 3396 053f 7ee1 d53d 9cae c1be
0.6344569 0.25073904 -0.2393345 0.6266503 0.2693187 0.5218231 0.104434 -0.3782853

encoder.lstm_cells.0.conv_i.convs.<inj___-___inj>.att_dst f4 [1, 1, 8]
00000000: 2b9e 323e 5dbf 2bbe 2088 c23e 8683 2e3f
00000010: 681a e63e ea7f 96be c88c db3e 7a9a 163e
0.17443149 -0.16772218 0.3799448 0.6816944 0.4494202 -0.29394466 0.42880845 0.14707366

encoder.lstm_cells.0.conv_i.convs.<inj___-___inj>.bias f4 [8]
00000000: 904b 473e 70be 433e 3688 1b3e 19e0 673e
00000010: 7c82 f73d c463 99bd 9f9c 5e3e b291 c9bb
0.19462419 0.19115615 0.15188679 0.2264408 0.12085435 -0.07489732 0.21739434 -0.0061514014

encoder.lstm_cells.0.conv_i.convs.<inj___-___inj>.lin_src.weight f4 [8, 8]
00000000: dc48 ad3e 84e3 febe 937c a4bd 0619 1bbe
00000010: 9a40 d5be 330f 01bf 0a3f 2a3f ec42 bd3e
00000020: e4ed 9a3e e62f 4b3f 4a98 84be 5f1f 31be
00000030: 4fc7 8e3d ccc3 64be 56f8 f7bd 1052 0fbf
00000040: e513 9d3e c431 b4be 8fa0 f9bd 29d5 e83e
00000050: d2ce 17be 9984 2bbe de8f 003f 72f8 c1be
00000060: be50 fe3d 70f2 383f e5a0 d9be 6efe 18bf
00000070: b482 cabe 4051 dabd 744e 08be ea1b fcbe
00000080: f37d 393e 6702 313e 9e15 d5bd f339 dabe
00000090: 2f68 99be 6557 b3be 3970 95be 12d6 febe
000000a0: e412 92bd efec 24bf 98ce 88be ebc5 9abe
000000b0: 59c8 893e f030 b7be 0fdb e4be aaad 2f3f
000000c0: 0907 e33e 7014 ab3e 2094 32bf fb37 0cbf
000000d0: 55ef 7ebe 259c ef3e 88d6 2a3e 17b3 11bf
000000e0: 0815 923d 5dff dcbe 5164 31be e7af 8cbe
000000f0: e816 d63e 352f ef3d d52c 90bd 9322 803d
0.3384465 -0.49782956 -0.08031573 -0.15146264 -0.4165085 -0.5041382 0.6650244 0.3696512
0.3025962 0.7936996 -0.25897437 -0.17297123 0.06971609 -0.22340316 -0.12107913 -0.5598459
0.3067924 -0.35194218 -0.12188827 0.45475128 -0.1482499 -0.167498 0.50219524 -0.3788486
0.12417744 0.7224493 -0.42505565 -0.5976323 -0.39552844 -0.106600285 -0.13311177 -0.49240047
0.18114452 0.17286073 -0.10404514 -0.42622337 -0.29962298 -0.35027614 -0.29187182 -0.49772698
-0.07132509 -0.6442403 -0.2672012 -0.30229124 0.26910666 -0.35779524 -0.44698378 0.68624365
0.44341305 0.3341403 -0.6975727 -0.5477292 -0.24895985 0.46798816 0.166834 -0.56913894
0.07132918 -0.43163577 -0.17323424 -0.27477953 0.4181435 0.11678926 -0.07039801 0.062565945

encoder.lstm_cells.0.conv_i.convs.<inj___-___inj>.lin_dst.weight f4 [8, 8]
00000000: f45c efbd d87a 703e 662b 363e 452e 153e
00000010: a1e7 90be ecc8 ee3e 660d f5bc 1a40 95be
00000020: 345e a53e 256b 013f 08a5 2c3f 44d2 4d3e
00000030: 819d 28be 2aef bb3e d1a3 ee3e 6716 0cbf
00000040: 0c0d 13bc eaaa dabe 26af 2d3d 043e 6c3e
00000050: aabc 35be 98a0 edbd 612e ae3e a161 26be
00000060: 122d e5be c94f f53e 04a2 c2be fd07 babd
00000070: f3c3 c53b 574e cfbd 8633 03bf 7519 623e
00000080: 9b1d 59be 9beb a7be 3ad1 993d 3252 afbe
00000090: 30d8 aabe e723 8abe a693 2abe fc57 a1be
000000a0: 9822 6abe 2dea 2b3e d7b2 dabe 49d7 b2be
000000b0: b623 683d c38f 143e 82c7 8d3e 5b30 bfbe
000000c0: e20f 853e d087 ad3e ec86 8a3e 509f 17bf
000000d0: 3a3a 91be 6bad 16bf bed0 a6be f6e5 903e
000000e0: f42c 07bd 2c74 843e 49e9 d7be 70e3 9a3d
000000f0: 8d13 d4be c4b5 7f3e 5f10 57be 09c4 51be
-0.11687651 0.23484361 0.17789993 0.14568432 -0.2830172 0.46637666 -0.029913615 -0.29150468
0.32298434 0.50554115 0.6743932 0.20099741 -0.16466333 0.36705905 0.46609357 -0.54721683
-0.008975279 -0.42708522 0.042403363 0.23070532 -0.17747751 -0.116028965 0.3401976 -0.1624818
-0.44760948 0.47912434 -0.38014233 -0.09083555 0.006035322 -0.10122364 -0.51250494 0.22080024
-0.212027 -0.3279694 0.0751061 -0.34242398 -0.33368063 -0.26980516 -0.16657886 -0.3151244
-0.22864759 0.1678855 -0.4271457 -0.34929875 0.05667468 0.14507966 0.27691275 -0.3734158
0.2598868 0.3389268 0.27056062 -0.59227467 -0.28364736 -0.58858365 -0.32581133 0.28300446
-0.033001855 0.25869882 -0.4217017 0.075629115 -0.41421166 0.24971682 -0.21002339 -0.20484938

encoder.lstm_cells.0.W_i.inj f4 [1, 8]
00000000: e6b2 f63e 6044 773f 2866 5bbe 0128 b9bd
00000010: 283c ae3d 0df2 2dbe a865 ad3d 3090 f43e
0.48183364 0.96588707 -0.21425688 -0.09040833 0.08507568 -0.16986866 0.08466655 0.47766256

encoder.lstm_cells.0.W_i.prod f4 [1, 8]
00000000: 4d3d 2ebf 9c3e 12bf a009 f13e bb0d de3e
00000010: 734b 97bd 36e0 61be 6662 4cbf 1025 63bf
-0.6806229 -0.57126784 0.47077656 0.4336985 -0.07387438 -0.22058186 -0.79837644 -0.8872843

encoder.lstm_cells.0.b_i.inj f4 [1, 8]
00000000: 25c5 263f 862c c1be 22f1 0f3f f8d1 183f
00000010: 7a45 343f 5581 33bf 4efb 4d3f 0dc8 c8be
0.6514457 -0.3772928 0.56227314 0.59695387 0.7041851 -0.7011922 0.80461586 -0.39215127

encoder.lstm_cells.0.b_i.prod f4 [1, 8]
00000000: b57a 043f 6fb5 1d3f b9f3 fb3d c15c 3e3e
00000010: cfe0 a13d f356 d2be 813c 903e e628 23bf
0.51749736 0.6160497 0.12302346 0.1859007 0.07904207 -0.41081962 0.2817116 -0.6373428

encoder.lstm_cells.0.conv_f.convs.<inj___-___prod>.att_src f4 [1, 1, 8]
00000000: 5c82 653e c37a 88be e295 1abf 98db c1bd
00000010: bf84 e3be e355 6b3f be07 e63e c5a4 ee3e
0.2241301 -0.2665616 -0.60384953 -0.09465712 -0.44437215 0.9192793 0.44927782 0.46610084

encoder.lstm_cells.0.conv_f.convs.<inj___-___prod>.att_dst f4 [1, 1, 8]
00000000: f41b d03e 8aaa 783d 28a9 2d3f 9850 2abf
00000010: 246f 9c3c da15 25bf f42f 753e a7df 20be
0.40646327 0.060709514 0.67836237 -0.66529226 0.019095965 -0.6448647 0.23944074 -0.15710317

encoder.lstm_cells.0.conv_f.convs.<inj___-___prod>.bias f4 [8]
00000000: cd9b 873e 595b a2bc 3efe 833e 7f7a 6a3e
00000010: f26e 643e 304f 913e 6199 ea3d f1b1 9f3d
0.26486054 -0.019818949 0.2577991 0.22898291 0.22307947 0.28380728 0.11455036 0.077976115

encoder.lstm_cells.0.conv_f.convs.<inj___-___prod>.lin_src.weight f4 [8, 8]
00000000: 5510 bcbe d9d6 213e abe0 f33e aa8d 6a3d
00000010: 8285 06bf 088c d7ba 307c 123e 6756 cfbe
00000020: 908d e03e 1c7b 6bbe da04 903d f897 77be
00000030: c1d5 40be 4977 8e3e 9d48 8a3e 85d8 1b3e
00000040: bc58 603c 5964 6f3f 0ea0 a9be a526 36bf
00000050: 36fe 1dbf 43dd a23e 0a71 9b3e a923 253e
00000060: 095b 8d3c da9e 693d 2e08 48bf 486b 4abf
00000070: 6a7f 8c3d 69bb d03e 79dc 563f af98 e6be
00000080: 8678 f73e e1b9 a0be 0e84 843e 70e8 8b3e
00000090: ddc2 bb3e 1174 053f 4861 0a3f 9b1f 3b3e
000000a0: 4fae 053f 1173 813d 9d22 a73d 1aa9 e7be
000000b0: 8902 72be 3292 4abf d4a7 943d 0026 6bbe
000000c0: f2cb fdbd a9b0 06bf 7962 1fbf 28cd 14bd
000000d0: 57f0 753e 807b 283f e88d ea3e 3dd0 aabe
000000e0: 9726 b7be 0a6f 113e 5396 a83d b00c 48bf
000000f0: 25ac ad3e 6e9d 293f de19 923e cbc6 26bf
-0.3673121 0.15804614 0.47632346 0.057264008 -0.52547467 -0.0016444931 0.14305186 -0.40495607
0.43858004 -0.22996181 0.07032175 -0.24179065 -0.1883154 0.27825382 0.27008525 0.15219314
0.013693031 0.93512493 -0.33129925 -0.71152717 -0.6171602 0.31809434 0.3035968 0.16126885
0.017255323 0.05703626 -0.7813748 -0.7906995 0.0686024 0.40767983 0.83930165 -0.45038363
0.4833414 -0.31391814 0.25882 0.27325773 0.36672106 0.5213023 0.5405469 0.18273775
0.522191 0.06320775 0.08160899 -0.45246202 -0.2363378 -0.79129326 0.07258573 -0.22963715
-0.12392415 -0.5261331 -0.6225963 -0.036328465 0.24017464 0.65813446 0.4581139 -0.33361998
-0.3577163 0.14202514 0.08231797 -0.7814436 0.33920398 0.66255844 0.2853536 -0.65147084

encoder.lstm_cells.0.conv_f.convs.<inj___-___prod>.lin_dst.weight f4 [8, 8]
00000000: 8ef8 183f 61ad a43e 7edd fb3e 4142 b7be
00000010: 0f61 b33e 6ea7 04bf d869 293f 31c7 b0be
00000020: 2a8d e93e f0d4 1e3e 46c1 783e 2184 88bc
00000030: 3ba8 4f3e 33b4 a6be 5c55 14bf a07a 9bbe
00000040: 0944 123f 5323 d7bd bd12 8d3e 0060 30be
00000050: c49b e83e 4f8a 8a3e 673a 8c3e 3d87 c9be
00000060: b10f 18bf 94d7 10bd c3bf e2be 51eb e53e
00000070: 4678 15bf 9e6d be3e 120c 0e3f d680 c73e
00000080: 3ff1 7d3e 91d9 10bf 3405 1f3f 1b9d 7dbd
00000090: 3bbd 0dbf 424f 123f 14ae 63be b5d6 78bd
000000a0: 412e ef3e dbf0 f6be ef9f 04bf 51c3 383d
000000b0: ea36 9cbd 757d 743e 6314 12bf 8bc8 d13d
000000c0: 8654 3abe 5079 79be 3873 f6be e834 c13e
000000d0: 1a1c eb3d d647 1dbf a32c 0a3f b6f2 dd3d
000000e0: efac e73c fe97 d3be cb69 7b3c da95 0a3f
000000f0: 729a d83e d1ff c4be 39b2 003f cc66 f63d
0.59754264 0.32163528 0.49192423 -0.35792735 0.35034987 -0.5181798 0.6617713 -0.3452697
0.45615512 0.15510917 0.24292478 -0.016664566 0.20279019 -0.32559356 -0.5794275 -0.30366993
0.57135063 -0.105047844 0.2755336 -0.17224121 0.4543134 0.27058646 0.27388307 -0.3936099
-0.59398943 -0.03536184 -0.44286928 0.44906095 -0.5838665 0.37193006 0.5548717 0.38965482
0.2479906 -0.5658198 0.62117314 -0.061917406 -0.5536687 0.5715219 -0.22234374 -0.060751636
0.46714976 -0.48230633 -0.5180654 0.045108143 -0.076276615 0.23875983 -0.5706236 0.10243329
-0.18196306 -0.24362683 -0.4813478 0.37735677 0.11479969 -0.6143774 0.5397436 0.10837309
0.028280703 -0.41326898 0.015345047 0.54134905 0.42305332 -0.38476422 0.50271946 0.12031326

encoder.lstm_cells.0.conv_f.convs.<prod___-___prod>.att_src f4 [1, 1, 8]
00000000: 686c e73e b2a3 babe 5e8d 5a3f 2ea4 21bf
00000010: d8b8 33bf e490 64be 4a0d 393f 59ee 603d
0.45199895 -0.36453015 0.8537196 -0.63141143 -0.70203924 -0.22320896 0.722859 0.054914806

encoder.lstm_cells.0.conv_f.convs.<prod___-___prod>.att_dst f4 [1, 1, 8]
00000000: 480a 743f 7eb3 45bf f5a1 4abf 94f0 41bf
00000010: 95c0 1ebf 18ec cc3e a26e bb3e ecc6 193f
0.9532819 -0.7722701 -0.79153377 -0.7575772 -0.62012607 0.40023875 0.36607844 0.60069156

encoder.lstm_cells.0.conv_f.convs.<prod___-___prod>.bias f4 [8]
00000000: cd9b 873e 595b a2bc 3efe 833e 7f7a 6a3e
00000010: f26e 643e 304f 913e 6199 ea3d f1b1 9f3d
0.26486054 -0.019818949 0.2577991 0.22898291 0.22307947 0.28380728 0.11455036 0.077976115

encoder.lstm_cells.0.conv_f.convs.<prod___-___prod>.lin_src.weight f4 [8, 8]
00000000: 4d9c dc3e a91b 283f e94f 2a3f e29d f8be
00000010: 54a7 493f edd1 37bf 0eed 77be ad73 72be
00000020: 7371 e43b cb0a d33d 0d05 14be 9e66 0ebe
00000030: 12c0 9f3d dff3 083f dc0f 9d3e b933 bf3e
00000040: b2ee 9a3e bbc7 433f 03cc 423d 7a03 4dbd
00000050: e16e d23e 669e 61bf 8ebb 4abf ac13 a13e
00000060: 83db 17be b586 0b3e 7b15 5bbe f5cf 1d3d
00000070: 8351 263f 7dc7 01bf 4ce7 6e3e bdd3 2b3f
00000080: 4b95 f3be 9f03 c3be c2c9 2bbf 05ea f6be
00000090: 43b0 6e3b 84cc 84be 0578 c3be 3a7d cdbd
000000a0: 6efb ee3d 76c0 2b3d 2157 563f a62f 093d
000000b0: bb3a 90bd 3af4 ffbc 9fa6 b4be 38b8 213f
000000c0: 589e bf3e 2b1e 343f bfb9 91be d260 923e
000000d0: c047 1e3f 7111 20bf c604 d13e 40f2 053f
000000e0: 1db3 5b3e efad e73e 12e3 71bd dbf1 9fbe
000000f0: 717f c83d 0f36 5cbd 7452 9abe fd1a 363e
0.43087998 0.65667206 0.66528183 -0.48557955 0.7877095 -0.71804696 -0.24211523 -0.2367694
0.006971532 0.10304793 -0.14455052 -0.13906333 0.078003064 0.5349712 0.30676162 0.3734415
0.30260235 0.7647664 0.047557842 -0.050052144 0.4110022 -0.8813232 -0.79192436 0.3146032
-0.14829831 0.13625605 -0.21394913 0.0385284 0.64968127 -0.5069502 0.2333042 0.6711996
-0.4757484 -0.380887 -0.67104733 -0.48225418 0.0036420978 -0.25937283 -0.38177505 -0.10033651
0.1166905 0.041931592 0.837267 0.033492707 -0.07042452 -0.031244386 -0.35283372 0.6317172
0.37425494 0.7035853 -0.28462026 0.28589493 0.6182823 -0.62526613 0.40823954 0.5232277
0.21455045 0.45249888 -0.05905444 -0.3123921 0.097899325 -0.05376249 -0.30141032 0.17783733

encoder.lstm_cells.0.conv_f.convs.<prod___-___prod>.lin_dst.weight f4 [8, 8]
00000000: 0ffd fabe 7ea9 033f 769f 363f 6cf2 8b3e
00000010: fb30 edbe 99c3 9c3e f597 383e 4f50 eb3d
00000020: e6ab 2e3e 790d f43e d0b8 c2be 272e 78be
00000030: fc71 793e 0ad7 7a3d 7331 d73e 0ed7 8bbe
00000040: 9a0f 56bd 806b fd3d b859 8fbe 1cab a13e
00000050: 0fd5 113e f4f9 11bf c78a 0fbe 1c59 6bbe
00000060: 113d d53c de34 71bd 597e 3abf ea7e 5fbe
00000070: 1676 a93c d71c 41be 6e0e f93e 9f6c a6bd
00000080: 79e7 b83e a1cb 2c3e d0d6 22bf 483f 143d
00000090: 988e 163f ec60 d3be a7f2 f2be 7cd1 263f
000000a0: 4a85 063f 66eb b8be 9553 fa3e c425 023d
000000b0: b4be 2fbf 412c 7a3d 7d82 8e3e fe8e 73be
000000c0: e312 7c3e d361 0bbf be63 0b3f 661d 223f
000000d0: 022c 823e 4ddd f53d 2fab 903e 38aa febe
000000e0: 9f3c fcbd 21a2 83bd fb69 65be 0d5f b5be
000000f0: df96 ad3e d95c d53e acfd f7be 0813 183e
-0.49021193 0.514305 0.7133707 0.2733339 -0.46326432 0.3061798 0.18026717 0.11489927
0.17057762 0.4766653 -0.38031626 -0.24236356 0.24359888 0.061240233 0.42029914 -0.2731251
-0.052260973 0.123740196 -0.27998137 0.3157586 0.14241432 -0.57022023 -0.14017783 -0.22983211
0.026030095 -0.05888831 -0.7284904 -0.21825758 0.02068619 -0.18858658 0.4864382 -0.081261866
0.361141 0.16874553 -0.6360903 0.036193162 0.5881133 -0.41284883 -0.47450754 0.651634
0.5254713 -0.36117095 0.48891893 0.031774297 -0.68650365 0.06107736 0.2783393 -0.23785016
0.2461658 -0.5444614 0.5444907 0.6332611 0.254242 0.120051004 0.28255603 -0.49739242
-0.1231625 -0.06427408 -0.2240371 -0.3542408 0.33904168 0.416724 -0.48435724 0.1485101

encoder.lstm_cells.0.conv_f.convs.<inj___-___inj>.att_src f4 [1, 1, 8]
00000000: 0a76 c3be c62e ffbe 837a c43e ce43 69be
00000010: b383 fd3e d5db abbe f2f6 0e3f 4736 2abf
-0.38175994 -0.49840373 0.3837472 -0.22779772 0.4951454 -0.33566156 0.5584556 -0.6648907

encoder.lstm_cells.0.conv_f.convs.<inj___-___inj>.att_dst f4 [1, 1, 8]
00000000: 85f3 d2be 2ebb 7e3e 05c6 303e bb7a 55be
00000010: 7831 f93e 790d 0e3f 1790 17bf ce2a dfbe
-0.41201416 0.24876091 0.17263038 -0.20847599 0.48670554 0.5548931 -0.5920424 -0.43587345

encoder.lstm_cells.0.conv_f.convs.<inj___-___inj>.bias f4 [8]
00000000: 7c21 623e d061 7a3e 2fc7 4e3e 7d6a 863e
00000010: 7d0a f43d f0e5 883c 5c2b 6a3e 46b4 153e
0.22083086 0.24451375 0.2019317 0.2625312 0.11916063 0.016711205 0.22868103 0.1461955

encoder.lstm_cells.0.conv_f.convs.<inj___-___inj>.lin_src.weight f4 [8, 8]
00000000: b09c c23e ea86 213f 312e 583e c74a e03e
00000010: a74f 69be 83df d83e f395 213f a53c 35bf
00000020: a172 ccbe a355 bd3e 9d42 7d3e 31eb dabe
00000030: da9a 6fbd 1302 9cbd 9ed6 713e 4df3 e2be
00000040: 1983 fc3e 2410 d93e 0f5e 12bf 16ef 10be
00000050: 75a2 2c3d 2375 6a3e b4dd 343f 6fc2 ec3c
00000060: b744 ad3d 5a6a 453f 9874 eabe 8cc2 c5be
00000070: 460b ebbc 76ac c4be 4186 8e3e 752e 23bf
00000080: f5fd 29bd 6e6b e33d 6896 4c3e ba6e f8be
00000090: 000b 30bf 9e3b 4d3e ac10 d03e 294d eabe
000000a0: 52ba 583d 9d5d 18bf 8361 533e 2479 3c3f
000000b0: 0aa2 f53e aec3 dcbe 80e7 633e 6a6d fd3e
000000c0: cab3 253e 90fb 203f 68d3 cdbe d983 a1be
000000d0: 5f93 a7be 27ff 9b3d 08b3 9d3e 9e8b e6bd
000000e0: adfd 95be 4805 a0be d1a5 233e 5459 1ebf
000000f0: f96f bfbd 8d38 ad3c 10fc 36be eb8a 3e3e
0.38010168 0.6309649 0.2111137 0.4380705 -0.22784291 0.42358026 0.6311943 -0.7079566
-0.39931205 0.36979398 0.24732442 -0.42757562 -0.058497287 -0.07617583 0.23617026 -0.4432625
0.4931877 0.42395127 -0.5717477 -0.14153704 0.04214712 0.22896247 0.7065079 0.028901307
0.08460372 0.77115405 -0.4579208 -0.3862499 -0.028691899 -0.38412827 0.27836803 -0.6374276
-0.041501958 0.11104475 0.1997925 -0.48521978 -0.68766785 0.20042273 0.4063772 -0.45761994
0.052912064 -0.5951784 0.20642667 0.73622346 0.47975188 -0.43118042 0.22256279 0.4949754
0.16181865 0.62883854 -0.40200353 -0.31545904 -0.32729623 0.07617026 0.30800653 -0.112570986
-0.29295102 -0.3125403 0.15981223 -0.61855054 -0.09347529 0.02114513 -0.17869592 0.1860768

encoder.lstm_cells.0.conv_f.convs.<inj___-___inj>.lin_dst.weight f4 [8, 8]
00000000: a183 213d 0c23 dc3e 358a 5ebd 11d9 c5be
00000010: 0689 dd3e 8221 af3d 06b3 33be 05a1 cebe
00000020: 5200 133e 8f85 15bf 631f 253e ec00 9b3e
00000030: ac84 09bf f142 cdbe 1260 e1be ddc1 033f
00000040: 6246 053f 04f8 1c3d 202b 133f 91a9 51be
00000050: c131 18bf 9b08 5b3e 6332 5e3e f5af 193f
00000060: add5 4db9 a94c f03e 0a33 c03e e3f1 e23e
00000070: 5690 1bbf 4e17 013f 89a6 05bf 9e8c 0c3f
00000080: f786 cfbc 53f0 0abf 6351 2e3e 4572 ffbd
00000090: accf 0cbf fa54 63be de8f 813d 342b f43e
000000a0: 8dba 40be 8735 ba3e 6ae7 9c3d 3053 a83c
000000b0: 98ef ef3d adc2 cdbe df44 02bf da17 45be
000000c0: 0919 12bf 0032 92be 876d e73c 1a72 cebe
000000d0: 0d0b 82be 0a5d e1bd 8ac9 90bd 1c0b adbe
000000e0: cdb9 f03c 8ff7 afbd d865 333e 2732 e33c
000000f0: 0990 9cbe e6e4 57be 02ed eabb fe9d c3be
0.03943217 0.4299549 -0.054331023 -0.3864217 0.43268603 0.08551313 -0.17548761 -0.40357223
0.14355591 -0.5840692 0.16125254 0.3027414 -0.53718066 -0.40090135 -0.44018608 0.51467687
0.5206052 0.038322464 0.5748768 -0.2047484 -0.5945092 0.21390001 0.21698909 0.60034114
-0.00019629924 0.46933487 0.3753894 0.4432517 -0.60767114 0.50426185 -0.5220724 0.54902065
-0.025332911 -0.54272956 0.17023234 -0.12472967 -0.5500438 -0.22200385 0.063262686 0.4768921
-0.18821163 0.36368963 0.07661326 0.02054748 0.11715621 -0.40187588 -0.5088634 -0.1924738
-0.5706945 -0.28553772 0.028250469 -0.40321428 -0.25399056 -0.11004074 -0.070696905 -0.33797538
0.029385472 -0.0859214 0.17519319 0.027733875 -0.3057864 -0.21083412 -0.007169367 -0.38206476

encoder.lstm_cells.0.W_f.inj f4 [1, 8]
00000000: 7fd1 a5be 69f6 0d3f 4732 cd3e 3ddf 023f
00000010: 2f00 25bf c880 24bf 900e 7dbe cbec 7e3f
-0.32386395 0.5545412 0.4007742 0.51121885 -0.64453405 -0.64259005 -0.24712586 0.9958007

encoder.lstm_cells.0.W_f.prod f4 [1, 8]
00000000: ae7a 5b3d 117a e5be adb2 8d3e 09fb 60be
00000010: e16b 2ebf 58a5 613f d6d9 37bf 6888 28bd
0.053583793 -0.44819692 0.2767538 -0.21970762 -0.6813336 0.8814292 -0.71816766 -0.041145712

encoder.lstm_cells.0.b_f.inj f4 [1, 8]
00000000: 504b 3a3f e0fd 5a3f 645e 793f b43a 8f3d
00000010: bc3c 0dbf 6c17 4d3e 3003 2e3f d09d 2abf
0.7277117 0.8554363 0.97409654 0.069936186 -0.551708 0.20028466 0.67973614 -0.6664705

encoder.lstm_cells.0.b_f.prod f4 [1, 8]
00000000: 84e0 a23d aa5f 02bf dfdb 3e3e ac0e 31be
00000010: 0dab e2bd 9b8d c93c 6e4f 29bf 7977 3f3f
0.07952979 -0.5092722 0.18638562 -0.17290753 -0.110677816 0.024603656 -0.66136825 0.74791676

encoder.lstm_cells.0.conv_c.convs.<inj___-___prod>.att_src f4 [1, 1, 8]
00000000: f922 1e3f 0355 57bd 0122 5fbe 265b 31bf
00000010: 113b b7be ccff b73e d232 6abe a258 f2be
0.61772114 -0.052571308 -0.21790315 -0.69279706 -0.35787252 0.35937345 -0.22870949 -0.47333246

encoder.lstm_cells.0.conv_c.convs.<inj___-___prod>.att_dst f4 [1, 1, 8]
00000000: b2bc a43d 82f6 27bf 73b2 3ebf 2d9f fdbe
00000010: 9148 2ebf af01 0fbf 12ef 433f 3067 5d3e
0.08043803 -0.65610516 -0.7449104 -0.49535504 -0.6807948 -0.55861944 0.7653667 0.21621394

encoder.lstm_cells.0.conv_c.convs.<inj___-___prod>.bias f4 [8]
00000000: 8eb3 813e 1beb fb3d 7b64 bbbd 02be 873e
00000010: 79ca 1a3e 6974 53be 756e 25be ee28 763e
0.25332302 0.12300702 -0.091500245 0.26512152 0.151163 -0.20649876 -0.16155417 0.24039051

encoder.lstm_cells.0.conv_c.convs.<inj___-___prod>.lin_src.weight f4 [8, 8]
00000000: 2532 613e ffef 0f3d a53f 503e 19fe a9bc
00000010: 3768 853e 3454 babc 7797 58be a256 bd3e
00000020: 53f0 83be 43a1 0bbd 67a6 a0be 23ad d7be
00000030: 55ad 90be 8d18 183f c3a7 ff3e fd18 653e
00000040: c9b2 fa3e ac50 d7be e2ae 573e 93b5 e23e
00000050: 5524 b93e 8495 18bf 1e96 7a3d 157b 4bbe
00000060: 2a28 67be 6134 1a3d a290 8abe 469f c2be
00000070: 4a89 dfbe 99b8 0b3e 39eb fa3c 29c6 a2be
00000080: 6a11 14bd 19cd 783d c7b5 40bf 237c a13d
00000090: 963a 043f 7a94 303e fde3 70be 2913 243e
000000a0: eb3d 263e 9339 dc3e 12fe 88be cc0e 08bf
000000b0: 19f8 803e 5037 e23c 29e3 84be c1e9 74be
000000c0: d0bc 08bf 8934 ba3e 6bb0 483d 496f 2e3f
000000d0: 1d88 3d3f 4aeb 3c3d 84c8 8fbd d661 11be
000000e0: 53db 2f3f 134f 6fbe 127a 0b3d b1ce ddbe
000000f0: 8712 0f3c ea90 8bbe 98b5 b03d 7e01 c43d
0.21991785 0.035140987 0.20336778 -0.020751046 0.26056072 -0.02274523 -0.21151529 0.36980158
-0.2576929 -0.034089338 -0.31376955 -0.4212428 -0.28257242 0.5941246 0.4993268 0.22372814
0.48964527 -0.42053735 0.21062806 0.44279155 0.36160532 -0.5960314 0.06117832 -0.19871171
-0.22573915 0.03764761 -0.2706347 -0.3801214 -0.4365943 0.13644637 0.030629741 -0.3179181
-0.03614942 0.06074247 -0.7527737 0.07885005 0.51651895 0.1724414 -0.2352447 0.16022934
0.16234557 0.43012676 -0.2675634 -0.5314758 0.25189283 0.027614266 -0.2595456 -0.23917295
-0.53413105 0.36368206 0.04899637 0.6813856 0.7403582 0.046122827 -0.07020667 -0.14197478
0.6869404 -0.23370008 0.034051962 -0.43321756 0.008732445 -0.27258998 0.08628386 0.09570597

encoder.lstm_cells.0.conv_c.convs.<inj___-___prod>.lin_dst.weight f4 [8, 8]
00000000: 18d6 853e ae15 01bf 60cf cebe d207 15bd
00000010: 5c05 97be 28db a73e 50bc 093f c1b8 65bd
00000020: c555 243f 90f2 4abe c62b a6be 2f10 b8be
00000030: 5fa3 b7be e2e9 febe 9b1b 25bf c039 0cbf
00000040: caf7 633e 3234 dc3e 2a67 183f 8cf4 df3e
00000050: 52fe d83c 3ea5 513d 8158 edbe f51d 6c3e
00000060: 0b47 06bf e440 b13e b2c3 073e 774c d33d
00000070: e4ab 923e 88f8 b2be f8b2 da3e 4964 923e
00000080: 030b ee3e 660a 0b3e a0f4 cf3e e9e0 a83e
00000090: a6d4 ac3e 8a11 cd3e 87f2 51be 0cbc ca3e
000000a0: e0fc 503e 35cd d93e 50f4 1d3f 95c5 5d3d
000000b0: 1165 29be 8703 04be 1563 993d 9e77 c63d
000000c0: 8b7f 6abe 4fd3 d93e 9aa5 b13e ccee 98be
000000d0: ec5a e0bd 2f4a d93b e799 94be ef82 c33d
000000e0: 4b3f 81be d8ff c0be afeb 5cbe bf96 05be
000000f0: 0151 053f 8eea 9c3e 9fce 343f 84af 313e
0.26139903 -0.50423706 -0.4039259 -0.03638441 -0.29496276 0.3278439 0.5380297 -0.0560844
0.64193374 -0.19819093 -0.3245527 -0.35949847 -0.3586683 -0.49787813 -0.6449525 -0.5477562
0.22262493 0.43008572 0.59532416 0.43741262 0.026488457 0.051182978 -0.46356586 0.23058303
-0.5245215 0.3461982 0.13258246 0.10317319 0.28646767 -0.3495524 0.42714667 0.28592137
0.46492776 0.13578185 0.40616322 0.32984093 0.33755988 0.40052444 -0.20502673 0.39596593
0.20408964 0.42539373 0.61700916 0.054143507 -0.1654246 -0.1289197 0.074896015 0.09690784
-0.22900216 0.42544028 0.34696656 -0.29869688 -0.10954842 0.006631158 -0.29023668 0.09546458
-0.252436 -0.37695193 -0.21574281 -0.13045786 0.5207673 0.306477 0.7062778 0.1735211

encoder.lstm_cells.0.conv_c.convs.<prod___-___prod>.att_src f4 [1, 1, 8]
00000000: d139 c63e 63f4 3fbf c71e 42bf 7269 b4be
00000010: bdce 603e 53a9 30bf 7c32 f4be 5b21 a1be
0.38715985 -0.7498228 -0.7582821 -0.35236698 0.21953864 -0.6900837 -0.47694767 -0.3147076

encoder.lstm_cells.0.conv_c.convs.<prod___-___prod>.att_dst f4 [1, 1, 8]
00000000: 7923 ed3d 5352 60be 2068 193e 13ed d9be
00000010: 1724 f0be 407d a3be 3645 86be 8c9c 5abf
0.115790315 -0.21906404 0.14981127 -0.42563686 -0.46902534 -0.31931496 -0.2622468 -0.8539512

encoder.lstm_cells.0.conv_c.convs.<prod___-___prod>.bias f4 [8]
00000000: 8eb3 813e 1beb fb3d 7b64 bbbd 02be 873e
00000010: 79ca 1a3e 6974 53be 756e 25be ee28 763e
0.25332302 0.12300702 -0.091500245 0.26512152 0.151163 -0.20649876 -0.16155417 0.24039051

encoder.lstm_cells.0.conv_c.convs.<prod___-___prod>.lin_src.weight f4 [8, 8]
00000000: acad e03e d0a5 f63e dac5 953e 920c f1be
00000010: 545c 99be 991b d9be 2a3b 88be 9c93 8f3e
00000020: 8d7c 2d3e 749e 083f 5159 23bd 0312 b8be
00000030: e438 85be 4925 14bf 3f22 07bf c464 b43e
00000040: b8b4 9d3e b432 f83e 114d 17be d996 41bc
00000050: 86c4 e0be 0461 df3d 8512 af3e 9f92 39be
00000060: 99be a23e a025 853e 05a5 bf3e 558a 003c
00000070: 916a bebe 8c7f dabd b556 61be d9f5 97be
00000080: cb6f 8a3e ec4c 0a3d 5a46 48be f9a2 babe
00000090: 531f e23d 8330 21bf d098 55bd 49bc 183e
000000a0: 5eb7 8a3e 7178 3ebe 01b7 88bd 3b9e bd3e
000000b0: 0e50 413e fd7d cbbd b3ed 1a3f fb47 afbd
000000c0: 0b1a c6be ad1d ea3d c962 a4be 60b2 75bd
000000d0: c55e f9be 1a11 20be c7cd 2a3f 33ac 33bf
000000e0: 9e5f f63e 89e4 8ebe 5b68 433c 1a4f 2e3e
000000f0: ef22 3a3f 4614 01bf a102 1abe 8297 b53e
0.438825 0.4817338 0.2925251 -0.47079903 -0.29953253 -0.42403868 -0.2660764 0.28042305
0.16942044 0.5336678 -0.0398801 -0.35951242 -0.26019967 -0.5786939 -0.5278663 0.35233128
0.3080194 0.48476183 -0.14775492 -0.01181575 -0.43899935 0.10907176 0.34193817 -0.18122338
0.3178604 0.26005268 0.37430587 0.007845481 -0.3719068 -0.10668859 -0.22005732 -0.29679754
0.27038416 0.033764765 -0.19558087 -0.36452463 0.11041131 -0.6296465 -0.052147686 0.14915575
0.27093023 -0.18600632 -0.0667553 0.37034783 0.18878195 -0.0993614 0.6051895 -0.08558651
-0.38691744 0.114314415 -0.32106617 -0.059984565 -0.48705116 -0.15631524 0.6672024 -0.7018463
0.48119825 -0.27908733 0.011926736 0.17022362 0.72709554 -0.5042156 -0.15040065 0.35467154

encoder.lstm_cells.0.conv_c.convs.<prod___-___prod>.lin_dst.weight f4 [8, 8]
00000000: 9b24 663e 323e abbd 3a9e 3a3d a2ec e5be
00000010: 16cd e0be a3be 2f3f 6732 bdbe eaae ca3a
00000020: e18e 373d 89af 323f f121 1c3d 1f73 c6be
00000030: a154 41be 703f 3e3e b988 3a3e 33a6 cd3e
00000040: f1f1 21be 1018 7f3e 0a36 2fbf 97bf 8f3e
00000050: 1762 523e f335 f03e 6c2d 8ebe 750d 0cbe
00000060: 32e6 893e 826b aabe 4bcf a1be e9de 01bf
00000070: a366 b83a e29b 7e3e e9b0 c23d 3dde 8cbd
00000080: 0cf2 ab3e aa16 90be 7e32 723e 82c9 8bbd
00000090: ff29 acbe 221a ca3e 316d 09bf f38f 86bc
000000a0: ccdb d4be 14fc a83d 079a d5bd a88c 913e
000000b0: 47ef bfbe 94eb 843e 198d 0fbf aabd 873e
000000c0: e593 acbe 2732 de3e 1cb5 afbd 7432 ac3d
000000d0: f7cc 14be 135b 873e 0a74 0c3e 4a20 26bf
000000e0: 5770 3e3e 649f 9fbe 5fe3 233f b7b0 423e
000000f0: 291a 41be 17fd e7be 118d 143e 013b f6be
0.22474901 -0.08361472 0.045561053 -0.449071 -0.43906468 0.68650264 -0.36952516 0.0015463505
0.044813994 0.69799095 0.038118307 -0.38759705 -0.1887994 0.18578887 0.18216218 0.40165862
-0.1581495 0.24911523 -0.6844183 0.2807586 0.20545231 0.4691616 -0.2776903 -0.13677008
0.26933438 -0.33285147 -0.31603464 -0.5073076 0.0014068674 0.24864152 0.09506399 -0.06878326
0.33583105 -0.2814229 0.23652074 -0.06825544 -0.3362579 0.39473063 -0.5368224 -0.016426062
-0.41573942 0.08251205 -0.10429769 0.28427625 -0.37487242 0.25960982 -0.5607467 0.2651189
-0.33706585 0.43397638 -0.08579466 0.08408061 -0.14531313 0.26436672 0.1371614 -0.6489302
0.18597542 -0.31176293 0.64018816 0.19012724 -0.18857636 -0.4531028 0.14506938 -0.4809189

encoder.lstm_cells.0.conv_c.convs.<inj___-___inj>.att_src f4 [1, 1, 8]
00000000: 8ca3 4f3f 52fd a4bc a471 293f 389f f53d
00000010: 2033 4ebf 7b9d 2b3f e21e bcbe 5777 d5be
0.8110893 -0.020140324 0.66189027 0.11993259 -0.8054676 0.6703717 -0.36742312 -0.41692612

encoder.lstm_cells.0.conv_c.convs.<inj___-___inj>.att_dst f4 [1, 1, 8]
00000000: cf9a 43bf 6c5c 41bf 801a 983e d3a6 84be
00000010: 911a b93e 2d86 35bf 28cb 1b3f eb7e 11bf
-0.76408094 -0.7553165 0.29707718 -0.25908527 0.3615308 -0.7090786 0.60856867 -0.56834286

encoder.lstm_cells.0.conv_c.convs.<inj___-___inj>.bias f4 [8]
00000000: b9ed 533e 19c6 8b3e 42e1 77be 156e 23be
00000010: 88a4 7fbd 6a7a 123e f794 493e 4ff1 893e
0.20696153 0.27299574 -0.24207023 -0.15959962 -0.06241277 0.1430451 0.19685732 0.26941916

encoder.lstm_cells.0.conv_c.convs.<inj___-___inj>.lin_src.weight f4 [8, 8]
00000000: f8c8 c93e f299 d13e e6e4 863e 2b80 873d
00000010: 9c25 1bbf 38c8 ce3e 47a2 bcbd 8eac 91be
00000020: a29c 1d3e 5232 113f a0be 723e 0d7e d4bd
00000030: 5743 7a3e 651e 11bf 8812 713e 382a 4abf
00000040: 1468 c43d 2fa1 f4be 597a d4bd 70e8 073f
00000050: 355c 2a3f a528 aebe 50cf e0be 1a6b 3c3e
00000060: ebb3 8d3d 0801 79be c891 2abc 6cf6 5bbe
00000070: 242c a13e 7a9a 043f 9f03 f1be 4212 ee3e
00000080: 2085 183e b6c1 be3e 905e 823d 47cb 073e
00000090: 2650 fd3e ae8e e23e b418 f13e d990 05bd
000000a0: d59f 7d3e 6912 d13e 3b8f d4be 69d6 1f3e
000000b0: 806b 64be 7c1e 973e 3531 8dbe 4570 0c3d
000000c0: b5b7 003f e51e d4be fe20 27bf 87f6 d5be
000000d0: 431c 933e fd8e a73e 7954 94be 3a19 61bc
000000e0: 25e5 bfbe 83b0 9fbe b834 093f f270 ad3e
000000f0: 6f3d c0bd b2b3 5c3e 9841 0e3e f89c 173e
0.3941114 0.40937763 0.2634651 0.06616243 -0.6060426 0.4038713 -0.092106394 -0.2845196
0.15391782 0.5671741 0.2370553 -0.10375605 0.2443975 -0.56687003 0.23542225 -0.7897067
0.09590164 -0.47779223 -0.103748985 0.53089046 0.66546947 -0.34015384 -0.43908167 0.18400231
0.06919082 -0.243168 -0.0104107335 -0.21480721 0.3147899 0.5179821 -0.47073075 0.46498305
0.14894533 0.37257165 0.063656926 0.13261138 0.4947521 0.4424948 0.4708916 -0.03260884
0.24768002 0.40834358 -0.41515526 0.15609135 -0.22306633 0.29515445 -0.27576604 0.034286756
0.50280315 -0.4142982 -0.6528472 -0.41789648 0.287325 0.3272628 -0.28970698 -0.013738925
-0.3747951 -0.31189355 0.5359607 0.33875233 -0.093867175 0.21552923 0.1389221 0.14805973

encoder.lstm_cells.0.conv_c.convs.<inj___-___inj>.lin_dst.weight f4 [8, 8]
00000000: f116 8bbe 1edf dabe c1be dd3e f431 b03c
00000010: a3b0 a63e 4cf2 2bbe 9de9 863e c1a5 013f
00000020: dbe3 9f3e 628a cd3d 61ef 203f 19c4 81bd
00000030: 73a8 4a3e 08fc 243f 5659 103f ad47 4cbe
00000040: c83f 1d3f c19f 953e 26bf c9bd f88a 173f
00000050: dacb c5be 6426 ab3e 9b67 243f bb9f f7be
00000060: 63f1 d8be ecca 2cbf 0928 a9bd 37b3 1dbf
00000070: 5dfc 08be 0bfe 803e 6c75 cc3e ff7f ce3e
00000080: a49e cd3e e180 a33e 0c6c d1be 31a2 dbbe
00000090: 874f 2fbd f4d0 043f 77ad 8c3d fc9b e7bd
000000a0: 2939 f4be fb4b bdbe 8fe7 e3be 6ee8 db3e
000000b0: c25c 00bd b59f f4be d8de 083d 0cc5 d53d
000000c0: 30e0 78bc 373e 923e 1622 9b3e 338f 03bf
000000d0: 1589 09bf f7a1 bdbd d83f 09bf c9a0 1dbf
000000e0: 6821 f63e 393c e7bd dfd4 8dbe 2d84 8bbe
000000f0: 4f25 d2be 4d69 0a3f 65ac 27be 2f1e 92be
-0.2716594 -0.4274835 0.43309596 0.021508195 0.32556638 -0.16791648 0.26350108 0.50643545
0.31228527 0.1003616 0.62865263 -0.06336231 0.19790821 0.6444707 0.56386316 -0.19949217
0.6142545 0.29223445 -0.09850912 0.59196424 -0.3863209 0.33427727 0.6422059 -0.48364052
-0.42371663 -0.67497134 -0.08259589 -0.61601585 -0.13377519 0.2519382 0.39933336 0.40332028
0.40160096 0.31934264 -0.40902746 -0.4289718 -0.042800453 0.5188134 0.06869023 -0.113090485
-0.4769986 -0.3697203 -0.44512603 0.42950767 -0.03133846 -0.47778097 0.033415645 0.10437974
-0.015190169 0.2856309 0.30299443 -0.5139038 -0.53724796 -0.09259408 -0.5361304 -0.61573464
0.48072362 -0.112907834 -0.2770147 -0.2724928 -0.4104409 0.54066926 -0.16374357 -0.28538653

encoder.lstm_cells.0.W_c.inj f4 [1, 8]
00000000: ab9a 12bf 0600 043f b4d3 a73e f607 233e
00000010: ace7 23bf f05b 67bf b3a6 d8be 0329 473f
-0.57267255 0.51562536 0.32778704 0.15921006 -0.6402538 -0.9037466 -0.4231468 0.77796954

encoder.lstm_cells.0.W_c.prod f4 [1, 8]
00000000: 2bb2 8d3e df06 093f 8006 2c3f c679 b93e
00000010: 3cae 62bd e0d7 45bf fa1a 04bf 7474 22bf
0.27674994 0.5352611 0.6719742 0.36225718 -0.055341944 -0.77282524 -0.5160366 -0.63458943

encoder.lstm_cells.0.b_c.inj f4 [1, 8]
00000000: 7536 643f 0664 143e 4b8c abbe e053 fcbe
00000010: 38bd 4cbf 36ca 26bf b214 003f 002b 37be
0.89145595 0.14491281 -0.33505473 -0.49282742 -0.79976225 -0.651523 0.5003158 -0.17887497

encoder.lstm_cells.0.b_c.prod f4 [1, 8]
00000000: 000d 8bbe f4e5 723d f30f babe a3d9 7d3a
00000010: d5a7 353e 6e66 c2be 91a7 e2be 842a 1abe
-0.27158356 0.05930133 -0.36340293 0.00096836145 0.17739804 -0.37968773 -0.44268468 -0.15055281

encoder.lstm_cells.0.conv_o.convs.<inj___-___prod>.att_src f4 [1, 1, 8]
00000000: c8e0 abbe ab90 ea3e f407 0a3f 796d 7b3f
00000010: f52d 783f 5bfe afbe 9dbf 053f a723 6abe
-0.33569932 0.45813498 0.53918386 0.98213917 0.96945125 -0.34373745 0.52245504 -0.22865163

encoder.lstm_cells.0.conv_o.convs.<inj___-___prod>.att_dst f4 [1, 1, 8]
00000000: 217c 28be 5bd7 40bf a3a5 593f 64e7 05bf
00000010: b959 123f 41aa c93e 6fb9 143e 7c3a febe
-0.16453601 -0.75328606 0.85018367 -0.523062 0.57168156 0.39387706 0.14523862 -0.49653995

encoder.lstm_cells.0.conv_o.convs.<inj___-___prod>.bias f4 [8]
00000000: f2e6 413e a424 453e 91c2 143e 9222 733e
00000010: 234b 983e caf8 8e3e d071 8f3e 0b87 893e
0.18935755 0.19252259 0.14527346 0.23743656 0.29744825 0.27924186 0.2801652 0.26860842

encoder.lstm_cells.0.conv_o.convs.<inj___-___prod>.lin_src.weight f4 [8, 8]
00000000: bae6 98be 21a0 253f 64e1 52be 9ad3 76be
00000010: fac2 85be 25cb c5be 2b02 8b3e a690 073f
00000020: 1aa6 24be ec3a 733e 0884 2abf 8ab3 f7be
00000030: 214c ba3e 2712 d0bd 503f 473f 2f7d c9bd
00000040: a342 44be 7761 68be f76c d93e b081 17bf
00000050: f65d 043e e171 c2bc 7eb5 9f3e 3b2e a03e
00000060: 93c7 72bc cdd1 ae3e 76ec 31bf 01ed d0be
00000070: 3b20 4d3f e33f f63e 7235 653d ea04 edbe
00000080: 48dc f6bd e321 e23e 01e4 8bbe d2be 8cbe
00000090: ff28 703d 238d fe3e 0031 adbd 8b23 ccbe
000000a0: 7ebc 313f 5c7c 1f3f 773c 17bf b2c3 68bf
000000b0: b3b5 09be 4642 0c3e 9d4d d83e f42f fd3e
000000c0: 6d0d 1bbe b058 273f aee8 33bf 209f cf3a
000000d0: 56ad fd3d d008 563c d008 503f 4b12 ddbe
000000e0: 5935 dabe 40e2 07bf 154b c13e 9374 5f3d
000000f0: 3745 13bf 1fc4 7e3e 4687 3a3f e966 d4be
-0.2986353 0.6469746 -0.20593792 -0.24104157 -0.26125318 -0.3863155 0.27150092 0.5295509
-0.16078988 0.23752946 -0.66607714 -0.48379165 0.36386207 -0.10159712 0.7783098 -0.0983833
-0.19166045 -0.2269343 0.42465946 -0.5918226 0.12926468 -0.023735942 0.31193155 0.3128527
-0.01481809 0.3414444 -0.69501436 -0.4080582 0.80127305 0.48095617 0.055959173 -0.46292812
-0.12053734 0.4416648 -0.2732239 -0.27489334 0.058632847 0.49717054 -0.08456612 -0.39870867
0.6942824 0.6229913 -0.5907664 -0.9092361 -0.13448219 0.13697156 0.42246714 0.49450648
-0.1514184 0.653697 -0.70276916 0.001584027 0.12386577 0.0130636245 0.81263447 -0.4317802
-0.42618826 -0.53079605 0.37752596 0.054554533 -0.5752749 0.24879502 0.7286266 -0.41484764

encoder.lstm_cells.0.conv_o.convs.<inj___-___prod>.lin_dst.weight f4 [8, 8]
00000000: ddf5 d13e ee1f ffbc 3698 e43c 4fec 093f
00000010: 2a3f f53e 0e8f c43e 95e5 273f 31c1 433e
00000020: d6b7 8a3d 5354 25bf dd1f b03d 6400 e9be
00000030: 27ab e33d 7e17 5f3e d115 363e b4ea f7be
00000040: 8a47 aebe 0c29 0f3f 70a9 a73e 3aa6 ae3e
00000050: c5d5 d8bd d621 5dbe 52c1 a3be 6a95 f83e
00000060: 8f9d 94be 5f45 943e 293f ca3e 4cc2 12bf
00000070: da90 89bd 3271 45bc dc91 3fbe 156a 4f3e
00000080: 43b8 2cbd 6d45 253f b3dd b5be 4963 9b3e
00000090: 3f14 e4be ddf5 d5be b187 fcbd 04b9 0c3f
000000a0: ab55 b83e d0d2 c7be c5ca c63d 167c adbe
000000b0: 39bf d83d 7548 1fbf 1a36 b2be 471c f93e
000000c0: d7d4 0bbf bfd6 febe fd53 0f3e 08d6 ae3d
000000d0: ba59 5bbd 53b1 dc3e fc14 01bf 193d a3be
000000e0: caa8 fbbe 16e1 61be e3aa 3ebe c0c5 b73e
000000f0: f3b4 e1bd cca3 9c3e 9fcc babd a2d5 dd3e
0.4100789 -0.031143155 0.027904611 0.53876203 0.47899753 0.38390392 0.6558469 0.19116665
0.06773345 -0.64581794 0.085998274 -0.4550811 0.11116629 0.21786305 0.1778176 -0.48421252
-0.34038955 0.5592201 0.32746458 0.34111196 -0.10587648 -0.21594939 -0.3198343 0.48551494
-0.29026458 0.28959176 0.39501312 -0.57327724 -0.06717081 -0.012050914 -0.18707985 0.20255311
-0.042167913 0.6455906 -0.35520706 0.30349186 -0.44546697 -0.4178914 -0.123305686 0.5496981
0.3600286 -0.39028025 0.09706644 -0.33883733 0.10583348 -0.62219936 -0.348069 0.48654386
-0.5462164 -0.49773213 0.13996883 0.08536917 -0.053552367 0.43104038 -0.50422645 -0.3188255
-0.49152213 -0.2205852 -0.18619876 0.3589306 -0.110208414 0.30593717 -0.091210596 0.4332705

encoder.lstm_cells.0.conv_o.convs.<prod___-___prod>.att_src f4 [1, 1, 8]
00000000: 44d2 793f 9d13 3c3d f461 1abe 2de2 f4be
00000010: c88b f53e 765c 93be 0246 8abd 6d57 6a3f
0.97586465 0.045917142 -0.15076429 -0.47828808 0.47958207 -0.2878148 -0.06751634 0.9153965

encoder.lstm_cells.0.conv_o.convs.<prod___-___prod>.att_dst f4 [1, 1, 8]
00000000: 8589 a33e 7085 1cbf 2b3c adbe 54bc 053e
00000010: 9552 0f3f 6cee f7bd 019c bdbe c6f0 d2be
0.31940857 -0.6114111 -0.33834967 0.13060123 0.55985385 -0.12106022 -0.37033084 -0.4119932

encoder.lstm_cells.0.conv_o.convs.<prod___-___prod>.bias f4 [8]
00000000: f2e6 413e a424 453e 91c2 143e 9222 733e
00000010: 234b 983e caf8 8e3e d071 8f3e 0b87 893e
0.18935755 0.19252259 0.14527346 0.23743656 0.29744825 0.27924186 0.2801652 0.26860842

encoder.lstm_cells.0.conv_o.convs.<prod___-___prod>.lin_src.weight f4 [8, 8]
00000000: bc47 3e3f e963 9abe a5ef 133d b428 dabe
00000010: 8226 003f 2561 4bbf db9b 13bf 5946 493f
00000020: 4ba1 d2be 55e9 253f 19df 7cbd d826 c63e
00000030: d3ab 33be e2a3 5b3e 6282 0ebe 0a39 0a3e
00000040: afc1 963e a9b7 dfbe 865e b0be ee28 e53e
00000050: d7a3 53be b284 1fbf d639 3fbe 3a12 88bd
00000060: d0b9 963a 07b7 78be 0c09 843e dc63 11bf
00000070: 9e44 913e e21e ddbb fdd7 cfbd 0521 673e
00000080: e462 c03d e757 4bbd c480 bfbe 73d9 b5be
00000090: 8384 01be ad8e fdbe 487e ae3e 7a57 593e
000000a0: 7fd4 153f 646a 303f ead1 a63d 0a7f 09bd
000000b0: 0cda cbbd 0607 08bf a75c efbd e802 9ebe
000000c0: 4df9 69bd 6e85 0b3f a97b 9a3e 9286 9a3c
000000d0: 5d82 d83e 5fc7 853d b92f 7cbd 93d2 fe3e
000000e0: ea05 3ebe c7f9 b3be 9f88 babe fc07 9dbe
000000f0: 6e28 b83e 3137 82be e529 3ebc 330c 313f
0.7432821 -0.3015435 0.036117215 -0.4260918 0.5005876 -0.79445106 -0.5765969 0.78622967
-0.41138682 0.6480916 -0.0617362 0.3870151 -0.17546014 0.21449235 -0.13916925 0.13498321
0.29444644 -0.4369481 -0.34447116 0.4475779 -0.20667969 -0.6231185 -0.18674406 -0.066441014
0.0011499468 -0.2428857 0.25788152 -0.56793 0.28372663 -0.0067480663 -0.10148618 0.2257119
0.09393862 -0.049644377 -0.37402928 -0.35517463 -0.12648205 -0.49522915 0.3408072 0.21224776
0.5852737 0.6891234 0.08145507 -0.03356842 -0.099536985 -0.53135717 -0.11687594 -0.30861592
-0.057122517 0.5450047 0.3017247 0.018862996 0.4228696 0.06532168 -0.06156895 0.4977003
-0.18556944 -0.35151502 -0.3643236 -0.30670154 0.35968345 -0.25432733 -0.011606668 0.6915924

encoder.lstm_cells.0.conv_o.convs.<prod___-___prod>.lin_dst.weight f4 [8, 8]
00000000: ea93 a1be 3bff 2ebf 0667 f8be 5f3d babe
00000010: 5eb1 db3e 19e7 87be 83de 69bc c3c7 bb3d
00000020: 7b22 9dbe d747 c23e 40c0 c1bd 00a5 003d
00000030: b6d4 01bf cb61 42be 2e24 203d 2b9a 6dbe
00000040: 8c32 27be 1004 913e 56f9 a0bb 941a 8dbe
00000050: 9876 05bf f763 85be f73c 21bf 7434 a03e
00000060: f224 bfbe 6143 a3be 7547 12be 5d7d e73d
00000070: 1668 08bd a23c f93e 8b11 d0be 1b69 b13e
00000080: 2d3a 8dbd 0e0f 1abf 1bc0 ccbe 17a5 b43d
00000090: 633e 453e 6290 133f 5043 eb3e 43e9 ffbd
000000a0: c1a0 5abe ebb1 1fbd 19ab 9ebe 4df0 00be
000000b0: 33a4 10bf 097b ed3d 9cbb c43e cf8d ecbd
000000c0: 9ab2 c3be 2084 bcbe 8826 bbbd b6d5 6c3e
000000d0: ef72 69bd 0a25 3dbc efec 073f a598 c63d
000000e0: 2d4a 4b3e 2d0f acbc ecea e93e 8413 963e
000000f0: 344c 21bf 01e7 fbbe cf74 cfbc e765 833c
-0.31558162 -0.683582 -0.485161 -0.36374947 0.42908758 -0.265435 -0.014274242 0.09168961
-0.3069037 0.37945434 -0.09460497 0.031407356 -0.50715196 -0.18982618 0.039097004 -0.23203342
-0.16327876 0.28323412 -0.0049125357 -0.2755934 -0.52134085 -0.2605283 -0.6298365 0.3129002
-0.37332875 -0.31887344 -0.14285071 0.11303208 -0.03330239 0.48679072 -0.40638384 0.34650502
-0.06895862 -0.6017922 -0.39990315 0.08820551 0.1926208 0.57642186 0.45949793 -0.12495663
-0.21350385 -0.038988035 -0.30989912 -0.12591667 -0.5650055 0.11595733 0.38424385 -0.11550485
-0.382222 -0.36819553 -0.09138209 0.23128399 -0.056994375 -0.011544475 0.53095907 0.096970834
0.19852515 -0.02100333 0.45687044 0.29311764 -0.630069 -0.4919968 -0.025324253 0.016039802

encoder.lstm_cells.0.conv_o.convs.<inj___-___inj>.att_src f4 [1, 1, 8]
00000000: 5427 06bf 2bd0 6e3e 0db8 343f 82b2 59bf
00000010: bd05 f93d e6bd b63e a2e2 723e fff9 5abe
-0.5240376 0.23321597 0.7059334 -0.85038006 0.121592976 0.35691756 0.23719266 -0.21384428

encoder.lstm_cells.0.conv_o.convs.<inj___-___inj>.att_dst f4 [1, 1, 8]
00000000: 4bc8 cc3e fd59 f23e f133 a33e 1059 41be
00000010: ed0d 7cbe 8afc 6a3d 3d10 40be b080 99be
0.3999656 0.4733428 0.31875566 -0.18881631 -0.24614687 0.057369746 -0.18756194 -0.29980993

encoder.lstm_cells.0.conv_o.convs.<inj___-___inj>.bias f4 [8]
00000000: 7d44 5f3e 943f 5d3e 9631 453e 629d 853e
00000010: aa28 b83d 3be5 003e 04c9 423e 23c9 ad3d
0.2180347 0.21606284 0.19257197 0.26096636 0.08992131 0.12587444 0.19021994 0.084856294

encoder.lstm_cells.0.conv_o.convs.<inj___-___inj>.lin_src.weight f4 [8, 8]
00000000: b392 fa3e 023d 6fbe 3fca 4ebf d005 76be
00000010: 22d6 1cbe 5d07 4f3e 2ce9 943c c65c 823e
00000020: d156 e13d c449 283f a93d febe 1686 343e
00000030: 84ee 66bb 1282 bbbe 0862 bc3e f1a9 37bf
00000040: 0f6e 2e3f 1778 043e 3263 01be e787 b33d
00000050: 3a59 1c3d 59a3 c33e 3f12 103f dc1e 32bf
00000060: 9477 223f f637 f23d ed14 c0be 0d2f 8ebd
00000070: 4c67 9d3e eeb5 babe 85ff 44be ed2d 093e
00000080: c62d 91be e462 a23e 7a6b 71bc 1631 2d3e
00000090: 92c8 c53e 6c3c c1be f90c c5be f130 9f3e
000000a0: b670 cabd ef06 f9bd c4ef d4be 2de9 1e3f
000000b0: b39f 3abd ea95 d3bd 556e babe 0ea0 743c
000000c0: b7ec 0e3f 6257 103e 0368 8b3e 7fc4 a4be
000000d0: dc09 01be 52e7 b93e dc1a 633e f0cb bebe
000000e0: 555e d93e 965a 1d3f 3a41 1fbd 849b 483e
000000f0: d2e8 8f3e 3306 0c3e 4f04 cc3e 739f b8bc
0.48940048 -0.23363116 -0.80777353 -0.24025655 -0.1531606 0.20217653 0.018177591 0.25461406
0.11002887 0.6573756 -0.49656418 0.17629275 -0.0035237381 -0.36622673 0.36793542 -0.71743685
0.68136686 0.12936436 -0.12635496 0.08766156 0.03817103 0.38210562 0.5627784 -0.6957834
0.6346371 0.1182708 -0.37515965 -0.06942568 0.30742872 -0.36466926 -0.19238098 0.13396426
-0.28355235 0.31716073 -0.014735097 0.16913256 0.38629586 -0.3774141 -0.3848646 0.31092027
-0.09884779 -0.121595256 -0.41589177 0.6207455 -0.045562457 -0.10331328 -0.36412302 0.014930738
0.5582995 0.14095834 0.27227792 -0.32181165 -0.12601417 0.36309296 0.22178215 -0.37264967
0.42454782 0.6146635 -0.038880564 0.19590575 0.28107315 0.1367424 0.39847037 -0.022536969

encoder.lstm_cells.0.conv_o.convs.<inj___-___inj>.lin_dst.weight f4 [8, 8]
00000000: 87bf c23d 3dd2 fb3e b78c 033f 4007 4b3e
00000010: 3689 e1bc 84db 093f 249c e5be 1177 cf3e
00000020: 7b48 b63e e293 b93e d87b cebd 04d2 f4be
00000030: bde6 e13e ba3d 8ebe 121f 433e aac6 993e
00000040: efab 0abf d4b5 203c 1ccd 8abe 93bb d33e
00000050: 6e5b c5be 5857 b93e 9093 d23e b0a5 953e
00000060: 68df 0e3f c984 003e 539d ffbe 7a39 eb3e
00000070: 68a8 4c3d 940d a93c 0478 1dbf 5230 bbbd
00000080: f3ea a7be eaaa 213f 2a24 fb3e 8f1f f53e
00000090: b509 d43e 07a7 bdbe 0f62 96be a44e 46be
000000a0: f490 5cbe 542d ea3e d96d 2d3e a399 f53e
000000b0: 1248 02bd 7991 0ebf 1838 1fbe 9f2b cb3e
000000c0: 7887 af3e 5583 633e 1019 febd 04a4 0cbf
000000d0: 9b89 abbe 43d5 a73e 06b1 8ebe c194 ad3e
000000e0: 8166 0b3e aa93 50be a7f7 da3e 845c 33be
000000f0: eeb7 cfbc b916 65be b671 1cbf 74ec 143e
0.09509187 0.49183837 0.5138659 0.19826984 -0.027531248 0.5385058 -0.44845688 0.40520528
0.35602173 0.36245638 -0.10082215 -0.4781648 0.44121352 -0.2778147 0.19054821 0.3003438
-0.541686 0.009808976 -0.2710961 0.41354045 -0.38546318 0.3619945 0.41128206 0.29227972
0.5580964 0.12550654 -0.49924716 0.4594229 0.049965292 0.020636357 -0.61511254 -0.09140076
-0.3279644 0.6315142 0.49051028 0.4787564 0.41413656 -0.37041494 -0.29371688 -0.19365937
-0.2153967 0.45737708 0.16936435 0.47968778 -0.031807013 -0.55690724 -0.15548742 0.39681718
0.34283042 0.22218068 -0.12407124 -0.5493777 -0.33503422 0.32779893 -0.27869433 0.33902553
0.13613321 -0.2036883 0.4276707 -0.1751576 -0.02535626 -0.2237195 -0.6111101 0.14543325

encoder.lstm_cells.0.W_o.inj f4 [1, 8]
00000000: 13f5 893e 59ae 41be 765a 90be 30d4 b3be
00000010: 4b8b b5bd 2807 f7be 8b0b 2fbf f4db ed3e
0.2694479 -0.18914165 -0.28194016 -0.35122824 -0.08864459 -0.48247647 -0.6837699 0.46456873

encoder.lstm_cells.0.W_o.prod f4 [1, 8]
00000000: 69df 02b9 1ddb 053f 8b5f debd 049b 2fbf
00000010: 17cc 07be 3baf 11be 55df 12be 1410 80bf
-0.00012480993 0.52287465 -0.10858067 -0.6859591 -0.13261448 -0.14227001 -0.14343007 -1.0004907

encoder.lstm_cells.0.b_o.inj f4 [1, 8]
00000000: 7495 e4be 8294 663f 6a66 09be 6663 f43e
00000010: 5204 46be 64d6 443e 9f91 733f b60c ec3e
-0.44645274 0.90070355 -0.13417974 0.47732085 -0.19337586 0.19222409 0.95144075 0.46103448

encoder.lstm_cells.0.b_o.prod f4 [1, 8]
00000000: 05aa 04bf 673f 043f b29a 6b3f 6f8c e73e
00000010: 0248 583f a9c7 8a3f 9ec6 1e3e 894b e03e
-0.5182193 0.51659244 0.9203292 0.4522433 0.84484875 1.0842181 0.15505454 0.4380763

decoder.lstm_cells.0.conv_i.convs.<inj___-___prod>.att_src f4 [1, 1, 8]
00000000: b949 c7be 7b79 c6be 024a 4b3f 0272 aa3e
00000010: 94b1 d7be bf3d 30bf deb3 27bf 6bda 1abf
-0.38923433 -0.38764557 0.794098 0.33290106 -0.4212767 -0.6884422 -0.6550883 -0.6048953

decoder.lstm_cells.0.conv_i.convs.<inj___-___prod>.att_dst f4 [1, 1, 8]
00000000: b9a8 2abf 6f39 c0be 7462 fa3e 5a96 803e
00000010: 636e 0abf 326c 55bf 26f2 163f aa90 47bf
-0.666637 -0.37543818 0.4890324 0.2511471 -0.54074687 -0.8336822 0.5896324 -0.77955115

decoder.lstm_cells.0.conv_i.convs.<inj___-___prod>.bias f4 [8]
00000000: a0d4 1a3e 59ba 08be bea9 493e 21e7 03be
00000010: 9771 a7bd 5440 173e 49d0 5b3e cb1f 3f3d
0.15120173 -0.13352336 0.19693658 -0.12881137 -0.081759624 0.14770633 0.21466173 0.04666118

decoder.lstm_cells.0.conv_i.convs.<inj___-___prod>.lin_src.weight f4 [8, 8]
00000000: ce6d a53e 9c60 2cbe 9d2b cd3e aaf1 0ebf
00000010: 2e65 2abf 4e96 84be d8f7 cdbd ae4b b83d
00000020: c498 57be 2cbf 033e a52c 13bf b44f 873e
00000030: 3e96 533e 9fc3 a6bd f08c c03e 1196 8a3e
00000040: 5a4a e7be 8b20 1bbf 94e6 19be be4e abbe
00000050: b8b8 7a3e ddb8 fbbc 1105 cd3e 2238 143e
00000060: fc35 77be 2258 1abe 9561 d13d 9239 223d
00000070: 8283 243f 9ed6 32bf 1a37 a23d f875 09bf
00000080: ef4c 38bf 6df3 a0be 679a 673e 41a5 113f
00000090: 0e4c a03e a602 76be 838f 6abe ca0e e9be
000000a0: ffe3 513c 13c3 1e3d ce50 dc3e e604 943e
000000b0: febf 22bf c019 093e eb01 9bbe a447 98bd
000000c0: dec8 a1be 1ab2 af3e afcd ffbe 5874 d43e
000000d0: d035 923e 47a5 84be b0db c1be f4b7 463e
000000e0: f7a4 1abe 4f12 3f3e ebb3 cebe 7ea1 bb3e
000000f0: de12 f2be 38c2 b5be 4bc8 b7be 51b4 963e
0.32310337 -0.16833729 0.40072337 -0.558375 -0.6656064 -0.25895923 -0.10057038 0.0899881
-0.21054369 0.12865895 -0.5749 0.26427996 0.20662782 -0.081427805 0.37607527 0.27067617
-0.45173913 -0.6059653 -0.15029365 -0.33458513 0.24484527 -0.030727798 0.40042928 0.14474538
-0.24141687 -0.15072682 0.102236904 0.039605685 0.64263165 -0.6985873 0.07920666 -0.5369563
-0.7199239 -0.3143572 0.22617494 0.5689278 0.31308025 -0.24024448 -0.22906308 -0.45519096
0.012810706 0.038760256 0.430304 0.28909987 -0.63574207 0.13388729 -0.302749 -0.07435539
-0.31598562 0.34315568 -0.49961612 0.41495013 0.2855668 -0.25907347 -0.3786292 0.1940611
-0.15101992 0.18659328 -0.40371642 0.36646646 -0.4728002 -0.3549974 -0.35895 0.29434446

decoder.lstm_cells.0.conv_i.convs.<inj___-___prod>.lin_dst.weight f4 [8, 8]
00000000: 00b2 34be cec1 14bf 5b8d aebe b393 bbbe
00000010: 887f 9fbe cd63 c53d 0068 913e ff14 8b3d
00000020: f049 d7be 8a1e 923c c1a0 ebbe 60bd efbe
00000030: 6055 873e c87e 113f 51c4 05be 1486 fb3e
00000040: 2717 95bd 1b4a 36be e224 1bbf c476 183f
00000050: 242f b03e df43 16bd 0513 a83e a9a6 a73e
00000060: eebb ed3e e0c5 9d3e 0700 16bf bf4f fcbe
00000070: 4db8 3dbf 13eb 353e 1f1e 19bf 1855 28bf
00000080: 2808 ebbe 41e1 0dbf de10 823c 96d7 833b
00000090: 6038 d7bd aff9 d73e 530e 2ebe e334 663b
000000a0: 0e85 9a3e 0cbe 093f 6796 64bd 0fcc 06bf
000000b0: 2c67 37bd b9dc c93d a553 d83e 1d39 f93e
000000c0: c13a d9bd fa81 17bf 8cb5 0cbf 3b14 ddbd
000000d0: 13b9 84be ecd7 96be 9c50 0cbf 7459 f5bd
000000e0: 0389 26bf ac97 eabe 948d f7be b80d 81be
000000f0: d8b9 4e3f 5d36 843e 52a2 1abc 8538 9e3e
-0.17646027 -0.5810822 -0.3409222 -0.36636123 -0.31151986 0.09638176 0.28399658 0.06791114
-0.42048597 0.017836828 -0.46021083 -0.4682417 0.26432323 0.5683408 -0.1306317 0.4912573
-0.072798066 -0.17801706 -0.60603154 0.5955622 0.34410965 -0.03668582 0.3282701 0.3274434
0.4643244 0.3081503 -0.5859379 -0.4927959 -0.74109346 0.17765455 -0.59811586 -0.6575484
-0.4590466 -0.55421835 0.015877184 0.0040235026 -0.105087996 0.4218268 -0.16997652 0.0035126738
0.30179638 0.53805614 -0.055807497 -0.5265512 -0.044776127 0.09856553 0.42251316 0.48676386
-0.106069095 -0.59182703 -0.5496452 -0.10794874 -0.2592245 -0.2946161 -0.548105 -0.119799525
-0.65052813 -0.4581884 -0.48350203 -0.2520578 0.80752325 0.25822726 -0.009438114 0.30902496
